01_mlp/1_mlp.pth (torch_old, 91530 bytes, 5 tensors)

model.0.weight f4 [200, 11]
00000000: 5104 e9be 1cf0 803e 4e0c b43e e528 8b3e
00000010: 1ca5 10be 30e1 83bf be5d 173f ad26 a43d
00000020: 23c4 d03e 5af3 ad3e 2d88 4cbe 3d87 afbd
00000030: 619e 2fbe 7a38 343d 7dc6 173f 96e5 853e
00000040: bae2 f73d 0a2c 0abf 6285 883e 30a4 c83e
00000050: 6d2b 82bd ce67 093f 4a6f aa3e c71b e2be
00000060: 7e21 96be 4ba1 5e3c 00ec d63e 369a fe3e
00000070: cb5a d13e 747b 28be fad6 02bf e67a 7b3e
00000080: fbfc 8abc c4f0 02bf 20d7 a4be 270b 1d3f
00000090: c2f4 afbe 6dc8 b93e c096 7abe c1dc d93e
000000a0: 09fc afbe a298 d23e 9fae 8cbd b3dc 55bf
000000b0: 449c dfbd 135b c4be cde6 073f 7dfc c53e
000000c0: a857 22bf 48fc 0b3e 149e f6be 0bf1 83be
000000d0: 51bf 263f bc8c b73e 49d6 b73d 86e1 56be
000000e0: e8d7 0fbe 2758 dd3d d055 0bbf 8840 fbbc
000000f0: a9c1 a53e ff6b ee3d 074a b3be a0c2 883e
00000100: a602 67bf 196e 57be e398 dbbe 05b9 92be
00000110: 842a a43e 15fb 4e3e c5f2 02bf d194 453e
00000120: 079c bf3d 86b8 883e 0abc 15bf 7d45 e2be
00000130: e6a4 54be 744a 56be 6849 663e e471 14bf
00000140: 3bfd 873e 1b88 febe 152b 04bf efad 99bd
00000150: 5976 27bf cded f33d e41e 4dbe 3ddc 803e
00000160: 65ed 123d 4787 f73d 46e0 023e 88c1 ac3b
00000170: 03c8 373e 4203 43bf 7b8a eebe abc7 a8bc
00000180: b6a3 263e 47d2 383c f4cd 5ebe 11ec c93e
00000190: 4a28 583f 7078 05bf 4f87 0cbf 7163 643e
000001a0: 424a 90bd 1890 073f e552 e23e bec7 2b3e
000001b0: ca74 5bbd a088 ac3e cfef 47bd 10fa 813f
000001c0: 9bba a2be 1625 dc3e 02de 80be 295e d23e
000001d0: df2a 123f e163 bfbe ed8c a2bd 0c50 473d
000001e0: 87fe 843e 2271 9cbd 6483 b1be 1642 013e
000001f0: f60d 06bf b11b 56be c603 58bf 8d5b bd3e
00000200: 530f a93e 7fbd 033f 12b7 253d c89c 96be
00000210: ca23 963e ab12 4f3e 2d1f d5bd 7307 a93d
00000220: e769 0fbf 2a1a 6f3d 3fe6 edbd 816f a33e
00000230: 93b7 07be 7631 bfbe 613e 23bf ca3c 833e
00000240: f2de 983e 2ab6 213e 8f55 b13e 9c22 4a3f
00000250: 7b26 69bc 0055 153f 4d2d f83e cf3a 68be
00000260: 9a91 5cbe e464 9d3e c89d ee3e 005b 293e
00000270: 0cb8 77bf 5b1e f0be 91fb e03c 3224 b33e
00000280: 85cd 933e 5634 39bd 14d9 e2bd bc05 003e
00000290: dda8 7ebd 1fa2 21be be6b 0b3e 3caa 2b3e
000002a0: 013e db3d 11de 39be 3d56 2f3f 2272 07bf
000002b0: 3b3b 68bd 074f 4a3f 68e6 4a3e 297a 75bd
000002c0: 59a8 eb3e 1922 393d 3755 0b3d 8754 1bbf
000002d0: c2f4 c0be e05f e23e ea56 f8bd fbf0 d3bd
000002e0: 3935 00bf 1938 b53e 01ed 053e c1a6 2c3e
000002f0: 4049 b3be c0e4 1fbf 36fa b63e 2176 17bf
00000300: 886d 9abd 45aa 04bf ac66 ccbe 95f7 dbbe
00000310: 02ad 813e 229f a63e c940 f23e 4a87 433f
00000320: dd4d 0a3f 21cc 81be 39fa 69be 60d7 aa3d
00000330: 16f6 753e facf 0c3e b3fe 8b3e e0be 27bf
00000340: b598 b0be cd92 623e c085 d33e 0f8e 6f3e
00000350: f562 5a3e 7440 c8be c30f ad3e 74b7 dd3e
00000360: 9c7b acbe dea0 d33e 1082 ff3d 725b 123f
00000370: 1d8e 313e bee2 b13e 7442 dcbe daf0 973e
00000380: b0c3 eebe fb21 72bf a865 52be e143 963e
00000390: 17c8 093f 4f8f b4be 1581 2c3e 2485 c13c
000003a0: bcec 023f 059b 1fbf 9725 8b3e f9f1 02bf
000003b0: 3b6a 27bf 7b8a ca3d 859f b43e 53f7 4f3e
000003c0: 545b 9b3e 6fe9 41bb fd9a be3e 03c6 f73e
000003d0: 9a0d 08bf 4475 e8bc d53c b13d 9b49 0b3e
000003e0: df1c 423f 1246 a0be 82ea 423e 4949 7b3d
000003f0: fed2 35bd 29c6 efbd 7964 3f3e d2ad 2a3e
-0.45511106 0.2518319 0.35165638 0.27179638 -0.14125484 -1.0303097 0.59127414 0.08015189
0.4077464 0.33974725 -0.19973822 -0.085707165 -0.1715026 0.043999173 0.59287244 0.26151723
0.121037915 -0.5397345 0.26664263 0.39187765 -0.06355939 0.5367402 0.33288032 -0.44161817
-0.29322428 0.01358826 0.4197693 0.4972703 0.40889582 -0.16453344 -0.5110928 0.24558601
-0.016966334 -0.5114863 -0.32195377 0.6134514 -0.34366423 0.36285725 -0.24471569 0.42551234
-0.34371975 0.41132075 -0.06869244 -0.83539885 -0.10918477 -0.38350734 0.5308655 0.38669196
-0.63415 0.13670456 -0.4816748 -0.2576984 0.65135676 0.3584956 0.089764185 -0.20984468
-0.14047205 0.10807829 -0.54427814 -0.03067042 0.32374313 0.11641692 -0.35017416 0.26710987
-0.90238416 -0.21038093 -0.4289008 -0.28656784 0.32063687 0.20212968 -0.51151687 0.1929505
0.09355932 0.2670328 -0.5849005 -0.4419364 -0.20766029 -0.20926839 0.2248894 -0.57986283
0.26560387 -0.49713215 -0.5162824 -0.07503878 -0.6541496 0.11910591 -0.20031315 0.25168028
0.03587093 0.12086349 0.12780866 0.005272094 0.17947392 -0.76176846 -0.46590027 -0.020603022
0.16273388 0.011280603 -0.21758252 0.39437917 0.84436476 -0.521369 -0.54893965 0.22303559
-0.070454136 0.52954245 0.44203869 0.16775414 -0.053578176 0.33697987 -0.048812684 1.0154438
-0.31782994 0.42997044 -0.2516938 0.41087463 0.57096666 -0.3738089 -0.07937036 0.048660323
0.2597544 -0.07638766 -0.34670556 0.12622866 -0.5236505 -0.20909001 -0.8438076 0.3698391
0.33019504 0.51461023 0.040457793 -0.2941649 0.2932418 0.20221965 -0.10406337 0.08253374
-0.5602097 0.05837456 -0.116161816 0.31921008 -0.13253622 -0.37342423 -0.6376706 0.25632316
0.29857594 0.15792146 0.3463559 0.7895906 -0.014230366 0.58332825 0.48472062 -0.22678684
-0.21539918 0.30741036 0.46604753 0.1653862 -0.9676521 -0.4689816 0.027463706 0.34988552
0.28867736 -0.045215927 -0.110765606 0.12502187 -0.06217276 -0.157845 0.13615319 0.16764158
0.10705186 -0.18151118 0.68490964 -0.5290853 -0.05669711 0.79026836 0.19814456 -0.059930954
0.46026877 0.045198534 0.034016814 -0.60675853 -0.37686735 0.44213772 -0.121259525 -0.10348698
-0.5008121 0.35394362 0.13078691 0.16860487 -0.35016823 -0.6245842 0.3573777 -0.59164625
-0.07540423 -0.5182231 -0.39922082 -0.42962328 0.25327307 0.32543284 0.47315052 0.7637831
0.5402506 -0.2535105 -0.22849359 0.08341861 0.24019656 0.13751212 0.27342758 -0.6552563
-0.34491506 0.22126313 0.4131298 0.23394035 0.21326812 -0.39111674 0.33801088 0.43304026
-0.33688056 0.4133367 0.12475979 0.57170784 0.17339368 0.34743303 -0.4301945 0.29675943
-0.46633673 -0.945831 -0.20546591 0.29348662 0.5382094 -0.35265586 0.16846116 0.023623057
0.5114248 -0.62345916 0.27177116 -0.5115047 -0.6539647 0.09889694 0.35277954 0.2030919
0.30343115 -0.00295886 0.37227622 0.48393258 -0.53145754 -0.02837623 0.08654181 0.13602297
0.75825304 -0.3130346 0.1903477 0.061349187 -0.04439067 -0.11707718 0.18690671 0.1666787

model.0.bias f4 [200]
00000000: 5f0a 0ebe 09e2 03be 19db c7be 76c7 0bbe
00000010: ef2e 333e b9c7 9cbe adaf 79bc c5ba 933d
00000020: 1a3a a33e aad9 1ebe 38e8 d23e 7405 b03e
00000030: e322 01bf 240b 9ebe 5553 943e 5724 563d
00000040: 5aab 073d f42e 8b3d 8b01 793e d700 99be
00000050: b50e f03d b082 11bf a354 363e 160b ddbe
00000060: 0483 9d3d dec1 83be 1654 02be d6c6 00bf
00000070: 8b7d a63e 09c7 d7be 5d2e 7fbe 66e8 00be
00000080: 70c1 8a3e 5c55 46bd 2e27 a7be 222f a3be
00000090: 0c77 b4be 9260 373e 292e 2a3e 1751 abbe
000000a0: 09ad 02bf 3e6a 8fbe 62c7 e03e 4350 10be
000000b0: d0d0 d5bd 6822 09bf 97fe e7be 5325 47be
000000c0: a6dc f23d 6ecb a3be 8925 3bbc 2490 52be
000000d0: 209b d4bd 2097 3ebe e31e bdbe 3481 32be
000000e0: 5371 a0be 5034 4a3e b186 8d3e 49c6 8dbe
000000f0: 0396 1cbe 7748 153e abcd 833d 3a24 1dbf
00000100: eebe 55bf 4d74 12bf c8b2 233e 73b2 543e
00000110: 1e15 9e3e 6f66 153e bddb 793e fd0f 193e
00000120: 5ffa 15bf 5023 313d b284 d2bd 050a 50bf
00000130: fb15 30bf cd38 30bf 476c c93e 70a3 d1be
00000140: bc29 48be f111 0e3b 581b 363e b0af b6be
00000150: fc93 003d 3d02 edbe 740c 94bd dfb4 06be
00000160: bf56 043f 7e0f 5e3e 77e0 0cbf 2b37 b3be
00000170: 09c6 09be 2812 3e3d 9c58 9bbe 44d9 863e
00000180: 5b28 5b3d 9ee7 fe3d 002f 26be 73ca a23e
00000190: e880 9a3e 38ab c93d bc72 4a3e 7a0a 793e
000001a0: c6fc d0bd f956 28bf 73ca d5bd bb97 933e
000001b0: 1d37 173d 378c 0b3d d6d4 923e 1dcf bfbe
000001c0: 61fa 6d3b 4acb 8abd b522 1b3e 3072 713d
000001d0: 4e15 d0be 26ae 1dbf 56e4 ddbe 7e01 01be
000001e0: 608a 38bc 5a0f 02bf 8ea4 d23e 00fb d63e
000001f0: 8341 ca3d 9ba8 df3e c1c2 d5be ec74 cfbe
00000200: 3637 823e 8f20 b2be 9d0e ff3d 6103 833e
00000210: cb38 dc3e 08ab b5be 80ef 243d c39e 4dbe
00000220: b5db c9be 725c 84be f347 f4be 8f55 9c3e
00000230: c2f2 50be 2efe 373e e351 7f3e 26d5 c9be
00000240: 35d4 65bf 266f 213f d77c 123e f174 a1be
00000250: 7138 8cbe d236 0bbe fdf2 f2be 9ca6 91be
00000260: 9402 b03e b1d0 79bd d25b 363e 617a 1abf
00000270: b1d4 99bd ba45 0b3f b00b 5abd 33ae ac3e
00000280: 6014 bbbb d407 a0be 7baa c03d 9e14 34bf
00000290: 34db 9b3e 33cb 01bf 3928 20be 4495 243e
000002a0: a9c0 f0bd 23da 4d3e fd62 e13d 7d87 02bd
000002b0: 9fd7 6cbe f873 b8bd 046c 8abe ae23 353f
000002c0: c229 6dbe d83a aebd 5c41 7cbd 04bf e1be
000002d0: 567d e33c 9a2d b1bc ce61 04be d335 db3e
000002e0: 0c36 5b3e ea8f 8e3e ea26 dcbe a226 9b3e
000002f0: 884f 0f3f 48ba 923e e594 323e 363f b6be
00000300: 4f66 34bf b10a 79be 1097 8cbe 1742 4abe
00000310: d1ed 2dbf a53c ee3c 81b9 003e 49a4 f5be
-0.13871144 -0.12879194 -0.39034346 -0.13650307 0.17498372 -0.30621126 -0.015239638 0.07213358
0.31880265 -0.1551272 0.41192794 0.3437916 -0.5044386 -0.30867875 0.28969827 0.05228075
0.033122398 0.06796065 0.24316995 -0.29883453 0.11721555 -0.5684004 0.17805724 -0.4317252
0.07691005 -0.25733846 -0.12727389 -0.503034 0.32517657 -0.4214404 -0.2492003 -0.12588653
0.27100706 -0.04842125 -0.3264708 -0.31871897 -0.35247076 0.17907932 0.16619171 -0.33460304
-0.5104528 -0.28010744 0.43902117 -0.14093117 -0.104402184 -0.53568125 -0.45311424 -0.19447832
0.118584916 -0.31991142 -0.011422523 -0.20562798 -0.1038115 -0.18612337 -0.36937627 -0.174321
-0.3133646 0.19746518 0.27641824 -0.27690342 -0.152916 0.14578424 0.064357124 -0.613834
-0.8349446 -0.5720871 0.15986168 0.20771198 0.30875486 0.14589857 0.2440023 0.14947505
-0.5858516 0.043246567 -0.10279216 -0.8126529 -0.6878354 -0.6883667 0.39340422 -0.40945005
-0.1954717 0.0021678174 0.17783868 -0.35680914 0.03139113 -0.4629077 -0.07228938 -0.13154934
0.51694864 0.21685597 -0.55030006 -0.35003027 -0.1345445 0.046404034 -0.3034104 0.26337636
0.053505283 0.12446521 -0.16228867 0.31795081 0.30176473 0.098471105 0.1977033 0.24320403
-0.10204463 -0.6575771 -0.10439005 0.288267 0.036917794 0.034069266 0.28678006 -0.37462702
0.0036312568 -0.067770556 0.15149958 0.05894679 -0.40641254 -0.61593854 -0.4333827 -0.12598225
-0.01126346 -0.50804675 0.4114117 0.41988373 0.098757766 0.43683323 -0.41750148 -0.40518892
0.25432748 -0.34790465 0.12453959 0.25588515 0.4301208 -0.3548205 0.040267467 -0.20080094
-0.39425436 -0.2585178 -0.47711143 0.30534026 -0.20405105 0.17968056 0.24933581 -0.39420432
-0.8977693 0.63060224 0.14305435 -0.31534532 -0.2738681 -0.13595131 -0.4745101 -0.28447425
0.34376967 -0.06099004 0.17808464 -0.60342985 -0.07511271 0.5440327 -0.053233802 0.33726653
-0.005709216 -0.31255972 0.094075166 -0.7034396 0.30440676 -0.5070068 -0.15640344 0.16072565
-0.11755497 0.20102744 0.11005209 -0.031867493 -0.23129128 -0.09006494 -0.27035534 0.7075757
-0.2316046 -0.08507317 -0.06158577 -0.44091046 0.027769726 -0.02162819 -0.12927935 0.42814502
0.21407336 0.27844173 -0.4299844 0.30302912 0.5598073 0.28657746 0.17439611 -0.355951
-0.7046861 -0.24320485 -0.27459002 -0.19751774 -0.67941004 0.029081652 0.12570764 -0.47976902

model.2.weight f4 [100, 200]
00000000: 521d c0bd 7645 9dbb b65b 75bd f286 bfbd
00000010: 0d2a a4bd b63c 00be a4e5 8abd 2768 c6bd
00000020: 72df af3a 3829 c8bd b18f 35bd 7635 1abd
00000030: ed9f 75bd 778d cebd 5fba dd3b 2c9c a7bd
00000040: 588a aabd 7d67 d5bd 141c bebd 2528 29bd
00000050: c10f 3dbd c9de 5abd f2a5 d6bd 62cf 483b
00000060: 061c dabc 7a9f 04bd 90d9 b5bc 6686 d3bd
00000070: fffa c9bd c7d2 62bd dffb aebc c4bb 42bd
00000080: 066d 7abc 5c59 21bd 074c cdbc b96d f0bd
00000090: 3f92 20bc 1aac d7bd 8e34 2ebd 137e 19bd
000000a0: 99d5 e0bd 509c 88bd 2a6d b5bd 8917 19bd
000000b0: fd55 413c 6c62 ddbd 3ae7 79bd 4dec cabb
000000c0: c0ce aebd 964f f6bd f32a 153c 5faf b0bc
000000d0: d681 0dbd ea43 49bd 1124 02bc fe15 9bbd
000000e0: af03 01be d317 46bd c865 84bd 23f2 78bb
000000f0: a5ff 80bd 2f40 35bc 3e53 17bd bb78 f1bd
00000100: 9c98 73bd 49e7 673b f877 bcbd 74bd 4dbd
00000110: 0102 98bd 833d dfbc 5238 aebd 4a16 98bd
00000120: 3b75 91bd fa7a dabd 5dc9 eebc 21cf 8fbc
00000130: 5a80 abbb 7d5b a3bd 3374 56bc a05c dbbd
00000140: 4ae7 10bc 4f62 d2bd 6fed 463c 99cb e5bc
00000150: 98ca 4ebd 87a9 1cbd dde4 bdbd fa1d ccbd
00000160: 2803 08bc 3f59 9dbc fc21 b8bd 8711 86bd
00000170: cc26 b6bd 5592 31bc 0e79 473c b7ae c6bd
00000180: ac47 edbd 1054 acbd 44ce bcba e435 39bd
00000190: 37dd 34bd 46a7 0c3c e96b 40bc 4caf cdbc
000001a0: 3454 ddbd 1fc1 c9bd afd5 f1bd 090e 89bd
000001b0: 593b 37bd fbc4 a23a 10d8 70bc 0291 f6bd
000001c0: e192 acbd 36f5 15bd 46d8 00be 5519 00be
000001d0: 3251 e4bb f1d5 c7bc 213b bbbd 8e2f 6a3c
000001e0: af58 78bc 2433 0bbd e82f 2abd 34f9 c4bd
000001f0: 6043 c33b cfe5 abbd e9cf bbbd a52c a8bc
00000200: 485d d9bd 9e2d 30bc a8a0 a1bd 55ab d3bc
00000210: 77a3 3ebd db0b 4fbd 7981 36bb 3eeb 4c3b
00000220: a943 1dbd 31bb d7bd 999b 28bd e98a 8cbc
00000230: 7b12 22bd de42 88bd da1a 3bbd 6bbe 21bd
00000240: e6d8 4abd 48a0 963b d593 91bc fa41 ecbd
00000250: e2df 8fb9 5704 38bd e3fe f5bd 7bf9 86bd
00000260: 11c0 cdbd 65bd 9ebd 25da 8cbd 94db b2bd
00000270: 9ccd 5cbd f8cc 143c 699d b6bc 0434 dfbd
00000280: fb0c 833c 5b2e 94bd 39db 4bbd ffd6 eebd
00000290: 4127 3dbc deb1 39bd a0aa 67bc bf9e a2bd
000002a0: 65c2 edbd f978 69bd 76fc a6bd 1a42 f2bc
000002b0: 84da b7bb 7aea a5bc c803 7cbd 8869 e1bd
000002c0: ea94 d1bd 7463 65bd 0044 23bc 1dab e1bd
000002d0: 45f3 b0bd b01a ffbc 48a0 53bd 1e80 5dbd
000002e0: cae9 58bd b737 cfbd 84ba b3bd 8146 113c
000002f0: ccbd 0ebc 8df9 4bbd 5ccf b5bd bf31 61bc
00000300: 7f93 bfbc 1769 c7bc 50cd b2bd 8cb0 0fbd
00000310: b6fb e0bd 234c 83bc 48e7 04be e735 103c
00000320: fc75 ca3f 3485 cfbf a183 e93d 2054 253f
00000330: d1d5 c3be 9f0b 863e 67b1 353e 0a6f c13d
00000340: e24a 8abe e87e b2bf c6ae 643e 5295 9c3c
00000350: 360a 66be 497c dabf d9a1 7c3e c1c2 06bf
00000360: 3f86 2cbd 4aa6 bebe 5ea8 e3be 948b 543f
00000370: 20fc f9be 91e9 773f 5343 be3e d099 f9be
00000380: 81db 473f 55c8 09bf 5677 efbf 60de b7bf
00000390: f453 d23e 3d44 813f 4a8c fcbe 1bc3 b43f
000003a0: 8f20 e3bb be99 5b3e facb eabe 58fe 9fbf
000003b0: 02cb d23e 8cf6 2ebf b343 b9be 3ad1 c1be
000003c0: 6b71 67bc cdef 63be 151a e3bc a953 dabe
000003d0: f3c4 b43e 5208 8bbf 98c7 d0bd 64f9 ebbf
000003e0: 6e2f 2fbe a436 21c0 16d3 c4be 1dfc 15be
000003f0: 1668 6bbf 29af 993e 182b 75bf d830 543e
-0.093805924 -0.00479954 -0.059901915 -0.09351911 -0.08015833 -0.1252316 -0.06782082 -0.09687834
0.0013418032 -0.09773487 -0.044326488 -0.03764864 -0.05996697 -0.10085576 0.006766602 -0.08184084
-0.08327168 -0.104201294 -0.09282699 -0.04129805 -0.046157602 -0.05343512 -0.1048087 0.0030641188
-0.02662469 -0.03237865 -0.022198468 -0.10328369 -0.09862327 -0.055376794 -0.021360336 -0.04754235
-0.015284782 -0.03939186 -0.025060667 -0.11739678 -0.009800493 -0.10530873 -0.04253059 -0.03747375
-0.109782405 -0.06670439 -0.08858712 -0.03737596 0.011800286 -0.10809788 -0.06101153 -0.00619272
-0.08535528 -0.120268986 0.009104478 -0.021567998 -0.03454765 -0.049137034 -0.007943169 -0.07572554
-0.12599061 -0.048362564 -0.06464726 -0.0037986122 -0.0629876 -0.011062666 -0.03694462 -0.11790606
-0.05947171 0.003538566 -0.0920257 -0.050229505 -0.07422257 -0.02725101 -0.08506836 -0.07426126
-0.07102438 -0.10667987 -0.029148752 -0.017554821 -0.0052338066 -0.079764344 -0.0130892275 -0.10711026
-0.008844206 -0.10272657 0.0121415695 -0.028051184 -0.050486177 -0.03824761 -0.09272168 -0.09966655
-0.008301534 -0.019207595 -0.08990857 -0.06546312 -0.08894119 -0.010838111 0.012174858 -0.09701293
-0.11585936 -0.08414471 -0.0014404734 -0.04521741 -0.04415628 0.008584803 -0.011744478 -0.025108002
-0.10807076 -0.09851288 -0.11808335 -0.0669213 -0.044734333 0.0012418324 -0.014699951 -0.12039377
-0.084264524 -0.036610804 -0.12582502 -0.12509663 -0.006967687 -0.024394007 -0.09142137 0.0142935645
-0.015157863 -0.03398432 -0.041549593 -0.09617844 0.0059589595 -0.08393442 -0.09170515 -0.0205291
-0.10613495 -0.0107530635 -0.07891971 -0.025838533 -0.04654261 -0.050548416 -0.0027848168 0.0031268145
-0.038394604 -0.10533751 -0.041164014 -0.017156081 -0.039568406 -0.06653379 -0.045679905 -0.039488237
-0.049523257 0.0045967437 -0.017770687 -0.115360215 -0.0002744189 -0.044926014 -0.120115064 -0.065905534
-0.100463994 -0.07750968 -0.06877545 -0.087332875 -0.053907022 0.0090820715 -0.022291856 -0.10898593
0.0159974 -0.07235404 -0.049769614 -0.11662101 -0.011545003 -0.045335643 -0.014139801 -0.07940435
-0.116093434 -0.057000134 -0.08153622 -0.029572535 -0.005610766 -0.020253409 -0.061527044 -0.110064566
-0.10233481 -0.05600305 -0.009964943 -0.110189654 -0.0864015 -0.031140655 -0.051666528 -0.05407726
-0.052957334 -0.10118049 -0.087758094 0.008866907 -0.008712243 -0.049798537 -0.08877441 -0.013744771
-0.023385761 -0.024342103 -0.087305665 -0.035080478 -0.1098551 -0.016027516 -0.12978852 0.008801914
1.5817256 -1.6212525 0.11402059 0.6458149 -0.38249066 0.2618074 0.17743455 0.09445007
-0.27010256 -1.3944979 0.22332296 0.01911417 -0.22464833 -1.7069179 0.24671115 -0.5264092
-0.042120215 -0.37236243 -0.4446439 0.8302548 -0.4882517 0.9684077 0.3716074 -0.48750162
0.7806931 -0.5382131 -1.8708293 -1.4364738 0.41079676 1.009895 -0.49325782 1.4122041
-0.0069313715 0.21445367 -0.45858747 -1.2499495 0.41170508 -0.6834495 -0.36184463 -0.3785494
-0.014126162 -0.22259445 -0.027722398 -0.42641953 0.3530651 -1.0861914 -0.101943195 -1.8435483
-0.17107937 -2.51896 -0.38442296 -0.14646955 -0.919557 0.3001645 -0.9576888 0.20721757

model.2.bias f4 [100]
00000000: 188a 98bd 4889 493e 8974 e8bc a58a 803d
00000010: c442 febc b58b 5e3c 355d 83bd e416 05be
00000020: 720e a7bd 92a2 d9bc 34d7 903d c2f4 4cbd
00000030: 0e04 4cbd 62ef e9bb b34f bc3d 0122 69bd
00000040: 38a1 a8bc 5d72 fcbd 1f16 8ebd fc62 f1bd
00000050: 8b6b 3f3d 4c78 fabd 51b7 453e 9acb ecbc
00000060: 739f 26bc e3a6 9f3d c284 b63d ffce 4bbd
00000070: 63f8 393e a203 50bd 614c b6bd 6c84 43bc
00000080: 1ccf 58bd 5137 26bc 2def c5bc 9a07 c3bc
00000090: d036 f63d 8efe 37bd 08e0 22bd 8e1a 7bbc
000000a0: c6d9 8e3d 52dd 45bd d9ac adbd 687b 52bd
000000b0: b663 e33d 20f6 13bd 0223 d33c 459e bf3d
000000c0: c5c4 3dbc 55ba 0dbd 2da9 7abc ca6f 463d
000000d0: 688a f43d f05c e0bd 158d e4bd 64d3 733b
000000e0: 9d87 843b 343c 163d a4c9 843d 788f 89bc
000000f0: 0b64 47bd f3cd dfbd d7ab 8ebd 7bbd 083e
00000100: 31be bdbd d501 25be fcf7 d4bd d0c1 eabd
00000110: 6110 053b 3e55 9fbd 8eb5 3cbd f23e 73bd
00000120: 5a51 6abd a978 5cbd c6d0 8bbd b896 803d
00000130: 28d7 5cbc 6678 acbb a384 9f3e a80e dfbc
00000140: 8d2b 43bd 8647 e13d 14cb 8fbc a723 85bd
00000150: a5e0 a1bd efd2 ee3e 2824 273e 19d3 66bd
00000160: b455 0cbe b4a5 a7bd 1c98 6c3c f382 e3bd
00000170: 03ca 05bd e31a c93d c1b6 e6bd ac01 43bd
00000180: 0fa5 2bbd d2b1 19bd 65f8 6fbd 9000 6d3d
-0.07448214 0.19681275 -0.02837588 0.06276444 -0.031037696 0.013583113 -0.06414262 -0.12997013
-0.08157052 -0.026566777 0.07072297 -0.050038107 -0.049808554 -0.0071391324 0.09194889 -0.056917194
-0.020584688 -0.123265006 -0.06937813 -0.11786458 0.04673342 -0.12229976 0.19308211 -0.028905679
-0.010169852 0.07795503 0.0891204 -0.049757954 0.18161158 -0.050784715 -0.08901287 -0.011933427
-0.05293189 -0.010145024 -0.0241619 -0.023807336 0.120221734 -0.044920497 -0.039764434 -0.015326155
0.06975131 -0.04830677 -0.08480234 -0.05138722 0.11103003 -0.036123395 0.025773529 0.093563594
-0.011582558 -0.03460153 -0.015299124 0.048446454 0.119404614 -0.109552264 -0.11159722 0.0037204856
0.0040444867 0.036678508 0.064837724 -0.016792044 -0.048679393 -0.109279536 -0.069663696 0.13353531
-0.09264792 -0.1611398 -0.10398862 -0.11462748 0.0020303952 -0.077799305 -0.04607158 -0.0593862
-0.05720649 -0.053826008 -0.0682693 0.06278747 -0.013479032 -0.005263376 0.3115588 -0.027228668
-0.047648955 0.1099997 -0.01755289 -0.06500941 -0.07904176 0.46645305 0.16322386 -0.056353662
-0.13704568 -0.08185902 0.014440563 -0.11108961 -0.032663357 0.09819581 -0.11265326 -0.047609016
-0.04190546 -0.0375231 -0.058586497 0.057861865

model.4.weight f4 [1, 100]
00000000: 517c fa3c c7c6 3440 bd8b d7bb 206f c3bf
00000010: 4f76 a63c fd2e 8abf 0540 df3c 499a 40bc
00000020: ef39 073d e662 39bf b6e0 68bf 85e2 31bd
00000030: a399 2fbd 158d 183d 9519 0cc0 c8bf 383c
00000040: 2ffc e8bf 33ea 6dbd f1ff 093d bda5 15bd
00000050: b3f4 3bbf f878 d73c 0ad0 c13f d13a d33c
00000060: bc7b 48bd cc10 f4bf 7687 81bf 2077 923c
00000070: 2bda 1ac0 0f81 5a3c 73a5 7fbc 4166 bbbe
00000080: 34a9 8fbc e9a2 14bf d156 f4bc 687c d7bf
00000090: 0636 a1bf 854f 37bf 9080 43bd 8c5a 46bf
000000a0: abe2 00c0 5d66 f33b 7679 1bbd d22d 38bd
000000b0: 64ef 3bbf 2fd6 c93c 916a 0abe 60e9 e9bf
000000c0: 095b 73bd 3221 52bd 19a8 3fbf 7a36 9bbf
000000d0: 613f abbf 1b9a e0bc 8249 fd3c b2a6 f63f
000000e0: a87c 33bf 897e 85bf de14 f1bf 826b 4d3a
000000f0: 0732 1940 dab7 633d 6de5 df3c 35d2 c23f
00000100: 5503 87bc a939 47bf e99c 4fbf 881b 053b
00000110: 0829 2bbf f974 52bc cf85 95bc 88b3 dbbe
00000120: f18b 59bf e7c4 21bf fa91 86bf c7f9 2ebf
00000130: 3ef0 0bbd 68c4 0cbd ecb4 1240 be49 ebbe
00000140: 116a 4fbd 2b79 e6bf 3d1e 6abd a1b1 54c0
00000150: b805 c6bf 05f3 6b3f 814c f6bf b7c7 82bb
00000160: ce45 11bf 3d85 0cbd e316 1fbf 7ad1 e6bc
00000170: 4841 34bd e872 4fbf d06b 83bb fae9 e1bc
00000180: 89fe f13b 5de8 fabb 4097 53bd 6b35 f3bf
0.030576857 2.8246324 -0.0065779374 -1.5268288 0.020320086 -1.079559 0.027252207 -0.011755534
0.033014234 -0.7241653 -0.9096788 -0.043428916 -0.04287113 0.03724392 -2.1890614 0.011276193
-1.820196 -0.058084678 0.03369135 -0.036535013 -0.73420256 0.0263028 1.5141613 0.025784882
-0.048946127 -1.9067626 -1.0119464 0.017879069 -2.419566 0.013336434 -0.015603411 -0.3660145
-0.017536737 -0.5806108 -0.029826554 -1.6834841 -1.2594612 -0.7160571 -0.04773003 -0.77481914
-2.0138347 0.007427974 -0.03795763 -0.044965573 -0.73412156 0.024638264 -0.13517214 -1.8274345
-0.05941299 -0.05130119 -0.7486587 -1.2126 -1.3378717 -0.027417233 0.03091884 1.9269621
-0.70112085 -1.042924 -1.8834493 0.00078361493 2.3936784 0.055595256 0.027331078 1.52204
-0.016481081 -0.7782236 -0.810988 0.00203106 -0.66859484 -0.012845271 -0.018252281 -0.4291041
-0.8497916 -0.63191074 -1.0513299 -0.6834988 -0.03416466 -0.034366995 2.2922926 -0.45954698
-0.050638262 -1.8005728 -0.057157744 -3.3233416 -1.5470495 0.92167693 -1.9242097 -0.003991093
-0.5674714 -0.034306753 -0.621443 -0.028176058 -0.04400757 -0.8103471 -0.004010655 -0.027577389
0.0073850793 -0.0076570944 -0.051657915 -1.9000677
