04_cnn/4_lenet5.pth (torch_old, 344864 bytes, 10 tensors)

conv1.weight f4 [16, 1, 5, 5]
0	0x3d951350	0.07279074
1	0x3df1b653	0.11802354
2	0xbe22ba50	-0.15891385
3	0x3dc700f7	0.09716981
4	0x3e254376	0.16139016
5	0x3e02c4d6	0.127704
6	0xbd40672f	-0.046973404
7	0xbe2aa02f	-0.16662668
8	0xbe790a30	-0.24320292
9	0xbe13037b	-0.14356796
10	0x3d850236	0.06494562
11	0x3e8c7b89	0.27438
12	0xbdd3a9a2	-0.10335089
13	0x3e0c33c2	0.13691619
14	0xbcdcfc3d	-0.026975745
15	0x3dff10d4	0.124543816
16	0x3e079995	0.1324218
17	0x3e61c2c3	0.22046952
18	0xbe09d847	-0.1346141
19	0x3e394f22	0.18096593
20	0xbe562f11	-0.20916392
21	0xbe3f3034	-0.18670732
22	0x3e54602c	0.20739812
23	0xbe12e49f	-0.14345025
24	0x3d685808	0.05672458
25	0xbd8cd0f8	-0.06875795
26	0xbea63cdd	-0.3246831
27	0xbea9133e	-0.33022493
28	0x3e8bab8f	0.27279326
29	0x3dcfe241	0.101505764
30	0xbe0e65d6	-0.13906035
31	0xbea6da75	-0.32588544
32	0xbea7cb29	-0.32772186
33	0x3e2100fc	0.15723032
34	0x3e624039	0.22094811
35	0x3e012486	0.12611589
36	0xbcc89823	-0.024486607
37	0xbeb541d7	-0.35401794
38	0xbd61273c	-0.054969057
39	0x3ec85d5b	0.39133725
40	0x3e756873	0.23965625
41	0xbd9c66c3	-0.07636788
42	0xbe8ffd35	-0.2812287
43	0x3e1bd43a	0.15217677
44	0x3ec49340	0.38393593
45	0xbe283943	-0.16428094
46	0xbde240b2	-0.11047496
47	0xbec38a4c	-0.3819145
48	0x3ead434e	0.33840412
49	0x3e8bb4bc	0.27286327
50	0x3e2259ce	0.1585457
51	0xbe9200f9	-0.28516367
52	0x3e8457c0	0.25848198
53	0x3dc0884c	0.094009966
54	0xbe6fc5a7	-0.23415242
55	0x3d3222b1	0.043490116
56	0xbe6d1e71	-0.23156144
57	0x3e8adf7e	0.27123636
58	0xbcbbf45d	-0.02294367
59	0xbd9ae740	-0.07563639
60	0x3e5e4a91	0.21708132
61	0xbec5b7f4	-0.38616908
62	0x3e70b01a	0.23504677
63	0xbdd1c98b	-0.102435194
64	0x3d622697	0.055212583
65	0x3dc0a739	0.09406895
66	0xbe2df29b	-0.16987078
67	0x3e040dbc	0.12895864
68	0x3de90ead	0.11379752
69	0xbe371bff	-0.17881773
70	0x3e72ae55	0.23699315
71	0xbe831c8e	-0.25607723
72	0x3c378dbd	0.011203227
73	0xbdba0d77	-0.090845995
74	0x3dd263a2	0.1027291
75	0xbe334c50	-0.1750958
76	0xbe3faf76	-0.18719277
77	0xbea17d98	-0.31541133
78	0xbe24c055	-0.16088994
79	0xbaaf3d1b	-0.0013369651
80	0xbeaeda73	-0.3415104
81	0xbee287c0	-0.44244194
82	0xbe7e7d60	-0.24852514
83	0xbeb844e8	-0.3599007
84	0xbe1fab66	-0.15592727
85	0xbe469c44	-0.19395548
86	0x3d4ed55f	0.050496455
87	0xbe5003c6	-0.2031394
88	0xbe57da67	-0.21079408
89	0x3e10abcf	0.1412804
90	0x3e51e506	0.20497522
91	0xbe04ff55	-0.12988026
92	0xbe5ca80d	-0.21548481
93	0xbdeed60a	-0.116619185
94	0xbddb314a	-0.107027605
95	0x3e129dd9	0.14318027
96	0x3cd00e04	0.025397308
97	0xbd0f852a	-0.035039105
98	0xbe391b0a	-0.18076721
99	0x3e499f74	0.19689733
100	0xbe8dc594	-0.27689803
101	0xbedaa633	-0.42704925
102	0xbec1452a	-0.3774808
103	0xbeaaf5b5	-0.33390585
104	0xbe43da76	-0.19126305
105	0xbe99d7cb	-0.3004745
106	0xbeb6d57f	-0.3570976
107	0xbea369ed	-0.31916752
108	0x3db8c59e	0.090220675
109	0xbc2ee506	-0.010674721
110	0x3d5a3287	0.053270843
111	0xbcb98d74	-0.022650458
112	0xbde16f3c	-0.110075444
113	0x3e1bebe0	0.15226698
114	0x3cad966c	0.02118989
115	0x3e007ef5	0.1254843
116	0x3c878c8b	0.016546508
117	0xbba87358	-0.005140703
118	0x3e95b14c	0.2923683
119	0x3c90518f	0.017617015
120	0x3e95ec41	0.2928181
121	0xbd2a0867	-0.04151192
122	0x3d5b4a00	0.05353737
123	0x3e899946	0.2687475
124	0x3e8c9151	0.27454618
125	0x3dc58214	0.09643951
126	0xbe0b3dc9	-0.13597788
127	0xbe66323e	-0.22480103
128	0xbe659fe1	-0.2242427
129	0xbd9f9ce1	-0.07793594
130	0xbdc94c1c	-0.0982897
131	0xbd316386	-0.043307804
132	0xbd98c04e	-0.07458554
133	0xbbc2f2b4	-0.0059493426
134	0xbe25165c	-0.1612181
135	0x3d270cbf	0.04078364
136	0xbe086cac	-0.13322705
137	0xbe081b2b	-0.13291614
138	0xbe11768e	-0.14205381
139	0xbe4dafb5	-0.20086558
140	0xbe5c86a3	-0.21535735
141	0xbe1728dc	-0.1476168
142	0xbeadb5b8	-0.33927703
143	0xbed1387e	-0.40863413
144	0xbea90ea8	-0.33018994
145	0x3bc05856	0.0058699055
146	0xbdac0e27	-0.08401137
147	0xbe11a549	-0.14223208
148	0xbe9aa1c4	-0.30201542
149	0xbe88e447	-0.26736662
150	0xbcace5da	-0.021105696
151	0x3e83eb9d	0.25765696
152	0xbd5e59e7	-0.054284956
153	0xbe2f1acd	-0.17100067
154	0xbe1a0316	-0.1504024
155	0x3b8afdf2	0.0042416984
156	0x3e17471b	0.14773218
157	0x3e455a37	0.19272695
158	0xbe8e1aec	-0.27754915
159	0xbdff8107	-0.12475782
160	0x3e89925f	0.26869485
161	0x3e900a67	0.28132936
162	0xbd3aaa70	-0.045572698
163	0xbddd7c2c	-0.108146995
164	0xbdb3625e	-0.087589964
165	0x3e8a8790	0.2705655
166	0xbbb95636	-0.005656029
167	0xbdc03db5	-0.0938677
168	0xbe968d00	-0.2940445
169	0xbdf238bd	-0.11827228
170	0x3e7d2951	0.24722792
171	0x3e3a4a11	0.18192317
172	0x3ddd86c2	0.10816719
173	0xbea02ee1	-0.31285766
174	0xbe7e0de8	-0.24809992
175	0xbe0c37aa	-0.13693109
176	0x3ec00114	0.37500823
177	0xbd86821c	-0.06567785
178	0xbe391412	-0.18074062
179	0xbd198851	-0.037483517
180	0xbeb986ad	-0.36235562
181	0x3e6d4706	0.23171625
182	0x3e933b0c	0.28755987
183	0x3cb838f3	0.022488093
184	0xbdd6bcf2	-0.10485257
185	0xbe7eea38	-0.24894035
186	0x3e480221	0.19532062
187	0x3e8a3ddd	0.27000323
188	0xbe598eb5	-0.21245845
189	0xbe6f0675	-0.23342307
190	0xbe05681a	-0.13027993
191	0xbd2b8a1e	-0.041879766
192	0x3ea159fc	0.31513965
193	0x3d83f4e4	0.064431936
194	0xbc3312bd	-0.0109297605
195	0xbd1942fa	-0.03741739
196	0x3cbf942e	0.023386087
197	0x3e2ad5f8	0.16683185
198	0x3dad407b	0.08459564
199	0xbe904ab6	-0.28182
200	0xbea399ee	-0.31953377
201	0xbe20f8d8	-0.15719926
202	0x3d55d2b2	0.052202888
203	0x3e83613a	0.25660115
204	0x3e29051c	0.16505855
205	0xbeb25be9	-0.34835747
206	0xbebb2e40	-0.36558723
207	0x3e291a43	0.16513924
208	0x3de0e9d9	0.10982103
209	0x3e540af0	0.20707297
210	0xbeb3ee62	-0.3514281
211	0xbeb70bbe	-0.35751146
212	0x3e58ba48	0.2116481
213	0x3d90d83a	0.07072492
214	0xbdd71239	-0.105015226
215	0xbd9d333d	-0.076757886
216	0x3dc3774d	0.09544239
217	0xbdeb379d	-0.11485217
218	0x3e1df9ea	0.15427366
219	0x3e03946f	0.12849592
220	0x3da817a4	0.08207634
221	0xbbcd8bf1	-0.006272786
222	0xbd898c80	-0.067162514
223	0x3e589a5e	0.21152636
224	0x3e961563	0.29313192
225	0x3e700c89	0.23442282
226	0xbdee2c52	-0.11629547
227	0xbe014f9e	-0.12628028
228	0x3dcdd5c4	0.10050538
229	0xbe072b08	-0.13200009
230	0x3d1829c9	0.037149224
231	0x3d7b844f	0.061405476
232	0xbe39eeea	-0.18157545
233	0xbcebc397	-0.028779788
234	0xbe36d3f1	-0.17854287
235	0xbd42b418	-0.047535032
236	0xbe9105f6	-0.2832486
237	0xbe967d39	-0.29392412
238	0xbe7e2354	-0.24818164
239	0xbc872d12	-0.016500983
240	0xbe89c87b	-0.26910767
241	0xbe6a1a88	-0.22861683
242	0xbecbf84d	-0.39837876
243	0xbed35dcf	-0.41282508
244	0x3d6805d4	0.056646183
245	0xbe774f93	-0.24151449
246	0xbed0b059	-0.40759543
247	0xbec7e26c	-0.39039934
248	0xbde145a7	-0.10999613
249	0xbe389d1c	-0.18028682
250	0xbaf8fe46	-0.0018996678
251	0x3d65630c	0.05600266
252	0xbe149bb4	-0.14512521
253	0x3e5ded96	0.21672663
254	0xbde801c7	-0.11328464
255	0xbe24f7ae	-0.16110107

conv1.bias f4 [16]
0	0x3d896f4e	0.06710683
1	0x3e90ce16	0.2828223
2	0x3abd6d2a	0.0014452089
3	0xbdf43ed6	-0.119260475
4	0x3dc8240f	0.09772503
5	0xbdbe7247	-0.092991404
6	0x3e822598	0.25419307
7	0x3b3de53d	0.0028975748
8	0x3e122b4a	0.14274326
9	0x3d40c937	0.047066893
10	0x3bf2d0ea	0.0074101584
11	0x3d4ba7fa	0.04972074
12	0x3c4ce6b6	0.012506178
13	0x3d96baff	0.073598854
14	0x3e04ad42	0.12956718
15	0x3cefcc9d	0.029272372

conv2.weight f4 [32, 16, 5, 5]
0	0xbd81ba01	-0.063343056
1	0xbd51d08b	-0.051224273
2	0x3c432bb0	0.011912271
3	0xbcbc4b1f	-0.02298504
4	0x3bf64a11	0.0075161536
5	0xbceda2a7	-0.029008223
6	0x3d1065a8	0.035253197
7	0xb9c293ca	-0.00037112675
8	0xbd258cd8	-0.040417522
9	0x3bc94e92	0.0061433995
10	0xbd478a5d	-0.048715938
11	0x3d34c699	0.04413471
12	0x3c4308e6	0.011903977
13	0xbccc5afb	-0.024945727
14	0x3cd79f9e	0.026321229
15	0xbcc28989	-0.023747222
16	0x3ce59068	0.02802296
17	0x3c827005	0.015922556
18	0xbd9a044c	-0.07520351
19	0xbbb5610f	-0.005535252
20	0xbc7d7b3d	-0.015471277
21	0x3c65451e	0.01399353
22	0xbd50320e	-0.050828986
23	0xbcf7c07d	-0.030243153
24	0xbcba1caa	-0.022718746
25	0xba85bc48	-0.0010203207
26	0x38b863c2	8.792385e-05
27	0xbd87d025	-0.06631497
28	0xbd5c4367	-0.053775217
29	0xbd41ea2c	-0.047342464
30	0xbd511984	-0.051049724
31	0x3d26c111	0.040711466
32	0x3b1d5758	0.002400836
33	0xbc0daf23	-0.008647713
34	0xbd043f8c	-0.032287166
35	0xbd15eaf1	-0.03660101
36	0x3daf2c95	0.08553425
37	0xbcc60165	-0.024170587
38	0x3bab17f8	0.005221363
39	0xbc38d4da	-0.0112812165
40	0x3c0cdfb1	0.008598254
41	0x3d27b755	0.040946323
42	0x3c4a2d5c	0.012339916
43	0x3bf921b9	0.007602897
44	0x3ba4b6e4	0.005026685
45	0x3dd41ebb	0.10357424
46	0x3de178da	0.11009379
47	0xbd67da3d	-0.056604613
48	0x3cb11f9a	0.021621514
49	0xbd14bd5a	-0.036313392
50	0xbd30a998	-0.043130487
51	0x3d1a535d	0.037677158
52	0x3d1400ae	0.03613346
53	0xbcfd8438	-0.030946836
54	0x3c187a28	0.009306468
55	0xbbbbdc75	-0.0057330676
56	0xbd1acdec	-0.03779404
57	0xbc73edf9	-0.01488828
58	0x3d0c3642	0.03423143
59	0xbce8bdcc	-0.028410815
60	0xbd83eb35	-0.064413466
61	0xbd440f78	-0.047866315
62	0xbceeea57	-0.029164476
63	0x3ba3565f	0.0049846615
64	0x3cc4a467	0.024004174
65	0xbd5fedde	-0.054670207
66	0x3cf68086	0.030090582
67	0xbd14177e	-0.036155216
68	0x3cddbc4d	0.027067328
69	0xbd69d920	-0.057091832
70	0xbd0dda53	-0.03463204
71	0x3d502bd0	0.050823033
72	0xbbeae1dd	-0.0071680383
73	0x3d5f76a8	0.05455652
74	0xbd09b897	-0.033623304
75	0x3d1e1007	0.038589504
76	0xbd740f4e	-0.05958491
77	0xbcb758a1	-0.022381129
78	0xbd76e4ac	-0.060276672
79	0xbc60fd4c	-0.013732266
80	0x3d2f5742	0.042807825
81	0xbbc39ad3	-0.005969384
82	0xbc56e5a6	-0.013116276
83	0xbc037807	-0.008024222
84	0x3d265350	0.040606797
85	0x3d908907	0.07057386
86	0x3c7cb8d4	0.015424926
87	0xbcfcd73b	-0.030864349
88	0xbce5c67c	-0.028048746
89	0x3c174053	0.009231645
90	0x3dea0c3b	0.11428114
91	0x3d50e4f1	0.050999586
92	0xbd21b002	-0.039474495
93	0x3ce0fdf0	0.027464837
94	0xbd461c92	-0.04836709
95	0x3db13ac6	0.08653788
96	0x3d4f835c	0.050662383
97	0xbafce6dd	-0.0019294877
98	0xbcb58a8d	-0.022160793
99	0x3c05c519	0.0081646675
100	0xbcbac035	-0.02279673
101	0xbccf714c	-0.025322579
102	0xbd923e3b	-0.07140776
103	0xbdbec481	-0.09314824
104	0xbb4ead51	-0.003153641
105	0xbceb1b45	-0.028699527
106	0xbd91ee97	-0.071255855
107	0xbd03a0a4	-0.03213562
108	0xbc1449cc	-0.009050798
109	0xbcbefc53	-0.023313677
110	0xbd6b7a26	-0.057489537
111	0x3b5ce0c9	0.0033703318
112	0xbd06b515	-0.032887537
113	0xbcd88eed	-0.02643534
114	0xbadb2656	-0.0016719799
115	0xbca057d7	-0.019573135
116	0x3d735239	0.059404586
117	0xbbdb93e1	-0.006700978
118	0x3d019034	0.031631663
119	0x3be88388	0.007095758
120	0x3d142f18	0.036177725
121	0x3dc4b32c	0.09604487
122	0xbd53d0b7	-0.051712718
123	0x3c735cae	0.0148536395
124	0x3d3cd912	0.046105452
125	0xbc5e3952	-0.013563471
126	0xbd26e789	-0.040748153
127	0xbd6ec588	-0.05829385
128	0xbcbd840e	-0.023134258
129	0xbd81064b	-0.063000284
130	0x3cb4a80b	0.022052785
131	0x3c001f26	0.007819926
132	0x3cb6a847	0.022297038
133	0x3d5614f9	0.052266095
134	0x3d0decd9	0.034649704
135	0x3df76794	0.12080303
136	0xbc3fd3cb	-0.01170821
137	0x3d09ff1a	0.03369055
138	0x3c84b74a	0.01620068
139	0x3c6758fb	0.014120336
140	0x3e1ce58e	0.15321943
141	0xba185d09	-0.0005812203
142	0xbb178df9	-0.0023125394
143	0x3d1f8998	0.03894958
144	0x3c985874	0.018596865
145	0x3df94bc8	0.12172657
146	0xbd946504	-0.0724583
147	0xbcdb7c2d	-0.02679261
148	0xbcb95c7d	-0.02262711
149	0x3d2270b7	0.039658275
150	0x3b9cec1c	0.0047888886
151	0x3b903737	0.0044011134
152	0xbb5d8047	-0.0033798383
153	0x3cc4b4ba	0.024011958
154	0xb8f5afee	-0.0001171528
155	0xbd4c3ff2	-0.04986567
156	0xbd07f4fd	-0.033192623
157	0xbd686e82	-0.056746013
158	0xbc95b22a	-0.018273432
159	0xbd4a94c2	-0.049458273
160	0xbd2b6a1e	-0.041849248
161	0xbdbd60e9	-0.09247
162	0xbd737c56	-0.059444748
163	0xbd8067e9	-0.06269819
164	0x3c81f0ed	0.015861953
165	0xbc59a006	-0.0132827815
166	0xbda94a7f	-0.08266162
167	0xbbf63e64	-0.0075147618
168	0xbd761c6a	-0.06008569
169	0xbd6ddd8c	-0.05807261
170	0xbcd93c68	-0.026518062
171	0xbd858c7a	-0.065209344
172	0x3c4fbbed	0.012679082
173	0xbd58b847	-0.052910116
174	0xbd9f370b	-0.077741705
175	0xbd336f8b	-0.043807548
176	0x382cffa0	4.1246065e-05
177	0x3c2a5c30	0.010397956
178	0xbd2f2ddc	-0.042768344
179	0xbd97a1ff	-0.07403945
180	0x3cca4e32	0.02469549
181	0xbc62f4b3	-0.013852286
182	0xbcd840a0	-0.026398003
183	0xbc9f3241	-0.019433143
184	0x3c8f153f	0.017466186
185	0x3bafd0fc	0.005365489
186	0x3d245385	0.040118713
187	0xbd1d3ef9	-0.038390134
188	0x3cd2708d	0.025688434
189	0x3d28d80c	0.041221663
190	0x3ca8f179	0.020622956
191	0x3c41eeea	0.011836747
192	0xbbac3966	-0.005255866
193	0x3d201682	0.039083965
194	0x3cbd3185	0.023094902
195	0x3a747064	0.0009324609
196	0x3b572fe9	0.0032834953
197	0x3d898ef0	0.06716716
198	0x3cdce8bc	0.026966445
199	0xbce81de7	-0.028334571
200	0x3d0309a9	0.031991635
201	0x3b5edbcc	0.003400552
202	0x3d175775	0.03694864
203	0xbd888400	-0.06665802
204	0xbda1fa69	-0.0790909
205	0xbd47b307	-0.04875472
206	0xbd7c5d34	-0.061612323
207	0xbd6ff327	-0.058581498
208	0x3b36933f	0.0027858762
209	0xbc62b128	-0.013836183
210	0xbd9adb81	-0.07561398
211	0xbc9ef75b	-0.019405058
212	0x3b6aa93f	0.0035806445
213	0xbd4d801a	-0.050170995
214	0xbd50e9e8	-0.05100432
215	0xbd7280f6	-0.059205018
216	0x3d4d1c2f	0.050075706
217	0x3ceca25c	0.028886013
218	0x3c8f5011	0.017494233
219	0xbd805387	-0.062659316
220	0x3c8a3851	0.016872557
221	0x3db02efa	0.0860271
222	0xbd85cb5e	-0.0653293
223	0xbd23540e	-0.039875083
224	0x3c9831c4	0.018578418
225	0xbcff70e3	-0.031181758
226	0xbc95d53c	-0.018290155
227	0xbd2f906a	-0.042862333
228	0xbc3a7228	-0.011379756
229	0xbd305ee9	-0.043059263
230	0x3ca8ead3	0.020619785
231	0x3cf304a6	0.029665302
232	0x3cc04643	0.023471003
233	0xbce59b03	-0.028028017
234	0x3d134b1b	0.035960298
235	0x3dc612d2	0.096715584
236	0x3dbb1a31	0.09135855
237	0x3cec5019	0.028846787
238	0x3b06ced0	0.0020570047
239	0x3c9a9697	0.018870635
240	0x3dd1c152	0.10241951
241	0x3cc87c67	0.024473382
242	0xbd74034e	-0.059573464
243	0x3c866e10	0.016409904
244	0x3d52e6bb	0.051489573
245	0x3e08950e	0.1333811
246	0x3b50f1b2	0.0031882343
247	0xbc8182ac	-0.01580938
248	0x3c6904a2	0.014222296
249	0x3ad10848	0.0015947903
250	0xbd20b281	-0.039232735
251	0xbd3e521b	-0.04646502
252	0x3c82f544	0.015986092
253	0xbd122a43	-0.035684835
254	0xbd6d44d9	-0.057926986
255	0x3c90c652	0.017672691

conv2.bias f4 [32]
0	0xbd5b35c4	-0.05351807
1	0xbd5eca15	-0.05439194
2	0x3cc98ea2	0.024604145
3	0xbca5aeda	-0.020224977
4	0xbd314aaa	-0.043284096
5	0xbd11434c	-0.03546457
6	0xbd62c176	-0.05536028
7	0xbb897d1a	-0.0041958215
8	0x3c7f9ab5	0.01560085
9	0xbd901bb6	-0.070365354
10	0x3c87b4b4	0.016565658
11	0xbd1a7481	-0.037708763
12	0xbd05cda7	-0.03266683
13	0x3bf49f63	0.0074652894
14	0x3d7d2c43	0.06180979
15	0x3be1818a	0.0068818973
16	0x3b679fe3	0.0035343103
17	0x3d26ae2c	0.040693447
18	0x3c1c8f93	0.009555715
19	0x3bde20a3	0.006778793
20	0xbcad0b2e	-0.021123495
21	0x3b83b27a	0.004019079
22	0x3c61fac1	0.013792695
23	0xbbba43b9	-0.0056843427
24	0xbc910b13	-0.017705476
25	0xbc7babbc	-0.015360769
26	0xbd7db6b8	-0.061941832
27	0xbbd1c0c6	-0.006401154
28	0xbcfd812b	-0.030945381
29	0xbca2eda4	-0.019888707
30	0xbce09255	-0.027413527
31	0xbca04594	-0.019564427

linear1.weight f4 [120, 512]
0	0xbc83da0c	-0.016095184
1	0x3ce656b2	0.028117511
2	0x3ce702c2	0.028199557
3	0xbcfc76a8	-0.030818298
4	0x3d265bd9	0.040614937
5	0x3bf886b4	0.0075844172
6	0x3d1af136	0.037827693
7	0x3cd7d38a	0.026345987
8	0xbc8c2abc	-0.017110221
9	0xbd03ea5f	-0.032205936
10	0x3c94e2dd	0.018174583
11	0xbc95441d	-0.018220956
12	0x3c973c23	0.018461293
13	0xbcf212e1	-0.029550018
14	0x3d14502d	0.036209274
15	0xbd0e9a10	-0.034814894
16	0xbc3a250e	-0.011361374
17	0x3a0c29b8	0.0005346793
18	0x3cdf1cd3	0.027235424
19	0x3b19c4f6	0.0023463345
20	0xbd0fde0f	-0.03512388
21	0xbd29e529	-0.04147831
22	0xbd2640b2	-0.040589042
23	0xbcf94f94	-0.030433454
24	0xbc7c2a41	-0.0153909335
25	0x3d016dc7	0.031598832
26	0xbbab4dc1	-0.005227775
27	0xbcc41e80	-0.023940325
28	0x3cac9b9c	0.021070294
29	0xbd1b98da	-0.037987567
30	0xbd1d5cd9	-0.038418625
31	0x3ce7b028	0.02828224
32	0xbc8f2922	-0.017475668
33	0x3cacdb6d	0.021100724
34	0x3c0a5c57	0.008444867
35	0x3d18704b	0.037216466
36	0xbd0622c6	-0.032748006
37	0xbd15a142	-0.03653074
38	0xbd22764f	-0.03966361
39	0x3be862cd	0.007091856
40	0xbc53a752	-0.01291831
41	0xbb88a837	-0.0041704434
42	0xbbd2f090	-0.0064373687
43	0x3ce8fdf3	0.028441405
44	0xbc76ffae	-0.015075607
45	0x3ce25869	0.027630048
46	0xbc6744a6	-0.014115488
47	0xbcbd5efe	-0.023116585
48	0xbc754048	-0.014968939
49	0xbd262924	-0.04056658
50	0x3ca70bf4	0.020391442
51	0x3cbf268a	0.023333807
52	0xbcd0ee5d	-0.025504285
53	0xbcbfb460	-0.02340144
54	0xbc686f75	-0.01418673
55	0xbce7a95e	-0.028279003
56	0xbcb1fd52	-0.021727238
57	0x3c8e74b4	0.017389633
58	0xbb0516c1	-0.0020307752
59	0xbcfdb687	-0.030970825
60	0x3c2c4715	0.010514994
61	0x3c962756	0.018329304
62	0xbb89c60e	-0.004204518
63	0x3c441761	0.011968465
64	0xbcc1cbb2	-0.0236567
65	0x3c444771	0.011979924
66	0x3d1e3c5b	0.03863178
67	0x3caaf104	0.020866878
68	0x3cff53fd	0.031167978
69	0xbcbcd9eb	-0.02305313
70	0x3b6b1b64	0.003587448
71	0x3c20fffe	0.009826658
72	0xbc7fef38	-0.015620999
73	0x3d3102c9	0.043215547
74	0x3b9c94d4	0.004778484
75	0xbd07dd59	-0.033170078
76	0xbcb541b5	-0.022126058
77	0xbbeb076b	-0.007172515
78	0xbd04c57a	-0.03241489
79	0x3c5b378d	0.013379944
80	0xbc4e7f95	-0.01260366
81	0x3ce75100	0.028236866
82	0x3c97146e	0.018442359
83	0xbb82b03b	-0.0039882935
84	0xbc847a65	-0.016171644
85	0x3c341b16	0.010992786
86	0x3d35665a	0.044287063
87	0x395df609	0.00021167858
88	0xbd0c2840	-0.034218073
89	0x3ca3d33c	0.019998185
90	0x3d19e8e6	0.037575625
91	0xbcd8e1c0	-0.026474833
92	0xbcbe7a70	-0.023251742
93	0x3d12161f	0.035665628
94	0xbd22969b	-0.03969441
95	0xbc5ec414	-0.013596553
96	0xbc845c3c	-0.016157262
97	0xbbceb794	-0.0063085053
98	0xbd324856	-0.043526016
99	0xbd0b25da	-0.033971645
100	0xbba72562	-0.005100892
101	0xbd01b58c	-0.031667277
102	0xbc8f96a6	-0.01752789
103	0x3cfe2ff2	0.031028721
104	0x3d01a40f	0.0316506
105	0xbd052e3b	-0.032514792
106	0xbcc006ef	-0.023440806
107	0xbd21ddf4	-0.03951831
108	0xbb06f23a	-0.0020591156
109	0x3c5db1d1	0.013531164
110	0x3ca877df	0.020564971
111	0xbd26e7c0	-0.040748358
112	0xbcafb6c8	-0.021449462
113	0xbb9e5375	-0.004831726
114	0x3cb4048a	0.02197482
115	0x3be327c9	0.006932233
116	0x3cd2687c	0.025684588
117	0xbc848c05	-0.016180048
118	0x3c977ec1	0.018493058
119	0x3c0f318b	0.008739839
120	0x3b8a2b30	0.004216574
121	0xbd0b0a97	-0.033945646
122	0x3c9fb4af	0.019495336
123	0xbc231b2f	-0.009955212
124	0xbc840548	-0.0161158
125	0x3d0a9c22	0.033840306
126	0x3cb444ee	0.022005524
127	0x3c54c066	0.0129853245
128	0x3d1e9922	0.038720258
129	0xbccb157f	-0.024790524
130	0xbd06067d	-0.03272103
131	0x3d18e800	0.037330627
132	0x3ce19b4b	0.02753987
133	0xbcf3dac2	-0.029767398
134	0xbd00d2e3	-0.031451117
135	0xbcb60e5d	-0.022223646
136	0x3bd3e858	0.0064669065
137	0xbba275ee	-0.004957906
138	0x3c8bcd1e	0.017065581
139	0xbcc4ddd1	-0.024031552
140	0xbc677a64	-0.014128301
141	0x3d2ebe25	0.042661805
142	0x3ce3db33	0.027814483
143	0x3d1413f2	0.036151834
144	0x3c8c783a	0.017147172
145	0xbd0b0354	-0.03393872
146	0xbc47553b	-0.012166317
147	0xbd1c9ed0	-0.038237393
148	0xbccfdd83	-0.02537418
149	0x3d09d22d	0.033647705
150	0x3c8221a1	0.015885176
151	0x3d2f639d	0.042819608
152	0x3d01a8a8	0.031654984
153	0x3d092d8b	0.0334907
154	0xbc7fed4b	-0.01562054
155	0x3d01625c	0.031587943
156	0x3d11c7f0	0.035591066
157	0xbb4bea33	-0.0031114935
158	0x3bf87ed1	0.007583477
159	0x3c88ae3c	0.016684644
160	0x3c006fea	0.007839182
161	0xbca74f54	-0.020423569
162	0xbcd45e11	-0.02592376
163	0xbd0fc444	-0.035099283
164	0xbd36468b	-0.04450087
165	0x3bcae144	0.0061914045
166	0xbd278d5a	-0.040906288
167	0x3c22b313	0.00993039
168	0xbc300641	-0.010743679
169	0xbcb08462	-0.0215475
170	0x3cac28df	0.021015583
171	0x3d29afcd	0.041427422
172	0x3cffcb2c	0.03122481
173	0x3c948576	0.018130045
174	0x3ba8eb4a	0.0051550018
175	0xbca7514a	-0.020424504
176	0xbc8950d9	-0.016762184
177	0x3cbb2676	0.022845488
178	0xbcf46418	-0.029832885
179	0x3beb9cf2	0.00719034
180	0xbd19bd44	-0.037534013
181	0xbc30ed6b	-0.010798792
182	0xbd2e6225	-0.042574067
183	0xbcd54bcd	-0.026037121
184	0xbd348d21	-0.044079904
185	0xba10c15a	-0.00055219757
186	0xbc6f421d	-0.014603165
187	0x3ccec066	0.025238227
188	0x3d041c4f	0.03225356
189	0x3bb31b76	0.00546592
190	0xbcf35eca	-0.029708285
191	0x3c60eafe	0.0137279015
192	0x3d0ccd2e	0.034375362
193	0xbcc061a7	-0.023484064
194	0xbcba9d1e	-0.022779997
195	0x3ca0f1f6	0.019646626
196	0xbd3070b0	-0.043076217
197	0xbbf8343a	-0.0075745853
198	0xbd342a67	-0.04398575
199	0x3a6d3a83	0.00090495514
200	0x3d155324	0.036456242
201	0xbd0b613f	-0.034028288
202	0xbc55af1b	-0.013042237
203	0x3cd756c0	0.026286483
204	0x3a4c122c	0.000778469
205	0x3c882650	0.016619831
206	0x3bdcb05f	0.0067348923
207	0x3c6b7b9c	0.0143727325
208	0x3d05b2ae	0.032641105
209	0xbcbf26f8	-0.023334011
210	0x3cb415ef	0.021983115
211	0x3c81c9e0	0.015843332
212	0xbd03931e	-0.032122724
213	0xbc2e8dc8	-0.0106539205
214	0x3c6d6f89	0.014491924
215	0x3cc3b9f9	0.02389239
216	0xbcc860db	-0.024460247
217	0x3cadd030	0.021217436
218	0xbb3f49f5	-0.002918837
219	0xbcdb2eb4	-0.026755668
220	0xbcd94709	-0.02652313
221	0xbd2a7f49	-0.041625295
222	0xbca18536	-0.01971684
223	0x3b8c03a5	0.0042728954
224	0x3ce30a04	0.027714737
225	0xbc3cea7d	-0.011530516
226	0x3d269ef9	0.040678952
227	0xbcd27486	-0.025690328
228	0x3c8497ac	0.016185604
229	0x3c8376d2	0.016047869
230	0xbb93c090	-0.004509039
231	0x3c06735d	0.008206216
232	0x3ba2f2e3	0.004972802
233	0x3c4eb845	0.0126171755
234	0x3ce23e77	0.027617676
235	0xbc9e3fea	-0.019317586
236	0xbcddd733	-0.027080154
237	0x3c84ccbe	0.01621091
238	0xbb34bd93	-0.0027578815
239	0xbd2bf6ed	-0.041983534
240	0xbce10b84	-0.027471311
241	0xbaf043d3	-0.001833076
242	0x3c17b016	0.009258291
243	0x3d1e03a4	0.03857769
244	0xbd1a9c95	-0.037746985
245	0x3bed7e8e	0.0072477525
246	0xbc466182	-0.012108209
247	0x3cb354f8	0.021891102
248	0xbcc352d2	-0.023843203
249	0xbc422934	-0.011850644
250	0xbd095422	-0.0335275
251	0xbb024a73	-0.00198808
252	0xbc702697	-0.014657638
253	0xbcd6d59c	-0.026224904
254	0x3d239e3a	0.03994582
255	0x3d1181ef	0.035524305

linear1.bias f4 [120]
0	0xbd33825a	-0.043825485
1	0x3b0d5dbc	0.0021570763
2	0x3c66e235	0.014092018
3	0x3c5b9903	0.01340318
4	0xbd36db17	-0.044642534
5	0xbcfe4dea	-0.031043012
6	0x3d05659b	0.0325676
7	0xbcf7c90a	-0.03024723
8	0x3979ba3d	0.0002381587
9	0xbc6cba9c	-0.014448788
10	0xbd1ace05	-0.03779413
11	0x3c3f72c3	0.011685076
12	0xbd0d3572	-0.034474798
13	0xbc423524	-0.01185349
14	0xbcee5a8a	-0.029095907
15	0xbce59280	-0.028023958
16	0x3d1387da	0.03601823
17	0x3aa5048b	0.0012589855
18	0xbb8cac86	-0.0042930273
19	0x3d59eb56	0.05320295
20	0xbce9e639	-0.028552162
21	0x3cb7ecde	0.022451814
22	0x3d6f0484	0.058353916
23	0xbc5cf4dd	-0.013486114
24	0xbca757e8	-0.02042766
25	0xbcd2dbfb	-0.02573966
26	0xbd10460d	-0.035223056
27	0xbd13e78f	-0.036109503
28	0x3d4e8011	0.050415102
29	0xbc0c2dd7	-0.008555851
30	0x3963f293	0.00021738773
31	0x3cdb95f3	0.0268049
32	0x3d0af69a	0.033926584
33	0x3c7c5f40	0.015403569
34	0x3c160cc1	0.009158314
35	0xbd2628e9	-0.04056636
36	0x3a931be6	0.0011223524
37	0x3ceca4e7	0.028887225
38	0x3ccd7ea2	0.025084797
39	0xbd1aed08	-0.037823707
40	0x3bbe8f2d	0.0058154077
41	0xbbf37a33	-0.0074303388
42	0x3a589677	0.0008262167
43	0xbc249712	-0.010045784
44	0x3d2e900b	0.04261784
45	0xbd1321de	-0.03592097
46	0x3cd98479	0.026552426
47	0xbca939c3	-0.020657426
48	0x3d2b3fff	0.04180908
49	0x3cf81db1	0.030287595
50	0x3b7b3a08	0.003833415
51	0x3d364d5e	0.044507377
52	0x3c1e8c74	0.009677041
53	0x3cec4f50	0.028846413
54	0xbc5e8a9f	-0.0135828545
55	0xba2396fd	-0.00062404556
56	0xbca8c535	-0.020601848
57	0xbd0c3b2f	-0.03423613
58	0xbc4e07f9	-0.012575143
59	0x3ca36ffe	0.019950863
60	0x3d251f4a	0.040313043
61	0x3cef2987	0.029194606
62	0x3bff2d50	0.007787384
63	0xbc166d87	-0.009181387
64	0xbc7975e6	-0.015225863
65	0xbc860880	-0.016361475
66	0x3cb3e3e3	0.02195925
67	0xbcfb5dcd	-0.030684376
68	0xbc0d4f18	-0.008624814
69	0x3d2cc253	0.04217751
70	0x3cdfab33	0.027303314
71	0x3d4ea324	0.05044855
72	0x3c94a2bd	0.018144006
73	0x3cdaefb4	0.026725627
74	0xbcd7f756	-0.026363056
75	0x3c877c45	0.016538749
76	0x3c24cb3b	0.01005822
77	0x3cd458e9	0.025921302
78	0xbd3a5e06	-0.045499824
79	0xbbf21594	-0.007387826
80	0x3d27861d	0.040899385
81	0xbd45cd54	-0.04829152
82	0xbcca4216	-0.024689715
83	0xbce1ef97	-0.027580066
84	0xbbc040dd	-0.0058671073
85	0x3ad74a8e	0.0016425417
86	0x3d22f4fc	0.039784417
87	0xbc4f00d0	-0.012634471
88	0x3ceafe30	0.02868566
89	0xbd896c73	-0.06710138
90	0xbc7f4828	-0.015581168
91	0x3d4d570c	0.050131842
92	0xbd0b676f	-0.03403419
93	0x3d35738f	0.04429966
94	0xbbca9b7e	-0.006183087
95	0x3b9c2629	0.004765291
96	0xbb8ca494	-0.00429208
97	0x3d1b7102	0.03794957
98	0x39fe0680	0.00048451498
99	0x3d741ffb	0.05960081
100	0x3cc73ec2	0.024321917
101	0xbc23a5a8	-0.009988226
102	0x3ce84b6f	0.028356282
103	0xbc7db05f	-0.015483945
104	0x3d07f2f6	0.03319069
105	0xbc8dfc8a	-0.017332334
106	0x3acde52c	0.0015708557
107	0x3c286ec4	0.010280315
108	0xbd5b24ad	-0.053501774
109	0x3bbaeb81	0.005704344
110	0x3c45a021	0.0120621035
111	0xbcfc5f62	-0.0308072
112	0x3ced9c2c	0.029005133
113	0xbc2a4b8f	-0.010393991
114	0xbcea637d	-0.028611893
115	0x3bb72a0e	0.00558973
116	0x3c20c9a1	0.009813697
117	0x3c693a59	0.014235103
118	0xbb6cec68	-0.0036151651
119	0xbbe22576	-0.0069014383

linear2.weight f4 [84, 120]
0	0x3d020a02	0.031747825
1	0xbdb51bb3	-0.08843174
2	0xbd71bacc	-0.059016034
3	0x3ca0b97e	0.0196197
4	0xbd6d2e0c	-0.05790524
5	0xbd96f498	-0.07370871
6	0xbd973b58	-0.07384366
7	0xbd61d1f0	-0.055131853
8	0x3d222bc0	0.039592505
9	0xbda1b0c9	-0.07895047
10	0xbd539ad3	-0.051661324
11	0x3d56a8ad	0.052406956
12	0x3d57a208	0.05264476
13	0x3da406da	0.08009119
14	0xbc51949d	-0.01279178
15	0x3cf14258	0.02945058
16	0xbd951336	-0.07279055
17	0xbd6ef923	-0.058343064
18	0xbc75aac5	-0.014994328
19	0x3c0ed50b	0.008717786
20	0x3c0f33d7	0.008740387
21	0xbd50e8dd	-0.051003326
22	0xbd381b33	-0.044947814
23	0xbd97bf0d	-0.07409487
24	0xbd0a0803	-0.033699047
25	0xbc9aecdd	-0.018911773
26	0xbd4d8dbe	-0.050184004
27	0x3d693823	0.0569383
28	0xbc0be0ed	-0.008537513
29	0xbd02af1f	-0.03190529
30	0xbc93013a	-0.01794492
31	0xbd124503	-0.035710346
32	0xbc507ef9	-0.012725585
33	0x3db233e0	0.087013006
34	0xbc3d6fe7	-0.011562324
35	0x3d5a0a01	0.053232197
36	0xbcc29bdd	-0.023755962
37	0x3d0a03ea	0.03369514
38	0xbca07b82	-0.019590143
39	0x3d72172e	0.059104137
40	0xbd0d231c	-0.03445731
41	0xbdac9846	-0.08427481
42	0xbbd36cc1	-0.0064521735
43	0x3d62429e	0.055239312
44	0xbd3b39c9	-0.045709405
45	0x3c543f40	0.012954533
46	0x3cf55b75	0.029950837
47	0xbdaaaecc	-0.08334121
48	0x3da642c0	0.081182
49	0xbd2c80fc	-0.042115197
50	0x3ce22498	0.02760534
51	0x3cdb0659	0.026736425
52	0xbd925881	-0.07145787
53	0x3d9eb374	0.07749072
54	0x3b2e0db0	0.0026558451
55	0x3c83a86c	0.01607152
56	0x3d2db186	0.042405628
57	0xbd8d66eb	-0.06904396
58	0x3d910f2a	0.070829704
59	0x3d82d37b	0.06387993
60	0xbd839b0d	-0.06426058
61	0xbd647201	-0.055772785
62	0xbd8ab05d	-0.0677192
63	0xbc9b0d44	-0.018927224
64	0xbc121556	-0.00891622
65	0xbd4c6ad9	-0.049906585
66	0x3da865f6	0.082225725
67	0xbd6c4769	-0.05768529
68	0xbccc2558	-0.02492015
69	0x3d8507d9	0.064956374
70	0x3c6bbc35	0.014388134
71	0x3d0396c5	0.032126207
72	0xbd7b9ba0	-0.061427712
73	0x3d04b5fb	0.032400113
74	0x3c04c83e	0.008104382
75	0x3af4f5bc	0.0018688957
76	0x3d5fd123	0.054642808
77	0x3d9b37ba	0.075789884
78	0x3d89a8bd	0.067216374
79	0xbc65a8f3	-0.014017331
80	0xbc140bd9	-0.009036028
81	0x3cf6e976	0.03014062
82	0x3d60f1f3	0.05491824
83	0xbd3ea60c	-0.046545073
84	0xbd0bdadb	-0.034144264
85	0x3d9f70e7	0.07785206
86	0xbd87890a	-0.06617935
87	0xbd73e5bb	-0.05954526
88	0xbb9cc46f	-0.004784159
89	0xbda020ef	-0.078187816
90	0x3cb60200	0.02221775
91	0xbca615b0	-0.020274013
92	0x3c6bf2b2	0.014401125
93	0xbd1b7ab1	-0.037958805
94	0xbd915cf0	-0.070978045
95	0xbd3b1941	-0.04567838
96	0x3d849c17	0.06475084
97	0xbd33ea50	-0.04392463
98	0x3bb28210	0.0054476336
99	0x3d551730	0.052024066
100	0xbc75c7d9	-0.015001261
101	0xbcb1de21	-0.021712365
102	0x3d292ad1	0.0413006
103	0xbd207507	-0.039174106
104	0xbd2756b3	-0.040854167
105	0x3d895f0e	0.06707583
106	0xbd52affc	-0.051437363
107	0x3c941258	0.018075153
108	0xbd527539	-0.051381323
109	0x3d6ce0e9	0.05783168
110	0x3c2a2619	0.01038506
111	0xbda52d7c	-0.08065316
112	0x3d2b59ef	0.041833814
113	0xbce816ff	-0.028331278
114	0x3c3f5493	0.011677879
115	0xbcaf7236	-0.021416765
116	0x3c435b07	0.011923558
117	0x3d4c7d40	0.049924135
118	0xbd9b8314	-0.075933605
119	0x3b1e7e59	0.0024184196
120	0xbbab125f	-0.005220696
121	0xbd110de3	-0.035413634
122	0x3d1cae2e	0.03825205
123	0x3c36822c	0.011139434
124	0xbcb33234	-0.021874525
125	0xbda9fe8d	-0.08300505
126	0xbd3fafbc	-0.046798453
127	0x3c8fa406	0.017534267
128	0x3dc4ed3a	0.0961556
129	0x3d7d0d29	0.06178013
130	0x3dc6cc28	0.097069085
131	0xbcee8fc3	-0.029121285
132	0x3d84d16a	0.06485255
133	0x3c7f70cc	0.015590858
134	0x3c581731	0.013189123
135	0xbd616873	-0.05503125
136	0xbd0df86f	-0.034660753
137	0xbdf2713b	-0.11838003
138	0x3ca18c89	0.019720333
139	0x3e1c7e47	0.15282546
140	0xbd079aba	-0.033106543
141	0xbd984aaf	-0.0743612
142	0xbd1d9ff6	-0.03848263
143	0xbd850645	-0.064953364
144	0x3de843ea	0.113410786
145	0xbda40990	-0.080096364
146	0xbd160a1a	-0.036630727
147	0x3d8b1fa1	0.06793142
148	0xbd758fdc	-0.059951648
149	0x3d8920e4	0.066957265
150	0x3ce2519d	0.027626807
151	0x3c4da1e1	0.012550802
152	0x3d46742f	0.048450645
153	0x3c8875b3	0.016657686
154	0xbd9b47dc	-0.075820655
155	0xbdd1f87b	-0.10252472
156	0xbda0aba3	-0.07845237
157	0x3cded9e3	0.027203506
158	0x3dd740cf	0.10510408
159	0xbd208499	-0.039188955
160	0xbd09d7db	-0.03365312
161	0xbd77132c	-0.060321018
162	0xbce36778	-0.027759299
163	0xbd082564	-0.033238783
164	0x3c2685cf	0.010163738
165	0x3e0b00e7	0.13574563
166	0xbd739d2c	-0.059476063
167	0x3c290068	0.010315038
168	0x3d501b71	0.05080742
169	0x3d408aff	0.047007557
170	0xbd9cb414	-0.07651535
171	0x3d7b16f1	0.061301176
172	0x3e1956c0	0.14974499
173	0xbc61fd44	-0.013793293
174	0xbc91f0e6	-0.017815065
175	0x3de28b99	0.110617824
176	0x3d92e1e0	0.071719885
177	0x3d3dbb02	0.046320923
178	0x3d470123	0.04858507
179	0xbd89dd52	-0.067316666
180	0x3d89c278	0.06726545
181	0xbd2a9360	-0.041644454
182	0x3d1ca60e	0.0382443
183	0xbd2dfa36	-0.042474948
184	0x3d0c48e8	0.034249216
185	0xbd23e470	-0.040012777
186	0x3d9d90b3	0.07693615
187	0x3ca5b3b3	0.020227289
188	0xbc32f2a6	-0.01092211
189	0x3db1a82b	0.086746536
190	0xbd0c7655	-0.034292538
191	0x3e3c9f30	0.184201
192	0x3d096ea3	0.033552777
193	0x3d04d48e	0.03242927
194	0x3d6f1dd5	0.05837806
195	0x3db67b03	0.089101814
196	0x3d1e0e07	0.038587596
197	0x3d0ceceb	0.03440563
198	0x3d2f9de2	0.04287518
199	0xbd0cef51	-0.034407917
200	0xbddf4a75	-0.109028734
201	0x3dddaf31	0.10824431
202	0xbb71af72	-0.0036878255
203	0xbde96486	-0.113961264
204	0x3daba0ad	0.08380256
205	0xbd950593	-0.07276454
206	0x3de6903a	0.11257978
207	0x3d9d66a8	0.07685596
208	0x3c028c11	0.007967965
209	0x3bd7510f	0.0065709422
210	0xbe1b7e8b	-0.15184991
211	0xbc3868a0	-0.011255413
212	0xbd8d791b	-0.06907865
213	0x3da1407d	0.07873628
214	0xbd285b23	-0.04110254
215	0xbcde47ed	-0.027133906
216	0x3dee65d4	0.11640516
217	0x3db58463	0.088631414
218	0x3d848404	0.064704925
219	0xbcc67669	-0.024226384
220	0xbd29091e	-0.04126846
221	0xba741c02	-0.0009312035
222	0x3da21a42	0.079151645
223	0x3d433fac	0.047668144
224	0x3be8a584	0.007099809
225	0x3cdc0dd9	0.026862072
226	0xbd924dd2	-0.07143749
227	0xbda669db	-0.08125659
228	0x3bdf04f4	0.0068060104
229	0x3cd9a67c	0.026568644
230	0x3d750fcb	0.059829514
231	0xbdcf0d8e	-0.10110007
232	0x3ce7d7c2	0.028301124
233	0x3e0178c3	0.12643723
234	0x3dbff600	0.09373093
235	0x3d84f0ba	0.064912274
236	0xbce9578c	-0.028484128
237	0x3da5e10e	0.080995664
238	0xbb33b8f5	-0.0027423475
239	0xbcedf621	-0.029048027
240	0x3d0887bd	0.033332575
241	0xbd7b9c97	-0.061428633
242	0x3bac62cb	0.0052608005
243	0xbd87a52f	-0.06623303
244	0xbdb17489	-0.086648054
245	0xbcf9ab44	-0.030477174
246	0x3c747720	0.01492098
247	0xbd9b8fa9	-0.075957604
248	0xbd7ad9bf	-0.061242815
249	0xb9cd5e44	-0.0003917088
250	0xbd9700f0	-0.07373226
251	0xbd94f1d8	-0.072726905
252	0x3d8843d0	0.06653559
253	0xbba7f6b9	-0.005125847
254	0x3dbfc8b7	0.09364455
255	0xbd74dde9	-0.059781943

linear2.bias f4 [84]
0	0xbcea6e32	-0.028616998
1	0x3d7641e0	0.060121417
2	0x3e01dd98	0.12682188
3	0xbdb1a48a	-0.086739615
4	0xbd1fd187	-0.03901818
5	0xbd1200af	-0.035645183
6	0x3d3f2788	0.04666856
7	0x3cffee6f	0.031241624
8	0x3e01eb22	0.12687352
9	0xbd3d2aa4	-0.046183243
10	0x3c868ee5	0.01642556
11	0xbc9da565	-0.019243905
12	0x3dbbaf83	0.091643356
13	0xbd99962e	-0.074993476
14	0xbd3341f9	-0.04376409
15	0x3d890085	0.06689552
16	0xbd2e0058	-0.042480797
17	0x3d4b1c63	0.04958762
18	0x3de2fdd3	0.110835694
19	0x3dbfa0be	0.09356831
20	0x3d36ade2	0.04459942
21	0x3df3b909	0.11900527
22	0x3deba68a	0.11506374
23	0x3d493a2c	0.049127743
24	0xbd58f3d8	-0.052966923
25	0xbd76bbbd	-0.060237635
26	0xbd28f9fa	-0.04125402
27	0x3d900042	0.07031299
28	0x3c5caf1d	0.013469485
29	0xbda08c5a	-0.0783927
30	0xbd09179b	-0.033469778
31	0xbcf2f0d5	-0.029655853
32	0x3c1399bc	0.009008821
33	0x3dcdac73	0.10042658
34	0xbdea875e	-0.114516005
35	0x3c95299c	0.018208317
36	0xbc948bd7	-0.018133087
37	0xbb240e94	-0.0025033103
38	0x3d88ec53	0.066857
39	0x3dbfba45	0.093617
40	0x3ccaed42	0.024771336
41	0xbb2573d2	-0.0025246036
42	0xbdc3f535	-0.09568254
43	0xbd2bc27b	-0.041933518
44	0xbd89eea6	-0.06734972
45	0xbc92af3c	-0.017905824
46	0x3d87ab9d	0.066245295
47	0xbdb61f6b	-0.08892711
48	0xbc7ef8ae	-0.01556222
49	0x3bb17a78	0.0054162107
50	0x3da65674	0.081219584
51	0x3d23c741	0.039984945
52	0xbd933921	-0.07188631
53	0x3c5c0fa9	0.013431468
54	0x3d46cf53	0.048537564
55	0x3da4b21a	0.08041783
56	0xbcf5aa9f	-0.029988585
57	0xbda8fd35	-0.082514204
58	0x3ddec7d6	0.108779594
59	0x3df1467e	0.117810234
60	0x3e00b12f	0.1256759
61	0x3dac081b	0.083999835
62	0xbcea0079	-0.028564679
63	0xbd44b1f5	-0.048021276
64	0x3e07c2c8	0.13257897
65	0xbcbae428	-0.022813872
66	0xbd1b082f	-0.0378496
67	0xbda35b0c	-0.0797635
68	0xbd6dc79a	-0.058051683
69	0xba4edefa	-0.00078915025
70	0xbcf19a70	-0.029492587
71	0xbd9890a6	-0.074494645
72	0xbce83e68	-0.02835007
73	0xbcaf1d04	-0.02137614
74	0xbcb4c392	-0.022065911
75	0x3d4b7486	0.049671672
76	0xbd9feade	-0.07808469
77	0xbdbb9901	-0.091600426
78	0x3c5fbc73	0.01365577
79	0x3ce28c35	0.027654747
80	0xbc708c99	-0.014681959
81	0x3c43f02e	0.011959119
82	0xbd8d25da	-0.06891985
83	0x3d81c50b	0.06336411

linear3.weight f4 [10, 84]
0	0xbd212e4c	-0.039350793
1	0xbe42d440	-0.1902628
2	0xbd37b5e0	-0.044851184
3	0xbe2b728b	-0.16742913
4	0x3e0447d9	0.12918033
5	0xbddaad18	-0.10677546
6	0x3e63efba	0.22259417
7	0x3ba6136c	0.0050682332
8	0xbd3155d7	-0.043294754
9	0x3c450459	0.012024962
10	0x3e39d5fe	0.18148038
11	0x3dd572ae	0.10422264
12	0x3e9b91b2	0.30384594
13	0xbdcd3df0	-0.10021579
14	0xbd956f06	-0.07296567
15	0x3cec5c43	0.028852588
16	0x39a942ba	0.00032283907
17	0x3dc91903	0.09819224
18	0x3e544027	0.20727597
19	0xbcc7ef80	-0.024406195
20	0xbdb10f29	-0.0864547
21	0x3e00ee9b	0.12591021
22	0x3e60a30a	0.21937194
23	0x3dc9a4d2	0.0984589
24	0x3b7b3c15	0.0038335372
25	0x3d652449	0.055942807
26	0x3dd21221	0.10257364
27	0xbdd11708	-0.10209471
28	0xbdca1427	-0.09867125
29	0xbcdcc16f	-0.026947705
30	0xbe5559a6	-0.2083498
31	0x3d14959a	0.036275484
32	0xbde1fdfc	-0.11034772
33	0xbe65851f	-0.22414063
34	0xbe841a0f	-0.2580113
35	0x3d5cabbc	0.053874716
36	0xbcbea0f0	-0.0232701
37	0xbda40cc8	-0.0801025
38	0x3d97a062	0.074036375
39	0x3d89b81c	0.06724569
40	0x3e392941	0.18082143
41	0x3c42d1a3	0.011890802
42	0x3e6fed9d	0.23430486
43	0x3e5d8e6f	0.21636365
44	0xbda0bb36	-0.07848208
45	0xbe52b810	-0.20578027
46	0xbde8f775	-0.11375324
47	0x3dc8f632	0.09812583
48	0x3dfc036f	0.123053424
49	0xbdbb451a	-0.091440395
50	0xbd414f66	-0.04719486
51	0x3e5ff0eb	0.21869247
52	0xbd89da92	-0.06731142
53	0xbe183cbd	-0.1486692
54	0x3dc4982b	0.09599336
55	0x3c272b29	0.010203161
56	0xbb56bc13	-0.003276591
57	0x3d3c1782	0.045920856
58	0x3e1bbbac	0.1520831
59	0x3d9b5f49	0.075865336
60	0x3e4bc46b	0.19899146
61	0x3c0883e8	0.00833223
62	0xbcda0a22	-0.02661616
63	0x3da8db05	0.082449
64	0xbe1b7f7c	-0.1518535
65	0xbdd5823a	-0.10425229
66	0x3e3dbde7	0.18529473
67	0xbd2e195f	-0.042504665
68	0x3d59e290	0.053194582
69	0x3d893ab9	0.067006536
70	0x3d9b3142	0.075777546
71	0x3c6ae665	0.014337157
72	0xbe085884	-0.13315016
73	0x3e19eb10	0.15031075
74	0x3cc5a240	0.024125218
75	0x3dd08218	0.101810634
76	0x3d9e4c6a	0.077294186
77	0xbe30f568	-0.17281115
78	0x3e12477c	0.14285082
79	0x3dbde868	0.092728436
80	0xbd572e7b	-0.05253456
81	0x3dc93aba	0.09825654
82	0x3e8824e1	0.26590636
83	0x3d9c0ede	0.07620023
84	0x3cfa8d81	0.030585052
85	0xbe837c6d	-0.25680867
86	0x3d7e08e9	0.062020216
87	0x3e05005a	0.12988415
88	0xbd45c014	-0.048278883
89	0x3d5dcd79	0.054151032
90	0xbe7c3a3b	-0.24631588
91	0x3db5599e	0.08854984
92	0x3d0500f1	0.0324716
93	0xbaf177e9	-0.0018422577
94	0x3d9bb773	0.076033495
95	0x3d26b160	0.0406965
96	0xbd86ce42	-0.06582309
97	0x3e3bab4b	0.18327062
98	0xbd9265bc	-0.071483105
99	0x3d3ea04b	0.046539586
100	0x3d999102	0.07498361
101	0x3e848d12	0.25888878
102	0xbdc5ee2c	-0.09664568
103	0xbe6c97ec	-0.23104829
104	0x3c13cbbd	0.009020743
105	0xbcd29c76	-0.025709372
106	0xbe288877	-0.16458307
107	0x3dfaa052	0.1223761
108	0xbd58704c	-0.05284147
109	0xbdfaae11	-0.12240232
110	0xbda362b5	-0.07977811
111	0xbe09619f	-0.13416146
112	0xbbdfc7fc	-0.00682926
113	0x3e6465e1	0.22304489
114	0x3df85a0f	0.12126552
115	0xbb75b0b6	-0.003748936
116	0x3d9f6960	0.077837706
117	0xbe82cf5c	-0.25548828
118	0xbda202a1	-0.07910658
119	0xbd255a72	-0.04036946
120	0xbcca0de2	-0.024664823
121	0xbd44eb27	-0.04807582
122	0x3d997b45	0.07494215
123	0xbe30886b	-0.1723954
124	0x3d165303	0.03670026
125	0xbdc62fa8	-0.096770585
126	0xbe0409f2	-0.12894419
127	0x3e90cc45	0.28280845
128	0xbdc857ef	-0.09782397
129	0xbd9b7747	-0.0759111
130	0x3c7520e7	0.014961458
131	0xbbf1ded1	-0.007381298
132	0x3e1796d2	0.14803627
133	0x3e9af00a	0.3026126
134	0xbdeae726	-0.11469869
135	0x3e119c12	0.14219692
136	0x3d7f4b6d	0.06232779
137	0x3e707b45	0.23484524
138	0xbe4d9425	-0.20076044
139	0x3ba96a41	0.005170137
140	0x3c8016d2	0.015635882
141	0x3e4edb1e	0.20200774
142	0xbda4ee15	-0.08053223
143	0xbe48782d	-0.19577093
144	0xbe3363ad	-0.17518492
145	0x3dcbb890	0.09947312
146	0xbd905dd3	-0.070491455
147	0xbe444980	-0.19168663
148	0xbdaba17f	-0.08380412
149	0xbbb9aac1	-0.0056661074
150	0x3de831f2	0.11337651
151	0xbca425c0	-0.020037532
152	0xbd539dd7	-0.0516642
153	0xbdb4eaae	-0.08833824
154	0x3def6534	0.11689225
155	0xbd56da65	-0.05245437
156	0x3df4836e	0.11939131
157	0xbc95ea2a	-0.018300135
158	0xbdb14b23	-0.08656909
159	0x3cfa1b9f	0.030530749
160	0x3c5bb692	0.013410227
161	0x3d8023e2	0.06256844
162	0xbdd4685a	-0.10371466
163	0x3e7eebaf	0.24894594
164	0x3dcbe878	0.09956449
165	0xbd45070a	-0.048102416
166	0xbe45f48a	-0.19331565
167	0x3e1755e8	0.14778864
168	0xbd06cba6	-0.032909058
169	0x3e821cc1	0.25412562
170	0xbe157914	-0.14596969
171	0xbd51dc0a	-0.051235236
172	0xbe9c3b84	-0.30514157
173	0xbd0b455f	-0.034001704
174	0x3e3c10be	0.18365762
175	0x3e0aad95	0.13542779
176	0x3e61a4a1	0.22035457
177	0x3dc21110	0.09475911
178	0x3aa5bcdd	0.0012644787
179	0x3d24d3e6	0.040241145
180	0x3c557532	0.01302843
181	0x3e1258de	0.14291713
182	0x3e0155f6	0.12630448
183	0x3d985e95	0.07439915
184	0xbdf95fca	-0.121764734
185	0xbb547959	-0.0032420962
186	0x3e9d51aa	0.30726367
187	0x3cf2adb5	0.029623846
188	0xbd585f4e	-0.052825265
189	0x3cfac316	0.030610602
190	0x3e9a5587	0.30143377
191	0x3dcfcd76	0.101466104
192	0xbd069eb7	-0.032866206
193	0x3e104494	0.1408866
194	0x3dbc9efe	0.09210013
195	0x3ded6295	0.11591069
196	0xbd84c78c	-0.06483373
197	0xbe813f15	-0.2524344
198	0x3d155a36	0.036462985
199	0xbd0df735	-0.034659583
200	0x3e3bbcc5	0.18333729
201	0xbe36e0f9	-0.17859258
202	0xbe187d09	-0.14891447
203	0xbdb832f1	-0.08994091
204	0x3e4b9387	0.19880496
205	0x3d7c5067	0.061600115
206	0xbe64cdd9	-0.2234415
207	0x3e7c4948	0.2463733
208	0xbdf7cd75	-0.12099735
209	0x3d9cc2fb	0.07654377
210	0xbd46ba12	-0.048517294
211	0x3d569258	0.052385658
212	0xbd812d2c	-0.06307444
213	0xbe39458f	-0.18092941
214	0x3cc7b142	0.024376515
215	0xbd1db7cb	-0.038505357
216	0x3e2a4036	0.16626057
217	0x3e8add12	0.27121788
218	0xbd4d062f	-0.050054725
219	0xbe0f8e23	-0.14019065
220	0x3e2172da	0.15766469
221	0xbe3ab2ce	-0.18232271
222	0xbdeab82f	-0.114609115
223	0x3cd75bce	0.026288893
224	0xbd427b67	-0.047480967
225	0xbd8861bf	-0.066592686
226	0x3db546af	0.088513725
227	0xbba0cd6d	-0.004907301
228	0x3e731db0	0.23741794
229	0xbe92002f	-0.28515765
230	0xbe5439e2	-0.20725206
231	0x3e68b8da	0.22726765
232	0x3e42d9f5	0.19028457
233	0x3d172fe5	0.03691091
234	0xbbbb18b6	-0.005709733
235	0xbe4c0660	-0.19924307
236	0x3e16dc1b	0.14732401
237	0xbd71272e	-0.058875255
238	0x3dafe89a	0.08589287
239	0x3dd47cbf	0.10375356
240	0x3db42ded	0.08797822
241	0xbdc32c28	-0.095299065
242	0xbe1e58e1	-0.15463592
243	0xbe840a33	-0.2578903
244	0xbde6eb60	-0.11275363
245	0x3d8621f0	0.06549442
246	0x3de5ee5e	0.112271056
247	0xbd9620ee	-0.073304996
248	0x3b3f6d3e	0.00292094
249	0xbb4275c0	-0.0029672235
250	0x3d2b958a	0.04189066
251	0x3d833c46	0.064079806
252	0x3d49a0e2	0.049225695
253	0x3e256310	0.1615107
254	0xbd37cae2	-0.04487122
255	0x3dc15fa4	0.0944207

linear3.bias f4 [10]
0	0x3c0b9026	0.008518254
1	0xbe241916	-0.16025195
2	0x3e6460a0	0.22302485
3	0xbd918a7f	-0.07106494
4	0xbdfd15ab	-0.123576485
5	0xbdba04a1	-0.09082914
6	0x3e105f7f	0.14098929
7	0xbcaff24b	-0.021477839
8	0x3e840a0a	0.2578891
9	0x3d9387d3	0.07203641
