04_cnn/4_resnet.pth (torch_old, 751897 bytes, 97 tensors)

conv1.weight f4 [16, 1, 5, 5]
000000 8e 34 25 bf dc 7f 42 bf 7c 82 b1 bd 9a 30 ea be
       -0.6453332 -0.7597635 -0.08667466 -0.45740205
000010 7f cf 8f 3e 9e 28 9f bf 87 cf 8f bf a6 4a 0a bf
       0.28087994 -1.243427 -1.1235207 -0.54020154
000020 78 8d 4b 3d 18 9b 22 3f 74 6a ac bf 91 eb a4 bf
       0.049695462 0.63517904 -1.3469987 -1.2884389
000030 27 02 81 bf 70 f0 cc 3e 40 02 fc 3e 90 c3 0f bf
       -1.0078782 0.4002719 0.49220467 -0.5615778
000040 b0 34 bb bf 57 1c 8b bf 0e d5 84 3e 4f 73 90 be
       -1.4625454 -1.0868024 0.25943798 -0.28212973
000050 d0 cc fa 3e f6 9f bc bd b4 05 78 3e 50 ce 58 be
       0.48984385 -0.09210198 0.24220926 -0.21172452
000060 da 84 82 be 57 41 a1 3d 33 5e 50 3e 29 a8 2a 3e
       -0.25491983 0.07873791 0.20348434 0.1666571
000070 1b 6e 41 3d a5 24 50 3e f9 42 eb 3d 6f 93 85 3d
       0.047224145 0.20326479 0.114873834 0.06522261
000080 b5 bb 9d 3e a1 5d 84 3c 28 63 a9 3d 07 8e 43 3d
       0.30807272 0.016157927 0.08270866 0.04774287
000090 61 2c 8a bd f4 04 ce 3d 5d 4e b6 3d c8 cf f8 3e
       -0.06746746 0.100595385 0.08901665 0.48596025
0000a0 ed 17 99 be cc 45 10 be d8 9d 41 be 79 a3 a6 bd
       -0.29901066 -0.14089125 -0.18907869 -0.08136649
0000b0 b2 85 8a 3e 23 83 b2 3d f3 4d 95 3d 44 76 5c 3a
       0.27055126 0.087164186 0.07290258 0.0008409957
0000c0 61 2c 4b 3e 9d 35 49 bb df 22 73 be be fb cc 3e
       0.19841148 -0.0030702122 -0.23743771 0.40035814
0000d0 92 57 20 3f 93 01 08 3f 24 67 8b 3f 20 09 64 3e
       0.6263362 0.531274 1.0890851 0.22269106
0000e0 db d6 61 3f c9 9c 14 bf c1 8b 5f bf 3c 12 80 bf
       0.8821847 -0.58051735 -0.8732262 -1.0005565
0000f0 3d 88 09 3e d5 aa a2 3f 56 f4 00 3e 69 e6 86 bf
       0.13430877 1.2708384 0.12593207 -1.0539066
000100 cc 61 5f bf 82 7b 84 3e ee 83 79 3f cd 72 a6 3e
       -0.872586 0.2587548 0.97466934 0.3250946
000110 20 25 51 3f 4f 8b fd 3f 37 da 06 bf 99 d7 eb 3e
       0.81697273 1.9808139 -0.5267672 0.46062925
000120 87 4f c2 be f0 8f dd be 46 59 27 3e b7 e2 88 3d
       -0.379513 -0.43273878 0.16342649 0.066838674
000130 6b 93 47 3e d8 d5 86 3c 04 58 83 be d0 6f 26 bf
       0.19489829 0.01645939 -0.25653088 -0.6501436
000140 2b 13 a5 be cd 5c 33 3e c6 5f a8 3e 75 4d 27 be
       -0.32241186 0.1751587 0.3288557 -0.16338141
000150 4f 95 96 3d 77 d8 86 be 9f ca de be 04 78 44 be
       0.07352697 -0.26337025 -0.43513963 -0.19186407
000160 9c 32 a9 be a0 2b ea bd d7 5c 68 bf 7e f5 cf bf
       -0.33046424 -0.11434102 -0.9076666 -1.6246793
000170 16 82 b0 bf 02 45 36 bf 81 fd 05 3f b9 5e 9c be
       -1.3789699 -0.7119905 0.5233994 -0.30541018
000180 43 56 7e bf 94 3a 74 bf d3 2b 61 be 4b 41 3b be
       -0.99350375 -0.95401883 -0.21989374 -0.18286626
000190 47 41 b8 3d ac 24 79 3f e6 79 44 3f 8e 0b 76 bf
       0.08996826 0.9732158 0.767485 -0.9611138
0001a0 e4 6e 39 bf 63 95 19 3f 6a 8d 36 3f 62 f7 d1 3e
       -0.7243483 0.5999357 0.7130953 0.4100905
0001b0 e8 3b 96 bf db 1d 1d 3e ba a8 ce bf 89 74 07 c0
       -1.1737032 0.1534342 -1.6145241 -2.1164877
0001c0 3b 47 a1 bf de 58 c4 3f 33 59 9d 3f 21 70 03 3f
       -1.2599863 1.533962 1.2292846 0.5134297
0001d0 bb 2e 6b 3f e9 69 a7 3f 65 33 b6 3f 1e 09 83 3e
       0.9186818 1.3079196 1.4234434 0.25592893
0001e0 2c 61 46 3f f4 26 ea be 93 32 83 bf 6c cc 35 bf
       0.7749202 -0.45732844 -1.0249809 -0.7101505
0001f0 9c 75 19 be c4 2b c7 3f 16 a0 81 3e e0 e5 22 3e
       -0.1498627 1.5560231 0.25317448 0.15908003
000200 9b 11 a8 3e fc 98 2d 3f 88 ee 71 3e 7f 50 b5 3e
       0.32825932 0.6781156 0.23626149 0.35412976
000210 29 a0 3c 3f 1d 2d 95 3e 6f 9e 74 3f 64 51 bd bf
       0.73681885 0.2913598 0.9555425 -1.4790463
000220 92 f1 bd bf 5a 93 bd bf 8c c7 38 3f e9 d5 90 bf
       -1.4839346 -1.4810593 0.72179484 -1.131528
000230 3a 92 86 be fe 14 50 3e 97 f9 a7 3e 55 a5 52 3f
       -0.26283437 0.20320508 0.3280761 0.82283527
000240 f8 83 6c 3e c5 67 5c 3e f3 68 ee 3e d4 12 23 bd
       0.23097217 0.2152396 0.46564445 -0.039812878
000250 d2 ab cb be 9c 3e 64 3e 12 03 52 be a4 ae b9 be
       -0.39779526 0.22289509 -0.20508984 -0.36266053
000260 39 56 8a 3f e9 b4 59 3e f3 f5 1b bf 8c 53 54 3f
       1.0807563 0.21260418 -0.60922164 0.8293998
000270 fd de 09 3e a5 ec 07 3f 9d 24 df 3f e5 ce a0 3f
       0.1346397 0.53095466 1.7433048 1.2563139
000280 ba d8 0f be 45 c0 ba bd 58 73 a7 3f 2a d3 eb 3f
       -0.14047518 -0.09118704 1.3082075 1.8423817
000290 77 64 1d bf ee 21 3e be 86 40 c6 bd 2e 74 8e bf
       -0.6148142 -0.1856763 -0.096802756 -1.1129205
0002a0 b2 73 f7 bf cf 0d 0c bf 1e bc f0 bd c8 17 33 3e
       -1.9332182 -0.5470857 -0.117546305 0.1748954
0002b0 10 5e ce bf 1d 1e d5 bf 06 39 4c 3f b7 6f dc bd
       -1.6122456 -1.6649815 0.7977451 -0.107634954
0002c0 f9 40 31 3e fa 9a 90 3e 99 a5 d9 3d 2c a2 8f 3e
       0.17309941 0.28243238 0.10627288 0.28053415
0002d0 18 1f fb 3c ff e5 56 be df 7f df 3e a4 22 3e bf
       0.030654475 -0.20986174 0.43652245 -0.7427161
0002e0 af 82 1f bf 4e 98 e1 be eb 22 db 3e d4 6f 12 3f
       -0.6230878 -0.44061512 0.42800078 0.57201886
0002f0 3d ca 6a be ae 07 d0 be f5 23 23 be 38 d1 29 3f
       -0.2292871 -0.4063086 -0.15931685 0.6633487
000300 0a 23 8c be af 46 ed bd 1b 27 81 3e 8c cf c5 3e
       -0.27370483 -0.115857475 0.25225148 0.38634908
000310 23 1f 1a 3e 6b cf c7 bc a3 64 90 bd 3d cb 81 be
       0.1505094 -0.024390897 -0.07050445 -0.2535037
000320 9b 27 12 bf 1e f2 0c 3e 37 f3 5f be bb 25 48 3f
       -0.57091683 0.13764235 -0.21870123 0.7818257
000330 e3 d1 9f be 0d 3b 3f 3d d5 d8 61 bf fa ff 6c bf
       -0.31214818 0.046687175 -0.88221484 -0.9257809
000340 70 0e 64 3d cb 77 b4 3f 61 0a 8d 3e a3 62 3c 3f
       0.05567783 1.4099058 0.2754698 0.7358801
000350 5e 5a 96 bf 2d 3d 9d 3f 9c fb 26 40 ce d7 cd 3e
       -1.1746328 1.2284294 2.609107 0.40203708
000360 e2 1f 93 3d f6 66 b9 3f 68 fc 1a 3f 53 17 e1 bf
       0.071838155 1.4484546 0.6054139 -1.7585243
000370 e0 9a 85 3e da 48 9f 3e 8a 1b 80 3f 49 bf e7 bf
       0.26094723 0.3111027 1.0008404 -1.8105251
000380 6a e2 06 c0 18 a2 25 bf 04 15 04 bf 77 5c 62 be
       -2.1075692 -0.6470046 -0.5159457 -0.22105585
000390 f1 04 eb 3d 4c 70 2c 3e cd 1e e2 bf 41 c5 f6 bf
       0.11475552 0.16839713 -1.766565 -1.9278947
0003a0 29 d5 a8 bf c5 0d bb be a5 72 ce 3d c2 d1 d2 be
       -1.3190051 -0.36533943 0.100804605 -0.41175658
0003b0 62 91 8a bf 09 15 4b bf a2 cb d6 bd 5d fc b5 3e
       -1.0825617 -0.7932897 -0.104880586 0.355441
0003c0 9e 0b 88 3f bb fa 22 bf 3a 30 36 bf 6c 96 00 3e
       1.0628545 -0.63663834 -0.7116734 0.12557381
0003d0 99 22 00 3f ab 11 1f 3f 89 8e 50 3d ae 40 5f 3f
       0.5005279 0.62136334 0.050917182 0.8720807
0003e0 d4 30 37 3f 43 2c fa 3e a2 91 a2 bd ec b6 07 3d
       0.7155888 0.48861894 -0.079379335 0.033133432
0003f0 11 e7 ce 3e 2e 40 d8 3e 71 cd 27 bf 86 b4 9a 3d
       0.40410665 0.42236465 -0.65547854 0.07553963

bn1.weight f4 [16]
000000 13 7a ff 3e 29 ef 82 3d 25 ce 6f 3e f3 03 f2 3e
       0.49897823 0.063932724 0.23418482 0.47268638
000010 4f cb d4 3e 8e f0 79 3e e5 e3 05 3f 5d ba a6 3d
       0.41561362 0.2440817 0.52300864 0.08141015
000020 f6 8e 06 3f f2 97 fb 3e dd c2 e0 3e d0 ea e8 3e
       0.5256189 0.49139363 0.4389867 0.45491648
000030 07 65 13 3f b7 3c 22 3f b7 a5 cc 3e e9 56 da 3e
       0.5757603 0.63373893 0.3997018 0.42644432

bn1.bias f4 [16]
000000 b3 c1 2d c0 c0 4b 7a be dd 43 5c 3e 4e b5 1b c0
       -2.7149475 -0.24442959 0.21510263 -2.432941
000010 1f 64 43 be 4a cd ec bf 3f ea 45 bf 7f 9c 08 bf
       -0.19081162 -1.8500149 -0.77310556 -0.53363794
000020 80 30 a6 bd e6 46 0d c0 cf 73 cc bd 8c 71 dd bf
       -0.081147194 -2.2074523 -0.09983026 -1.7300277
000030 a5 99 21 be 33 7d 9a bd a5 05 28 bc be 30 f6 bd
       -0.15781267 -0.07543411 -0.010255252 -0.120210156

bn1.running_mean f4 [16]
000000 da cf a9 bc 1b f9 a8 3b 5c cc 9f bc d6 a8 37 bc
       -0.020728994 0.005156649 -0.019506626 -0.011209687
000010 8e fe 6d 3c 9e 45 c4 bb 6e 75 a7 3c 99 1f b2 3c
       0.014526023 -0.0059897443 0.020441737 0.021743583
000020 3a 23 47 3c 92 e3 a4 bb c0 e2 10 3a cf c7 30 bb
       0.012154395 -0.0050320113 0.00055269524 -0.0026974564
000030 74 6f b6 3b 45 23 30 3c dc 61 10 bd b2 1b 16 3b
       0.0055674855 0.010750596 -0.035249576 0.0022904691

bn1.running_var f4 [16]
000000 92 2e 69 3f c7 08 68 3f 56 fd 68 3f c5 54 67 3f
       0.91086686 0.90638393 0.9101156 0.90363723
000010 2e bc 67 3f 07 5b 67 3f da cf 68 3f d0 ef 68 3f
       0.90521514 0.9037327 0.90942156 0.90990925
000020 7f 4c 67 3f ff 02 67 3f bd de 66 3f 8d 1d 67 3f
       0.903511 0.90238947 0.9018362 0.90279466
000030 08 37 67 3f 1e 67 67 3f 17 51 6e 3f 7b 2a 67 3f
       0.90318346 0.9039172 0.93092483 0.90299195

group1.group.0.block1.0.weight f4 [16, 16, 3, 3]
000000 6c aa 88 be e2 21 b1 be c0 59 02 bd 29 17 34 be
       -0.26692522 -0.34596163 -0.031823874 -0.1758696
000010 c5 d2 a9 bd 7a a1 c6 bd 42 64 49 bc 47 de 21 bd
       -0.08292154 -0.09698768 -0.01229197 -0.03951862
000020 b9 f5 17 be e7 29 c8 bd 2d 51 31 be 0d 57 4f 3d
       -0.1483983 -0.09773617 -0.17316122 0.050620127
000030 18 d9 85 3d 77 5b 8d 3a 11 41 50 be ee 21 b8 3d
       0.06535548 0.0010784705 -0.20337321 0.089908466
000040 c1 b1 ec 3d ec 75 b3 be 91 94 95 3d 48 90 5b be
       0.11557341 -0.35050905 0.073037274 -0.21441758
000050 0e 5b 2e 3e 39 da eb bd 59 85 3d bd af b7 23 3d
       0.17026922 -0.11516232 -0.04626975 0.039970096
000060 c2 17 09 bd f6 67 93 be 5c 20 6f be aa 05 8c be
       -0.033469923 -0.28790253 -0.23352188 -0.2734807
000070 19 f6 6e 3d 01 5a 0c be ea 8f 0a bd 0c b8 31 be
       0.058340166 -0.13706209 -0.033828653 -0.17355365
000080 14 7b bf 3d 3f 5d 08 be 9c 48 a2 3d 0a 96 02 bd
       0.09349647 -0.1331682 0.079240054 -0.03188137
000090 ab 77 f8 3c 98 cc 1f be c2 ff 05 be 6c 60 c2 3c
       0.0303305 -0.1560539 -0.13085845 0.023727618
0000a0 ba 68 0a bd 4d 62 b5 3d cd a6 af 3c fe c9 99 bd
       -0.03379128 0.0885664 0.021441841 -0.0750923
0000b0 fb 27 08 3e de f3 b4 3d a8 cb a9 bd ab 60 0f be
       0.13296501 0.088355765 -0.082907975 -0.1400172
0000c0 ef 36 af bd f6 f4 04 3e 27 fa 20 3e 94 c8 96 bd
       -0.085553996 0.1298407 0.15720426 -0.07362476
0000d0 ec 69 11 3e 68 b2 6c 3b b1 fd 96 bd 85 be 12 3c
       0.14200562 0.003611708 -0.073726065 0.008956556
0000e0 5c 83 31 be e5 48 d5 3d 9f 29 71 bd a7 83 c0 bc
       -0.17335266 0.10414294 -0.058877584 -0.023500277
0000f0 d6 31 03 be a5 45 46 bb a3 bb 16 3d bd bd 7b bd
       -0.1281198 -0.0030253914 0.036800038 -0.061460245
000100 dc 53 f7 3d 88 3d 36 bd 5a 7b 8a 3d 14 3e e6 bb
       0.12076542 -0.044492275 0.06761809 -0.0070264433
000110 1b f0 b6 bb ea bd 2b 3c ea 61 89 3e 75 80 27 3c
       -0.005582822 0.010482291 0.26832515 0.010223498
000120 64 2a a4 3d e0 1c 29 3e da f3 bd bd 45 06 67 bd
       0.08015898 0.16514921 -0.092750266 -0.056402463
000130 ed f6 e9 3c 57 89 d5 bd ec 9d e4 bd af 15 98 bd
       0.028560126 -0.10426586 -0.11162934 -0.07426011
000140 9d 35 a1 3c 02 0b ad bd 94 db 27 be 0f b2 6a 3d
       0.019678885 -0.08449365 -0.16392356 0.057298716
000150 b5 c9 15 3c 30 bb 24 be 8a 15 b7 be 49 32 fc bd
       0.009142329 -0.16087031 -0.3575862 -0.12314279
000160 0a dc 0c be 72 16 27 be bf a4 87 3b 3b 88 25 be
       -0.13755813 -0.16317156 0.0041395123 -0.16165249
000170 88 de d5 bd cb 48 2a be 0f 80 ce 3d e6 59 7c bd
       -0.10442835 -0.16629331 0.10083019 -0.06160917
000180 0d 1e a8 be 32 71 ba 3d c3 66 ac be e2 e9 1c be
       -0.32835427 0.091036215 -0.3367215 -0.15323594
000190 06 69 6e 3d 35 b0 c6 bd c5 99 d5 3c 65 61 34 bd
       0.058205627 -0.097015776 0.0260743 -0.044038195
0001a0 69 aa 8e bd 43 27 ba 3d e4 3a de bd d5 b5 cc 3d
       -0.06966097 0.0908952 -0.10851076 0.09995619
0001b0 d8 9f d4 bc b4 dc 91 bd 66 d2 72 be f4 8d 0e be
       -0.025955126 -0.07122174 -0.23713073 -0.13921338
0001c0 01 cf b6 3c 1a 29 74 be 6d 4d ae 3b c0 b8 d3 bd
       0.022315504 -0.23843804 0.0053192885 -0.10337973
0001d0 2d 8d 80 bd 1d 95 81 3c 21 f4 72 bc 61 60 2a be
       -0.06276927 0.015818173 -0.014828713 -0.16638328
0001e0 b0 4b e2 bd 0a 74 a8 bd 3b c2 62 3c ec c4 26 3c
       -0.110495925 -0.08225258 0.013840253 0.010178786
0001f0 8b 5c 2b be d6 23 31 3c ae d3 b0 3b f0 6f 0a be
       -0.16734521 0.010811767 0.005396328 -0.13519263
000200 f7 21 a4 bd 8f c6 76 bd f4 7b 0c 3e bc 7a 28 bd
       -0.08014291 -0.060247954 0.1371916 -0.041132674
000210 b1 0f fa bb 95 ab 36 be cf 41 7d be 25 4b 29 bd
       -0.007631265 -0.17838891 -0.24732135 -0.04133143
000220 62 da a3 3c 55 fc 97 bd e3 3a 48 be 72 23 5f be
       0.020001594 -0.074211754 -0.19553714 -0.21790865
000230 e8 f6 a7 bd 6c 39 dd bd 35 58 b1 be f4 6c 72 be
       -0.082013905 -0.10801968 -0.3463761 -0.23674375
000240 82 95 0b bf 63 3f 25 bf 27 0c 8e bf 9d b3 0a bf
       -0.54525006 -0.64549845 -1.1097459 -0.5418032
000250 51 6f 33 bf e1 c4 a3 bf 53 e3 0b bf 3a 02 13 bf
       -0.7009173 -1.2794458 -0.54643744 -0.5742527
000260 a2 1f 5f bf 58 74 27 be 8a e4 3e be 96 06 59 3d
       -0.8715764 -0.16352975 -0.18641868 0.052984796
000270 7c aa 7c bd c2 a0 1f be d5 2a 1f 3e ec 3a 37 bd
       -0.061686024 -0.15588668 0.15543683 -0.044733927
000280 bf 5f 82 bd 43 d8 76 3e 66 90 98 be f6 f8 e1 bd
       -0.06365918 0.24105935 -0.29797667 -0.11033814
000290 7e 17 0f be c5 e6 d1 bd 1e 90 32 be 62 85 ab bd
       -0.13973805 -0.10249094 -0.17437789 -0.0837505
0002a0 5a 0f 35 be 04 a0 15 bf 91 b9 2d be 0d 7c ff be
       -0.17681637 -0.5844729 -0.16965319 -0.4989933
0002b0 fd 56 46 bf 26 6c 19 bf 89 ef 9c 3d a9 a9 cc be
       -0.77476484 -0.59930646 0.07662875 -0.3997319
0002c0 63 7a 3e be fe 8c ee 3d 67 e5 a7 bd c7 27 a0 be
       -0.18601374 0.11647986 -0.08198052 -0.31280348
0002d0 27 87 ac be cb 87 bf be 94 93 2f be 21 13 c1 3e
       -0.33696863 -0.3740829 -0.1714614 0.37709907
0002e0 f7 1a 70 3d d5 5c 2c 3d 6e fe 1f 3e 67 b8 99 3c
       0.058619466 0.04208072 0.15624401 0.018764688
0002f0 ec d6 59 be 0f 59 eb be 98 7b e1 be ae e0 c6 be
       -0.21273392 -0.45966384 -0.44039607 -0.38843292
000300 38 d8 f9 be c9 9f 2f bf 37 e7 48 bf 0d 3b 8f be
       -0.48797774 -0.6860319 -0.78477806 -0.2797474
000310 fd 13 ac be 5e 6d 58 be 62 61 35 be b3 e6 d2 3e
       -0.33609 -0.2113547 -0.1771293 0.41191635
000320 e0 df 9b be a2 f7 e5 be ec f0 e1 be c3 82 2c bf
       -0.3044424 -0.4491549 -0.4412912 -0.67387027
000330 b1 fd 93 be 68 e8 ed be af 00 05 bf fa 07 ca bd
       -0.2890449 -0.46466374 -0.5195417 -0.09864803
000340 0a ed 21 3d b8 4b 96 3d fa b4 e5 bd 68 8a a7 be
       0.0395327 0.07338661 -0.11216159 -0.32722783
000350 a6 a3 27 be 4d 4c 82 be f4 3d 94 bd df 61 04 3e
       -0.1637102 -0.25448838 -0.07238379 0.1292796
000360 9e 1f 87 be 29 ec f7 be 1f 13 0d bf 41 98 9b be
       -0.2639131 -0.48422363 -0.551073 -0.30389598
000370 65 91 26 bf 7c 8a 2a bf 92 b3 f8 be f6 ac bf be
       -0.65065604 -0.6661756 -0.485745 -0.37436646
000380 36 cc 23 bf 9a c3 f3 be a9 ff d9 be a9 22 50 be
       -0.63983476 -0.4761017 -0.42577866 -0.20325722
000390 34 2c 58 bf 92 38 0c bf bf 1f 4b 3d 8b 6d 21 bf
       -0.8444245 -0.5477382 0.049590822 -0.63057774
0003a0 69 55 13 bf 64 c4 78 bd 73 2d fb 3d 2c d0 fb be
       -0.575522 -0.060734168 0.12264528 -0.4918226
0003b0 1e 84 74 be d8 f8 a4 3e 26 3b c3 be 87 f1 d0 bd
       -0.23878524 0.32221103 -0.38131064 -0.10202318
0003c0 17 07 04 bc 24 29 d2 be b6 43 ef 3d 8a f0 be be
       -0.008058331 -0.41047013 0.11682837 -0.37292892
0003d0 ed 4f 54 be db 6b b9 3e f6 71 16 bf ab 3a df be
       -0.20733614 0.362151 -0.5876764 -0.43599448
0003e0 33 61 8e 3c 64 77 9d be 2e 08 e6 be 8d 49 8f be
       0.017380333 -0.3075515 -0.44928116 -0.27985802
0003f0 d1 c5 8e be bf 76 7b bc 2d de 83 3c 01 3f d9 be
       -0.27885297 -0.0153481355 0.016097153 -0.4243088

group1.group.0.block1.1.weight f4 [16]
000000 8a c8 7b 3f a2 1f 65 3f b7 a8 98 3e 03 75 63 3f
       0.98352873 0.8950139 0.2981622 0.8885042
000010 b6 46 2f 3f e4 04 ab 3e 0b 18 64 3f 02 8b e3 3e
       0.6846727 0.3340217 0.89099187 0.44441992
000020 62 c2 68 3f 49 ab 6a 3f ae 96 46 3f 43 15 83 3b
       0.90921605 0.9166761 0.7757367 0.0040003373
000030 c4 53 87 3e 23 e8 11 3f cb 72 50 3f 1d 01 08 3f
       0.26431096 0.5699484 0.8142516 0.531267

group1.group.0.block1.1.bias f4 [16]
000000 3b 28 21 be 78 18 1d 3e ac f3 2d 3f da 7c 39 be
       -0.15738003 0.15341365 0.6794994 -0.18114033
000010 b8 d2 9e be 70 49 63 be 68 a0 e3 bd 49 b9 b4 be
       -0.3102014 -0.22195983 -0.111145794 -0.3529761
000020 5f 20 9b bd 9e 55 ae bd f2 5a 8d be 1c c1 53 bf
       -0.07574534 -0.08512424 -0.27608448 -0.82716537
000030 1f 79 75 3f ee ae 4e be 2a a1 6b be af b9 2c be
       0.9588794 -0.20183918 -0.23010698 -0.16867708

group1.group.0.block1.1.running_mean f4 [16]
000000 10 dc b7 bd 0b 1f a8 bd 9f ed 3c be 7a 26 9d bd
       -0.089775205 -0.08209046 -0.1845002 -0.076733544
000010 68 f6 17 bd 2a 13 19 bd 08 53 81 3d 2e 0a 61 bd
       -0.037100226 -0.037371792 0.06314665 -0.05494135
000020 d2 05 2e 3e 3d d5 aa 3d 7a 7e 27 be 25 4d 30 bc
       0.16994408 0.08341453 -0.1635684 -0.01076058
000030 74 07 3b be 1f 3d 85 3c 5e ea 8a be eb 38 8e bd
       -0.18264562 0.016264496 -0.27131933 -0.0694445

group1.group.0.block1.1.running_var f4 [16]
000000 b6 ae 86 3f c7 21 80 3f 43 af 8c 3f 7e 21 7b 3f
       1.0522068 1.0010308 1.0990986 0.9809798
000010 81 a1 7a 3f 5f 16 6f 3f 68 0f 7d 3f 4d 68 88 3f
       0.97902685 0.9339351 0.98851633 1.065683
000020 fb 0f 82 3f d1 46 83 3f d4 02 82 3f a0 db 77 3f
       1.0161127 1.0255986 1.0157113 0.96819496
000030 ab ce 74 3f 0f 00 7f 3f 35 a2 82 3f 49 2b 7b 3f
       0.9562785 0.99609464 1.0205752 0.9811292

group1.group.0.block2.0.weight f4 [16, 16, 3, 3]
000000 f2 31 86 bc 86 59 92 bd e1 73 25 be b2 c9 9d bd
       -0.016381238 -0.071459815 -0.16157486 -0.07704486
000010 90 d5 8f bd a6 f3 02 3e e1 ad 06 be fb 30 a1 3d
       -0.07023156 0.12788257 -0.13152267 0.078706704
000020 47 38 4a 3d 3b 41 f0 be 9e c0 e2 3e 35 9f 22 3e
       0.049370077 -0.46924767 0.4428758 0.15881045
000030 a9 67 40 bf 7c c5 b4 3c 29 26 0b 3e 54 f6 2e bf
       -0.7515817 0.022066824 0.13588776 -0.68344617
000040 ad 40 03 3d 49 d6 bc be 6e f9 ec bb 7f 35 05 3d
       0.0320441 -0.36882237 -0.007231883 0.03252172
000050 73 27 52 be 35 ed 33 be 1e ef e9 be da a3 a3 be
       -0.20522861 -0.17570956 -0.45690244 -0.31960946
000060 7a 63 cd be 40 7d 9f be 81 5b 45 bc 39 0c 3f 3e
       -0.40114957 -0.31150246 -0.012045742 0.18657006
000070 85 4f 15 3c f6 bf 31 be 92 82 40 3e 98 4c 94 bd
       0.009113197 -0.17358384 0.18799809 -0.072411716
000080 32 2c e7 3b c1 b3 a1 bd 60 f8 20 bd 85 5d fd bd
       0.007054829 -0.078956135 -0.03929937 -0.12371353
000090 7e 57 bc bd 0b a4 b2 bd 89 cf dd 3c 21 ec 1a be
       -0.09196375 -0.08722695 0.0270765 -0.15129139
0000a0 2c ed 8b bd b9 0c df bc f1 28 98 bd 0c e1 ac 3d
       -0.06832346 -0.027227746 -0.07429684 0.08441362
0000b0 3e af 11 be 63 5e a9 bc 47 eb 2e be ac 3d ef bd
       -0.14227006 -0.02067489 -0.17081939 -0.11681685
0000c0 cb ec a8 bd 07 8f 51 be d0 f9 83 be c3 ae f8 3c
       -0.0824829 -0.20464717 -0.2577653 0.03035677
0000d0 dc 9d ec be dd 76 f0 be f6 e9 99 3d 71 89 a4 bd
       -0.46214187 -0.46965685 0.07515328 -0.08034027
0000e0 8e 98 0b be 04 86 9a bd 62 47 69 bd 0b 89 2d be
       -0.13632414 -0.07545093 -0.05695284 -0.16946809
0000f0 52 26 10 bd 24 c2 11 be db 38 9d 3d 0a db 9e bd
       -0.035192795 -0.14234215 0.0767686 -0.07756622
000100 90 34 0d 3d 9d 68 d8 3c ab 75 62 be f1 f8 14 3e
       0.034473956 0.026417071 -0.221152 0.14548089
000110 25 62 c7 3d 87 c8 d0 bd 40 30 9a bc d4 c7 02 be
       0.097355165 -0.101944976 -0.018821836 -0.12771541
000120 a3 85 92 3d a7 43 03 be 3d 36 0b 3e 64 b6 49 be
       0.071543954 -0.12818776 0.13594909 -0.19698483
000130 02 04 50 be bf c4 1e bd 9c df 41 3d 58 93 dc bd
       -0.20314029 -0.03876185 0.04733239 -0.10770291
000140 ff 67 0b be c8 4f 86 be fe a9 95 bc 0f aa 99 bc
       -0.1361389 -0.26232743 -0.018269535 -0.018757848
000150 80 cb 9a 3d 3f a8 17 3d 0e fc e8 bd f9 08 a0 3c
       0.07558346 0.037025686 -0.113762006 0.019535528
000160 23 eb ec bd ec f8 dd bc f0 99 b2 bd 54 ed 4c bd
       -0.11568286 -0.027096234 -0.087207675 -0.05003102
000170 4a fd 9f bd 6a 4c 53 bd 41 95 bf 3d 05 e0 5d bd
       -0.07811983 -0.051586546 0.0935464 -0.05416872
000180 54 f6 5e be 49 16 bc 3d b4 7b 09 be 24 92 8f bd
       -0.21773654 0.09183938 -0.13426095 -0.07010296
000190 c2 24 80 be cf 72 13 be e3 a3 4f bd 98 b0 fc bd
       -0.25028044 -0.14399265 -0.050693404 -0.1233837
0001a0 26 d0 62 be ec 54 1c bc 7d c5 aa bd ce 75 76 3d
       -0.22149715 -0.009541731 -0.08338449 0.06017094
0001b0 74 26 bf be 07 60 8a be ec 1a e4 be dd e0 95 be
       -0.37334025 -0.27026388 -0.4455179 -0.2927312
0001c0 bd 16 f8 bd 69 e6 16 bf a8 9d f5 be ab b6 2d be
       -0.12113712 -0.5894533 -0.47971845 -0.16964214
0001d0 62 40 c8 be 5a e5 58 bd 74 22 b0 3d b3 46 8a bd
       -0.3911162 -0.0529531 0.086003214 -0.06751766
0001e0 2c b6 6a 3d 32 82 00 be 0f 4d db bd 5f ac db bd
       0.05730264 -0.12549666 -0.10708057 -0.107262366
0001f0 fb 5f 5f bd bf c6 7e 3d 67 ac a4 3b 3a d8 54 bd
       -0.054534893 0.062201258 0.005025435 -0.051964022
000200 9d 27 b2 3c ff dc 2b be 65 a6 4d be 98 17 e8 3c
       0.021747405 -0.16783522 -0.20083006 0.028331563
000210 db 0b 4a be a3 9e a7 bd 71 ed 86 bc 66 65 f0 bb
       -0.19731085 -0.081845544 -0.016470643 -0.0073363064
000220 06 13 82 3d 15 32 d9 bc 79 22 1f be 8c 01 5f 3d
       0.06351285 -0.026513139 -0.15540494 0.054444835
000230 d5 45 50 3d 5c ef 08 3c a2 33 5b bd 78 df 49 be
       0.050847847 0.008357849 -0.053516038 -0.19714153
000240 39 9e 16 bd 15 38 cf 3d 9e bc 1f bc 46 b0 08 be
       -0.036771987 0.10118119 -0.00974956 -0.13348493
000250 71 fd 2f 3c d1 6d d0 bd e8 45 83 bd 62 43 f8 bd
       0.0107415775 -0.10177196 -0.06409818 -0.12122227
000260 9d 48 57 bc eb 46 bb be 21 13 95 be da 5b e8 be
       -0.013139871 -0.36577544 -0.29116157 -0.45382577
000270 99 2d d8 be 86 77 cf be 78 aa 30 3b f8 cf dd be
       -0.42222288 -0.40520877 0.0026957076 -0.4332273
000280 aa a4 79 be b6 03 c3 be 03 e3 a6 be 49 bf 15 bc
       -0.2437922 -0.3808877 -0.3259507 -0.009139844
000290 8c a2 91 be 4c 67 ff be 3f af f1 be a5 ba 98 be
       -0.28444326 -0.49883497 -0.47204015 -0.29829898
0002a0 4c ef 29 bf 2c 7e d8 be 60 4e 8c be 00 8a c1 bc
       -0.66380763 -0.42283762 -0.27403545 -0.023625374
0002b0 b8 20 d1 3c 39 e6 a7 3d 2a df 18 bd 04 4e 4c bd
       0.025528297 0.08198208 -0.0373222 -0.04987909
0002c0 78 f3 4d 3d 45 2a f1 3d aa 8d 32 3e f9 cc d0 bd
       0.050281018 0.117756404 0.17436853 -0.101953454
0002d0 74 80 da bd 03 8a 7b 3d ee c2 13 3e 26 bf 22 be
       -0.10669032 0.061410915 0.14429829 -0.1589323
0002e0 e0 62 9e bd 4e 8f 24 3e 25 69 32 3d 66 05 21 3e
       -0.07733703 0.16070291 0.043557305 0.15724716
0002f0 26 81 df 3d 14 fb b0 3c 9f 44 23 be 36 cb 17 be
       0.10913305 0.021604098 -0.15944146 -0.14823613
000300 3a fa e2 bd cf 9c db bd 8d 89 32 bd 2c e2 16 3d
       -0.11082883 -0.10723268 -0.04358821 0.036836788
000310 74 24 58 bd 12 72 82 bd 2f 14 95 3d f5 b2 ba bc
       -0.05276914 -0.063694134 0.0727924 -0.022790411
000320 47 ee 19 3e b1 23 cc 3d 75 72 53 3e e2 97 77 bd
       0.15032302 0.09967745 0.2064913 -0.06044758
000330 f5 8d 90 bc cc fe c1 bb 02 0c 9a 3d 62 f4 b2 be
       -0.017645815 -0.0059202667 0.075218216 -0.34952074
000340 46 11 a1 bc 76 75 3d bd 72 e8 22 bd 58 de 91 bd
       -0.019661557 -0.046254598 -0.03977246 -0.07122487
000350 97 9d e8 bd 90 58 7d be 37 08 93 be 21 cf 91 be
       -0.11358183 -0.24740815 -0.28717205 -0.2847834
000360 53 7c ac bc 3e ef 89 bd 9b 5c a5 bd 19 99 42 bd
       -0.021055376 -0.06735085 -0.08074304 -0.047509287
000370 ea d4 91 3d 0c 14 82 3b 20 b6 1d bd 0e 65 d1 bc
       0.07120688 0.003969675 -0.038503766 -0.025560882
000380 ba 6a 00 3e 93 e4 a7 3d 17 fb 11 3e 84 a3 a0 3d
       0.12540713 0.08197894 0.1425594 0.07843688
000390 61 83 a1 3e 99 a9 a1 3d 5d 93 46 bd e7 1a a8 3d
       0.31545547 0.07893676 -0.04848038 0.08208256
0003a0 65 3e 71 3e 0a b5 9e 3d b1 8b 67 3e bf 9a 1a 3e
       0.23558958 0.07749374 0.22611882 0.15098093
0003b0 a6 62 51 3e 93 bb 5d 3d fe ad 44 3e 0c 5c 03 3e
       0.20447788 0.054133963 0.19206998 0.12828082
0003c0 98 54 67 3e bc ec 5c 3e e2 a2 47 3d ae a4 12 bf
       0.22590864 0.21574682 0.04873932 -0.5728253
0003d0 27 07 31 be 79 92 28 3d ba ea f2 be d9 b7 d6 be
       -0.17287885 0.041155312 -0.47444707 -0.4193714
0003e0 66 5d f4 be c4 3b 9e be 63 ef 10 bf e1 bd a1 bd
       -0.47727507 -0.30904973 -0.56615275 -0.07897545
0003f0 bc 02 a1 3d c0 28 c6 bd b8 a2 57 bd 4c 3a 55 bb
       0.0786185 -0.09675741 -0.052645415 -0.0032535968

group1.group.0.block2.1.weight f4 [16]
000000 c3 82 a3 3e 30 fb 58 3e 18 8d ca 3e 25 ee 76 3e
       0.319357 0.2118957 0.3956077 0.24114282
000010 5f 24 6b 3e df 4c 08 3f a7 a2 4b 3d 01 49 62 3f
       0.22963093 0.53242296 0.049715664 0.88392645
000020 ba 40 2c 3f 62 a8 eb 3d 7b 32 02 3e de b6 17 3e
       0.67286265 0.11506726 0.1271457 0.14815852
000030 7b c1 c5 3e d3 2c dc 3c 7f b3 ae 3d de bc 47 3d
       0.38624176 0.026876843 0.0853033 0.048764102

group1.group.0.block2.1.bias f4 [16]
000000 5e 39 b7 be 14 fa 0a bf 47 fb c3 be 5b 7b 51 bd
       -0.35785955 -0.5428784 -0.38277647 -0.05114303
000010 1f 61 e6 be 90 63 f0 be 94 12 f7 be 62 c2 10 bf
       -0.44995973 -0.4695096 -0.4825636 -0.56546605
000020 f7 0d 92 be d9 1d 3f bf d0 35 6d bf 27 d6 11 bf
       -0.2852628 -0.7465492 -0.92660236 -0.56967396
000030 b8 04 26 bf 34 99 e4 be 41 ef 44 bf bd 7f f6 be
       -0.6485095 -0.44648135 -0.7692757 -0.48144332

group1.group.0.block2.1.running_mean f4 [16]
000000 e5 0b cf 3c a5 2c 5c 3d 36 2c b1 3d b2 04 ef 3d
       0.025274226 0.053753514 0.08651011 0.116708174
000010 37 00 a9 3d 5a a7 81 3d df 48 0d bd c7 0f 86 bd
       0.08251994 0.06330748 -0.034493323 -0.06545978
000020 1d 9a f9 bc 28 42 66 3d 4d ea 4d 3c eb 2e 04 3c
       -0.030468995 0.056215435 0.012568069 0.008067827
000030 94 1c c2 bc 93 fa e7 bc fd 30 d4 bd b4 aa 8c bd
       -0.023695268 -0.028317725 -0.10360906 -0.068684965

group1.group.0.block2.1.running_var f4 [16]
000000 32 6c 71 3f 47 7f 71 3f 6c 76 70 3f af b8 78 3f
       0.9430572 0.94334835 0.939307 0.97156805
000010 5e e9 7b 3f b3 d2 78 3f 52 4c 74 3f 61 f2 75 3f
       0.98402965 0.971965 0.95428956 0.96072966
000020 92 56 71 3f 15 01 73 3f 64 92 7b 3f a5 b3 75 3f
       0.9427272 0.94923526 0.9827025 0.9597724
000030 c7 94 76 3f 23 70 71 3f 83 ef 74 3f e2 64 73 3f
       0.96320766 0.9431173 0.95677966 0.9507581

group1.group.0.conv_skip_block.0.weight f4 [16, 16, 1, 1]
000000 80 01 fd be db c5 43 be 0a 4f e6 3d 87 9b 30 3d
       -0.49415207 -0.19118445 0.11245544 0.043117072
000010 3d 24 b5 3e 9c 70 86 3e 93 cc a0 be c7 79 c7 3d
       0.3537921 0.2625779 -0.31406078 0.09740024
000020 07 2c f0 3e 26 aa cf be f7 79 f9 3e 98 41 98 be
       0.4690859 -0.405595 0.48725864 -0.29737544
000030 70 83 80 be ad 08 91 3e 56 32 28 3f b0 fe fc 3e
       -0.2510028 0.28326932 0.65701807 0.4941306
000040 13 93 c3 3e 64 b7 23 bd 9d 41 d8 3e 4b d2 36 bd
       0.38198146 -0.039969817 0.4223756 -0.044634145
000050 aa 54 6b be 24 98 d7 3d 5d be a8 3e 90 73 2e 3c
       -0.22981516 0.105270654 0.32957736 0.010647669
000060 84 c2 47 3e a5 a2 94 be 44 33 a5 3d c1 b5 ef be
       0.19507796 -0.29030338 0.08066419 -0.46818355
000070 7b 41 27 bd 6b c8 43 be 81 35 4b 3e f3 c2 b5 3e
       -0.04083393 -0.19119422 0.19844629 0.35500297
000080 65 d4 53 3e e2 04 a9 be fe d6 49 3d 60 72 ba be
       0.20686491 -0.33011538 0.0492773 -0.36415386
000090 82 82 0e bf 16 37 33 bf e9 a7 86 3e e7 80 38 bf
       -0.5566789 -0.7000593 0.2629998 -0.7207169
0000a0 38 7f b5 be 48 cc 07 3e d2 5a e9 3d 21 cf 56 3e
       -0.35448623 0.13261521 0.11394276 0.20977451
0000b0 3b cb 55 be 7c 22 08 bd 35 81 35 be d1 25 bf 3c
       -0.20878308 -0.033236012 -0.1772507 0.023333462
0000c0 3a 84 b0 3d 5e a9 08 3f f8 50 ae bd 3b 1c e9 bd
       0.0861897 0.53383434 -0.08511537 -0.11382338
0000d0 8e 56 26 be 65 98 b1 be 52 e0 37 be 2f ba 09 be
       -0.16243955 -0.3468658 -0.17956665 -0.1344993
0000e0 73 f3 4c be c8 11 0e bf 75 e9 09 be 94 66 0b 3f
       -0.20014744 -0.5549588 -0.13467963 0.54453397
0000f0 b9 dd a1 bd e8 91 06 be be 78 72 3e 60 b5 90 be
       -0.07903618 -0.13141596 0.23678872 -0.28263378
000100 77 44 c4 3e 6f c2 73 3e 68 c6 3d 3e 56 5e dc bc
       0.38333485 0.2380464 0.18532717 -0.026900452
000110 74 d0 b1 3e bb fb 26 3e 29 02 e7 bc 57 fa a8 bc
       0.3472935 0.16306965 -0.028199272 -0.020627184
000120 b8 f0 8a bd 05 13 3c 3e 0b d4 28 3c a2 f2 3e 3f
       -0.06784195 0.1836663 0.010304461 0.7458898
000130 30 40 8b be b8 df 0e bf 56 7a a0 be d8 e3 93 be
       -0.2719741 -0.5581012 -0.31343335 -0.28884768
000140 64 47 d0 bc 76 d4 03 be 92 7a 14 bc 27 0e 30 bd
       -0.025424667 -0.12874016 -0.009062426 -0.042982247
000150 4f 7c 54 3e 06 af c6 3a 09 e4 ab 3e 35 ab 19 3e
       0.20750545 0.0015158362 0.33572415 0.15006717
000160 09 39 a4 3e 3f fd e8 3d f8 f1 f3 3e 0d 66 33 3f
       0.32074764 0.11376428 0.47645545 0.7007759
000170 2b 04 e3 bb 85 83 66 3f 0a 96 2d bd dc bb d0 3e
       -0.006927987 0.9004443 -0.042379417 0.40768325
000180 29 7b 9b be 84 91 fb 3e 7c 7c 38 3e 67 6a 9d bd
       -0.303674 0.49134457 0.18016237 -0.0768631
000190 5f 6c 53 3e 49 0a 0f bf 1c f2 bd bd 3d c4 47 3d
       0.20646809 -0.5587507 -0.09274694 0.04877113
0001a0 d4 6f 97 be 18 8e 57 bf 18 1a 78 3e 27 cc a3 3c
       -0.29577506 -0.8420119 0.24228704 0.019994808
0001b0 02 11 42 bf f5 fb 74 3d 60 ed b0 3e f8 98 67 be
       -0.758072 0.059810597 0.34556103 -0.22616947
0001c0 bf de f4 bd ef cb 47 3f 6a 38 cd 3e 42 d1 86 bd
       -0.11956548 0.7804555 0.40082103 -0.065828815
0001d0 45 ea 60 3e e6 3c a2 3e e6 fa fc 3d b1 7d 13 3e
       0.21964367 0.31687087 0.123525426 0.14403416
0001e0 26 70 b5 3e 35 bb f0 3b 15 07 cb be 29 4a 69 3d
       0.35437125 0.0073465356 -0.3965384 0.05695549
0001f0 6e c5 b2 be 29 79 ec bd 12 71 08 3d 81 53 5d bf
       -0.34916252 -0.11546547 0.033310957 -0.8645554
000200 ea a1 42 3d d3 ca d1 be d5 fe 8b bd 21 a3 10 be
       0.047517695 -0.40975055 -0.06835715 -0.14124729
000210 1b 70 12 be b5 be 22 3f 59 55 c2 3c 98 32 cf bd
       -0.14300577 0.63572246 0.023722338 -0.10117072
000220 c1 fe 84 3e d2 1b 49 be 17 b4 aa be 02 fe 42 3e
       0.25975612 -0.19639519 -0.33340523 0.19042209
000230 52 c8 38 3d 6f 1e 96 3e bf 19 5b bc ba 33 00 3f
       0.045112915 0.29320094 -0.013372838 0.5007893
000240 ab e2 05 bf 92 5c 98 3c 85 a9 fb bc 30 52 dc 3d
       -0.5229899 0.018598828 -0.030720482 0.107578635
000250 9d 5a 26 3f a8 00 70 bc eb 58 b7 be 09 e6 94 3d
       0.64982015 -0.014648594 -0.35810027 0.07270438
000260 d7 81 34 3f 23 97 87 3e ce c1 65 3e 86 8b 1b bf
       0.7051062 0.26482496 0.22437212 -0.6075977
000270 7a 5f e6 be 75 0b 08 3f 37 8f 15 3e 11 8f 31 3d
       -0.44994718 0.5314248 0.14605413 0.04334933
000280 95 c6 be 3e 74 09 81 3f d8 06 01 3e 32 12 a3 be
       0.3726088 1.008101 0.12600267 -0.3184982
000290 c4 bd 6a bd de 4c 31 3f 4c 57 ef b9 2c 63 53 be
       -0.05730988 0.69257915 -0.00045650674 -0.206433
0002a0 b6 57 c1 bd 90 a4 f4 3d bd 8b 39 3e 61 d7 de be
       -0.09440558 0.1194545 0.18119712 -0.43523696
0002b0 0c e7 c9 3e 48 12 50 be 58 70 32 be 6c 56 a5 3d
       0.39434087 -0.20319474 -0.17425668 0.08073124
0002c0 6d 5f 17 3e 57 79 37 3f 15 4d fa 3d 68 29 bf 3e
       0.14782496 0.71669525 0.122217335 0.37336278
0002d0 fa fb 12 bd 27 5a 10 3f 7d 99 c4 be c6 3f 4e 3e
       -0.035884835 0.5638756 -0.38398352 0.20141515
0002e0 93 64 af 3e 46 cc c1 3e 38 44 85 3d 72 61 bc be
       0.3425642 0.3785116 0.06507152 -0.36793095
0002f0 07 dd 53 be 7b d9 1d be 07 b1 38 3e 1d c4 83 3e
       -0.20689784 -0.15414993 0.1803628 0.2573556
000300 d6 59 70 3d 4f 28 c4 3d 96 7c 21 3f e6 c7 1b bf
       0.058679424 0.09578001 0.6308073 -0.60851896
000310 1f 6b c4 3d 9c 7d 9c 3e 2d 92 04 3f 9d 70 e9 be
       0.09590744 0.30564582 0.51785547 -0.4559373
000320 7a a7 9f be 4e 43 d8 be f6 db e1 bd f2 f0 7d 3e
       -0.31182462 -0.4223885 -0.11028282 0.24798945
000330 f1 dc 47 be be fa 99 3e 3d d5 ae 3e 8e b2 a0 be
       -0.19517876 0.30074114 0.34147063 -0.31386226
000340 33 74 2d be 97 01 47 bf 8f f1 1e 3c 80 2d 1d bf
       -0.16938858 -0.777368 0.009701147 -0.6139755
000350 6f a1 c9 be 0a fc 22 3f 2a b7 30 3f aa 6d 7d 3e
       -0.39380977 0.6366583 0.69029486 0.24748865
000360 c7 4e 2e 3e 40 81 35 3d 4e 5e 09 bd 57 bb e6 3c
       0.17022239 0.044312716 -0.0335372 0.028165502
000370 26 98 1a bd eb 99 f4 3d db 47 17 be 86 47 a2 be
       -0.037742756 0.1194342 -0.14773504 -0.31695193
000380 fa 4c 02 3f 18 bc 10 bd ec 8f a9 3d 38 35 95 3e
       0.50898707 -0.03533563 0.08279404 0.29142165
000390 ff 9a 24 be 15 84 11 bf 9c 60 0c be 19 ba 51 be
       -0.16074751 -0.56842166 -0.13708729 -0.20481147
0003a0 94 71 ab be 51 6e 1d 3e 90 f2 d8 3d 27 73 df 3d
       -0.3348509 0.15374114 0.1059314 0.109106354
0003b0 49 b3 3f 3f 9c 5b e6 3e ad d5 fb 3e 7a 54 d8 be
       0.7488294 0.44991767 0.4918646 -0.4225195
0003c0 64 4e 3d 3e 68 ad 26 3e 1b ae 85 3c d3 6f 1b bf
       0.18486935 0.16277087 0.016318372 -0.60717505
0003d0 bf f7 ad 3d d0 ff d0 3e 11 a4 17 3d 8e b4 8c 3e
       0.084945194 0.4082017 0.0370217 0.27481502
0003e0 ff 28 8f 3e fa c4 6b bb 28 f3 44 bf f5 f7 b1 3d
       0.27960965 -0.0035975561 -0.76933527 0.08689872
0003f0 59 cd f9 bd 3d f6 12 bf e7 2e a4 be 9f b9 9d 3e
       -0.1219737 -0.5740698 -0.32067034 0.3080568

group1.group.0.conv_skip_block.1.weight f4 [16]
000000 00 00 80 3f 00 00 80 3f 00 00 80 3f 00 00 80 3f
       1.0 1.0 1.0 1.0
000010 00 00 80 3f 00 00 80 3f 00 00 80 3f 00 00 80 3f
       1.0 1.0 1.0 1.0
000020 00 00 80 3f 00 00 80 3f 00 00 80 3f 00 00 80 3f
       1.0 1.0 1.0 1.0
000030 00 00 80 3f 00 00 80 3f 00 00 80 3f 00 00 80 3f
       1.0 1.0 1.0 1.0

group1.group.0.conv_skip_block.1.bias f4 [16]
000000 00 00 00 00 00 00 00 00 00 00 00 00 00 00 00 00
       0.0 0.0 0.0 0.0
000010 00 00 00 00 00 00 00 00 00 00 00 00 00 00 00 00
       0.0 0.0 0.0 0.0
000020 00 00 00 00 00 00 00 00 00 00 00 00 00 00 00 00
       0.0 0.0 0.0 0.0
000030 00 00 00 00 00 00 00 00 00 00 00 00 00 00 00 00
       0.0 0.0 0.0 0.0

group1.group.0.conv_skip_block.1.running_mean f4 [16]
000000 00 00 00 00 00 00 00 00 00 00 00 00 00 00 00 00
       0.0 0.0 0.0 0.0
000010 00 00 00 00 00 00 00 00 00 00 00 00 00 00 00 00
       0.0 0.0 0.0 0.0
000020 00 00 00 00 00 00 00 00 00 00 00 00 00 00 00 00
       0.0 0.0 0.0 0.0
000030 00 00 00 00 00 00 00 00 00 00 00 00 00 00 00 00
       0.0 0.0 0.0 0.0

group1.group.0.conv_skip_block.1.running_var f4 [16]
000000 00 00 80 3f 00 00 80 3f 00 00 80 3f 00 00 80 3f
       1.0 1.0 1.0 1.0
000010 00 00 80 3f 00 00 80 3f 00 00 80 3f 00 00 80 3f
       1.0 1.0 1.0 1.0
000020 00 00 80 3f 00 00 80 3f 00 00 80 3f 00 00 80 3f
       1.0 1.0 1.0 1.0
000030 00 00 80 3f 00 00 80 3f 00 00 80 3f 00 00 80 3f
       1.0 1.0 1.0 1.0

group1.group.1.block1.0.weight f4 [16, 16, 3, 3]
000000 4c d1 93 3e 29 1b 51 3d a0 7f ba 3d b6 58 4f 3d
       0.28870618 0.051051293 0.09106374 0.05062171
000010 bf cb 86 3e 8e 4f 09 3e 42 aa 04 3f a8 15 04 3e
       0.2632732 0.13409254 0.5182229 0.12898886
000020 64 0f 89 bd de ed 58 be 18 eb 91 bd 81 1e c8 3d
       -0.06692389 -0.21184489 -0.07124919 0.09771443
000030 b0 88 22 3e 36 0f 58 3d 3d bd df 3d 8e ae 5f be
       0.15872455 0.05274888 0.10924766 -0.21843931
000040 d5 a1 01 3e 7f 6a dc 3d a8 51 b2 bc 30 90 dd bc
       0.1265939 0.107625 -0.021767452 -0.027046293
000050 7d e4 8f bc 09 f2 92 bc 1d 41 d9 bd 41 03 49 bd
       -0.017565006 -0.017937677 -0.106081225 -0.04907537
000060 1f b7 36 3b c0 f3 23 3e a7 39 81 3d 95 71 9f 3e
       0.0027880145 0.16010952 0.063098244 0.31141344
000070 4a 7d 61 3e 70 eb 7d 3e a1 e3 fb 3e ff 45 b1 bb
       0.2202045 0.24796844 0.49197105 -0.0054099555
000080 3f c7 8e 3e 76 58 b5 3e f1 63 f1 3d 97 b7 36 3e
       0.27886388 0.35419053 0.117866404 0.17843471
000090 17 63 dc 3c cc f7 5e 3e 34 50 85 3d 66 25 07 be
       0.026902718 0.21774215 0.06509438 -0.1319786
0000a0 d2 4c dc 3c 10 61 86 3e 63 cd dc 3d 1d 62 db 3d
       0.0268921 0.26245928 0.10781362 0.10712073
0000b0 61 6d 06 3e 41 b5 1e bd e0 25 20 be ba 40 4c 3c
       0.13127662 -0.038747076 -0.15639448 0.012466604
0000c0 08 18 93 be fd 0e 8e bc 3f f8 af 3e 2d ad d7 bd
       -0.28729272 -0.017341131 0.34369084 -0.105310775
0000d0 f7 b4 2f 3e 54 ec d3 bc fc 4a b5 3d a2 f3 67 3d
       0.17158876 -0.025869526 0.08852193 0.05662883
0000e0 d8 64 0c be a2 27 03 bc c5 1a fe 3d 61 23 e6 3d
       -0.13710344 -0.008005055 0.1240745 0.11237217
0000f0 58 e3 f6 3d 74 01 dd 3d 91 b5 0a bd 42 20 25 bd
       0.12055081 0.10791293 -0.03386456 -0.040313967
000100 80 4a 27 3e 23 b1 6e 3d 72 a8 4a 3e 57 3f d2 3d
       0.16337013 0.0582744 0.1979082 0.10265987
000110 da f9 b8 bd eb 5c 81 3d d1 3b a0 3e c7 28 b3 3d
       -0.090320304 0.06316551 0.31295636 0.08748012
000120 dc c9 5f 3e 40 cf e8 3e cb 2b 01 3e d4 40 5e 3e
       0.21854347 0.4547062 0.12614362 0.21704417
000130 96 e9 6c be f2 b4 14 be e2 99 1d bc 80 4c 80 3e
       -0.23135981 -0.1452215 -0.009619208 0.25058365
000140 55 f8 a2 3a 77 cd 89 3e a4 b4 a8 3e 68 ab c2 3d
       0.0012433628 0.2691457 0.32950318 0.095053494
000150 82 48 a7 3e 62 07 2b bb 12 0b 7b bc e7 63 a2 3e
       0.32672507 -0.002609693 -0.015322464 0.31716844
000160 f8 5f 89 3d b2 b3 12 3e ee 36 56 3e 69 39 b5 bd
       0.06707758 0.14326361 0.20919392 -0.08848841
000170 28 cf 0d 3e 07 2e 1f be 58 26 8e 3e 01 47 80 3d
       0.13848555 -0.15544902 0.2776363 0.06263543
000180 65 14 30 be d0 31 8d be 54 54 a9 bd 51 40 1d 3e
       -0.1719528 -0.27577066 -0.082680374 0.15356566
000190 f6 88 60 bc 7d be ef bd d7 df 12 3e b7 b9 75 3a
       -0.013704529 -0.11706255 0.143432 0.0009373682
0001a0 9a f2 0f 3d 88 d6 71 3d 95 1b 2a 3e 75 59 31 bd
       0.035143472 0.059042484 0.16612084 -0.043298203
0001b0 40 76 ad 3e 1f ca e1 3e 20 ba fa 3e 38 7f 89 3e
       0.3387928 0.4409952 0.48970127 0.26854873
0001c0 6f 04 b3 3d 7c 43 f9 3b 53 04 7e 3e 09 b0 ba 3e
       0.0874108 0.0076069217 0.24806337 0.3646243
0001d0 ad e5 9e be 65 4c ab 3e 21 0b 03 3e 58 e7 4f 3e
       -0.31034604 0.33456722 0.12797214 0.20303094
0001e0 c4 8a d7 3d 78 69 b6 3d 1b c7 76 3e f2 2a 14 bd
       0.10524514 0.08906835 0.2409939 -0.03617377
0001f0 b3 f0 7e 3e 38 f7 0b 3e 51 b8 a1 3d 9f 68 32 3e
       0.24896507 0.13668525 0.07896484 0.17422722
000200 f1 55 ba 3d a0 13 cc bc 98 a9 29 3e 17 ed 2c 3e
       0.09098423 -0.024911702 0.16568601 0.16887318
000210 a8 1c bf bb 2b 72 7b bd 70 36 0f 3e 54 a5 de bd
       -0.0058322735 -0.061388176 0.1398561 -0.108713776
000220 90 30 97 bd 81 05 3a 3e 6a b3 11 bd a6 54 a8 bd
       -0.073823094 0.18166162 -0.035571493 -0.082192704
000230 88 5b 66 bb 91 63 05 bd 4f 3c 37 3e f6 2b 0d 3c
       -0.0035149772 -0.032565657 0.178941 0.008616438
000240 ca d6 96 3d fa e3 e4 3c ef 63 89 be 12 6c 8c 3d
       0.073651865 0.027940739 -0.26834056 0.0685655
000250 d2 43 42 be f3 87 fc 3b 77 bf f7 bd d4 9d a7 bc
       -0.18971184 0.007706636 -0.12097066 -0.020461
000260 77 c8 43 3c 16 4c d5 bd 37 c6 1d be 27 74 63 3d
       0.01194965 -0.10414903 -0.15407644 0.055530693
000270 4b c0 8a bd 75 a6 d1 bd 23 e9 69 3d e6 d9 07 be
       -0.06774958 -0.10236827 0.057107102 -0.13266715
000280 60 6d 32 bd aa 8c e1 bd 86 3e 06 bd 72 ba 16 3d
       -0.04356134 -0.11013158 -0.03277447 0.0367989
000290 93 b1 aa bd ae a7 33 be 55 a2 16 be c0 a5 1c be
       -0.08334651 -0.17544433 -0.14710362 -0.15297604
0002a0 06 d8 94 be be f0 f8 bb ed c6 95 bb ab cb 00 3b
       -0.29071063 -0.007597058 -0.004570833 0.0019652646
0002b0 d8 e7 f8 3d 9d f0 00 be 2a d3 c9 bd 14 50 8f be
       0.12153596 -0.12591787 -0.098547295 -0.27990782
0002c0 67 5d f4 3c 9a c6 60 be 9f da c0 3d e3 e4 20 be
       0.029829694 -0.2195076 0.09416699 -0.15712313
0002d0 17 40 03 be 78 4d ec 3c 70 11 1e be 35 4f 77 bc
       -0.12817417 0.028845534 -0.1543634 -0.015094568
0002e0 af a6 b8 bd d7 9f 05 be fb c6 da 3d 10 e7 05 be
       -0.09016167 -0.13049255 0.10682484 -0.13076425
0002f0 91 b7 22 be 70 7d 48 bd 6f 1d 81 bd 5f d3 94 bd
       -0.15890338 -0.04894775 -0.06304442 -0.07266878
000300 83 0d d3 bc b5 ab b4 bc 83 70 41 bd 1d c4 99 bd
       -0.025763279 -0.022054533 -0.04722644 -0.07508109
000310 f1 f1 4e be 4e 5e 52 bd af ad 1c be f1 90 47 be
       -0.20209481 -0.051359467 -0.1530063 -0.19488885
000320 3a 19 45 3e 0d 0b 6d 3d 96 20 57 be f2 ff ea 3d
       0.19247904 0.057871867 -0.21008524 0.11474599
000330 4c 32 5a be 36 d6 0c be 77 75 5e 3c eb d8 4b bd
       -0.21308249 -0.1375359 0.0135778105 -0.049767416
000340 e0 34 fc bd 7e bc 16 be 6d 9e db bc 39 4c ea bd
       -0.123147726 -0.14720342 -0.026808942 -0.114403196
000350 1c 19 cb 3d d4 d8 15 39 75 06 2d be c6 58 5b 3e
       0.099168986 0.00014290522 -0.16896994 0.21420583
000360 42 32 36 3c 87 c8 87 be 67 ef ed bc 99 5d 66 3e
       0.011120381 -0.26520178 -0.02904482 0.22496642
000370 92 cb 5f be 30 e3 9b bd 3c fa 77 be 10 ad 89 bc
       -0.21855 -0.07611692 -0.2421655 -0.016806155
000380 6a 63 4b bd ce 80 82 be e6 84 13 be c2 52 86 bd
       -0.049655356 -0.25488895 -0.14406165 -0.065587536
000390 d0 55 1f bc 9a 3d 50 bd b6 8c 2a bd 01 cc e5 bd
       -0.009725049 -0.050839998 -0.0416381 -0.11220551
0003a0 9b 7e 61 3e 5b f6 29 3e c7 f7 0f 3e e8 b1 48 3d
       0.22020952 0.16597883 0.14059363 0.04899779
0003b0 23 be 1b be aa 9c 8a be b3 ff 2e 3c bf 2f 0d 3e
       -0.1520925 -0.2707265 0.010681081 0.13787745
0003c0 b7 a0 37 be c2 71 89 bd 47 3a a5 3c 87 3e 7e be
       -0.17932402 -0.06711151 0.02016939 -0.2482854
0003d0 10 28 bf ba d6 1f a1 bb f4 8b f7 bd 2b d7 5b be
       -0.0014584083 -0.004917125 -0.12087241 -0.21468799
0003e0 32 4a 9d be 21 16 83 3d 07 85 19 be 6c c7 86 3d
       -0.3072067 0.06400705 -0.14992152 0.065810055
0003f0 de 51 ff bc d9 8d bf bd 02 fd 38 be 9c 44 54 be
       -0.031166967 -0.09353227 -0.18065265 -0.20729297

group1.group.1.block1.1.weight f4 [16]
000000 9c 89 86 3f 13 68 69 3f 1a 38 41 3f cc 37 73 3f
       1.0510745 0.9117443 0.7547623 0.95007014
000010 4e 28 64 3f 8f bc 73 3f 53 41 72 3f 86 9a 59 3f
       0.89124 0.9520959 0.94630927 0.8500141
000020 ba d8 74 3f 53 66 72 3f 00 df 8d 3f 1c 20 73 3f
       0.956432 0.94687384 1.1083679 0.9497087
000030 e1 3e 71 3f e3 d6 76 3f a7 c4 71 3f 26 ab 23 3f
       0.9423657 0.9642164 0.9444069 0.63933027

group1.group.1.block1.1.bias f4 [16]
000000 28 fb a1 3e 0d 61 83 bd d9 6c b4 bd 2d 96 83 bd
       0.3163693 -0.06414995 -0.088098235 -0.06425128
000010 58 21 5e 3e 0e 0a 05 3d c5 7c 8a bd 00 9e 18 be
       0.21692407 0.032480292 -0.06762079 -0.14904022
000020 17 ed 2c 3d 8b e2 5f 3e f6 ba de 3e 88 8c a3 bd
       0.042218294 0.21863763 0.43502015 -0.079857886
000030 e9 df 86 bd 42 ef 65 bc bb 64 bc bd 16 f6 c9 3e
       -0.06585676 -0.014034094 -0.091989 0.3944556

group1.group.1.block1.1.running_mean f4 [16]
000000 ef 3a c0 3d 9c 8d ad bc ae 3a 89 bd f2 29 64 3d
       0.09386241 -0.021185689 -0.067006454 0.055704065
000010 e3 82 cf bd 88 0b b2 3d 4b c2 96 3c d2 ea e4 be
       -0.101323865 0.08693606 0.018403193 -0.44710404
000020 5d 23 d9 bd 10 5a ef bc 3e 05 e8 3d 22 99 b0 3d
       -0.10602448 -0.02921775 0.11329125 0.08622958
000030 1c 24 c3 bb e9 91 b6 3d b8 ff 6e 3d 95 08 0a be
       -0.0059552323 0.08914549 0.05834934 -0.13479836

group1.group.1.block1.1.running_var f4 [16]
000000 10 a2 8a 3f 29 02 8e 3f cf 11 98 3f 13 f6 84 3f
       1.0830708 1.1094409 1.1880435 1.0387596
000010 00 23 89 3f 37 da 8b 3f 3c 04 a3 3f f1 2f b6 3f
       1.0713806 1.0925969 1.2735667 1.423338
000020 4e 72 8c 3f 15 a4 8c 3f c7 8c 81 3f f5 6f 9a 3f
       1.0972383 1.0987574 1.0121087 1.2065417
000030 f9 08 90 3f 75 b6 82 3f cc 04 7e 3f f0 22 7d 3f
       1.1252738 1.0211931 0.9922607 0.98881435

group1.group.1.block2.0.weight f4 [16, 16, 3, 3]
000000 5a 37 4c be b5 ce 9c bd 9d 7d 81 be 1f 31 56 3d
       -0.1994299 -0.07656614 -0.25291148 0.05229294
000010 89 74 88 3c 34 4a 00 be ae d0 79 3c f3 ae af 3c
       0.01665713 -0.12528306 0.015247507 0.021445727
000020 01 4d 75 bc cb 2a 8f bd 6a 13 b1 3c eb cc ae be
       -0.014971972 -0.06990584 0.021615703 -0.34140715
000030 ac b6 c0 bd 2c 45 38 be e9 82 24 bd 67 d5 43 be
       -0.09409842 -0.17995137 -0.04016391 -0.19124375
000040 06 16 94 bd fc b1 f5 bd ed f8 9b 3c 1d da 99 bd
       -0.07230763 -0.119968385 0.019039595 -0.07512305
000050 cc e7 98 3b 50 b0 11 bd cf a5 97 be b7 08 a8 bd
       0.004666304 -0.035568535 -0.2961869 -0.08204787
000060 dd 0c c2 bd f5 62 4a bd 0b f9 e2 bd 92 96 d9 3d
       -0.0947511 -0.04941078 -0.110826574 0.10624422
000070 8e 3d fa 3d 24 da 18 3e 56 bc 13 be 1a f4 c8 bc
       0.12218772 0.14926964 -0.14427313 -0.02453046
000080 f9 c2 73 3e a7 2b d2 bc be 94 02 be 9a 20 06 be
       0.23804845 -0.02565558 -0.12752053 -0.13098374
000090 fd a9 72 bd 31 b8 f9 3c d8 9c 02 be ed cc 92 be
       -0.059244145 0.030483337 -0.12755144 -0.2867197
0000a0 62 e0 8a 3c 8f 84 79 3b 8b 5e 36 bc 3e d1 cd bc
       0.016952697 0.0038073396 -0.011130939 -0.025124189
0000b0 eb b2 40 be 56 42 9b bd 1f a4 a7 bd 24 66 8e be
       -0.18818252 -0.07581012 -0.081856005 -0.27812302
0000c0 01 13 0d be 5e e1 d6 bd e9 d1 65 be 7a 92 b2 bc
       -0.1377678 -0.10492204 -0.22443356 -0.021798361
0000d0 17 1b ed bd ff 18 2f be 9d 66 17 be 59 20 ed bc
       -0.115774326 -0.17099379 -0.14785238 -0.028946089
0000e0 8f bb b2 3d 86 2e c5 bc 72 ca 3c be 3a 57 9c 3d
       0.0872718 -0.024070036 -0.18436602 0.07633825
0000f0 5b 8e 49 3d 7e 89 17 3e dd 6d 08 bc 88 f2 03 3e
       0.049208026 0.14798543 -0.008326975 0.12885487
000100 e1 94 72 bd cc 99 de 3d c8 b8 35 be 3e c9 32 be
       -0.059224013 0.10869178 -0.1774627 -0.1745958
000110 73 7d 7c 3d 81 a4 0b 3e 8b 4f f5 3d d0 5d 62 3d
       0.061643075 0.13636972 0.11978062 0.055265248
000120 5f 80 a4 bd ac 20 50 be e1 af 36 3d 65 c7 83 3c
       -0.08032297 -0.20324963 0.044601325 0.01608629
000130 5d 92 67 3e 63 9f 5b be 4f f6 98 3c 35 04 41 bd
       0.22614427 -0.2144752 0.018672137 -0.047123153
000140 2e 65 56 be 1e 86 c7 3d bd ae 68 3d 8e 5a b7 bc
       -0.20937034 0.09742378 0.05680727 -0.022382047
000150 47 12 62 be 41 27 88 bd ea 86 65 bd 33 f5 58 3c
       -0.22077285 -0.06648112 -0.056036867 0.013242054
000160 b5 25 0c bc 08 3f 07 3e 18 5c 9c bd 81 d4 d0 3d
       -0.008553912 0.13207638 -0.07634753 0.10196782
000170 00 e4 40 be 21 a2 93 bd db a4 e1 3a 1e 7e c5 bd
       -0.18836975 -0.07208658 0.0017215268 -0.096431956
000180 cb 5d 12 be 65 73 15 3d a5 7e 10 be bd 22 8f be
       -0.14293592 0.036487002 -0.14110811 -0.2795619
000190 d6 5c 59 be 00 c4 d1 bc 88 54 4b ba 29 45 be bc
       -0.2122682 -0.025606155 -0.00077564316 -0.023226338
0001a0 c1 23 22 bc 18 25 72 3d 09 7f 50 3e 93 57 a6 be
       -0.00989622 0.059117407 0.2036096 -0.3248869
0001b0 24 aa 70 be 57 8e 0f be b0 45 0f be 9b 78 c8 bd
       -0.23502403 -0.14019142 -0.13991427 -0.09788629
0001c0 37 e2 dd bd ea df f1 bd 23 b4 d3 bd c9 8b 18 be
       -0.10834163 -0.11810286 -0.10337093 -0.14897074
0001d0 e5 15 c7 bd d5 19 0e be fa d9 e9 bd 97 82 e6 bd
       -0.09720973 -0.13877042 -0.11418529 -0.11255377
0001e0 45 73 f9 bc 8d 7b c4 3d be 53 52 be bb df 54 be
       -0.030450473 0.09593878 -0.20539758 -0.20788471
0001f0 81 7f 81 be 32 1e 92 bd 7c d7 ca bd bd 3b d8 39
       -0.2529259 -0.071346655 -0.09904382 0.0004124324
000200 47 88 c9 be e5 15 9f bd 79 6c ce bd f2 e4 83 3d
       -0.39361784 -0.07767848 -0.10079283 0.06440152
000210 81 8f 81 3d ae 08 a3 3e 59 e8 85 3c 22 b3 d6 bd
       0.06326199 0.3184256 0.016346144 -0.104833856
000220 dd 61 fc bb a8 b6 b0 bd 9f c7 c9 bb 27 5e 6a bd
       -0.007702096 -0.08628589 -0.00615783 -0.057218697
000230 29 13 89 bb 3d 48 93 bd d6 61 f5 3c e0 7d f7 bd
       -0.0041831923 -0.07191513 0.029953878 -0.120845556
000240 2c f8 8d bd 6b 3d 94 3b 95 f9 f5 bc 93 8f 67 bd
       -0.06932101 0.004523923 -0.030026237 -0.056533407
000250 cc 47 09 3d aa bc 5b 3d 55 17 f8 bb 0e a3 ab bd
       0.033515736 0.05364672 -0.007571141 -0.083807096
000260 89 55 de bd a8 83 3b be 0e 07 5d 3d 2f 8f 9e 3d
       -0.10856158 -0.18311942 0.053961806 0.07742154
000270 4b b0 8b bd 04 49 25 3d ba ea 57 be cd 50 58 3e
       -0.068207346 0.040352836 -0.21085635 0.21124573
000280 88 f5 03 3e c9 67 6d 3e 60 fe 2d 3e 41 73 54 bd
       0.12886631 0.23184122 0.16991568 -0.051867727
000290 00 35 9c be b4 56 64 3c 1b 2a 26 be 26 ca 61 3c
       -0.30509186 0.013936687 -0.16227 0.013781106
0002a0 87 81 b5 be f1 ca 16 be 87 dc 01 be 5c ab b0 3c
       -0.35450384 -0.14725854 -0.12681781 0.021566086
0002b0 35 38 3d 3d 5d e7 43 be 6b 08 5c be 48 11 4a be
       0.04619618 -0.19131227 -0.21487586 -0.19733155
0002c0 83 4b 2d be 10 0e f2 3d a8 c0 7b bd d8 54 0c be
       -0.16923337 0.118190885 -0.06146303 -0.1370424
0002d0 18 6d 68 3d 04 d9 1a 3c e1 61 92 bc 67 b5 f9 3d
       0.056744665 0.009451155 -0.017868938 0.12192803
0002e0 ae 40 eb be 3f 3f 4b 3d c3 07 d7 3d 1b 7e 7b 3d
       -0.45947784 0.049620863 0.10499527 0.06139956
0002f0 c7 9d 43 bd 90 ac 1a be 0e 1d 22 3e ff da b7 3d
       -0.04775789 -0.1510489 0.15831396 0.08977317
000300 d5 50 51 be 4f 02 e7 bd 92 db 5a be 40 e2 bc 3c
       -0.20440991 -0.11279737 -0.21372822 0.023057103
000310 75 87 bb 3d 14 50 e4 3d 5d ba 0d 3e 83 14 00 3e
       0.09156696 0.11148086 0.13840623 0.12507825
000320 c2 b4 d3 3d 33 f9 8e 3e 2f 52 97 3c e0 32 56 bd
       0.10337211 0.279245 0.018471805 -0.052294612
000330 41 90 88 bd ca 43 f6 3d 91 63 09 3e b8 2e 1a 3e
       -0.06668139 0.120246485 0.13416888 0.15056884
000340 c1 5f 2e bd 7e 17 a2 3d 92 4a 93 be 30 ec 08 3e
       -0.042571787 0.07914637 -0.2876783 0.13371348
000350 d2 d6 b3 3c b5 bc a1 bc 17 6a b5 3d f7 3f 47 be
       0.02195302 -0.019743303 0.08858126 -0.19457994
000360 08 81 13 be 92 7d 37 3e 22 ab 2c be 01 1b db bd
       -0.1440469 0.17918995 -0.16862157 -0.1069851
000370 a4 d6 01 be b9 f0 be bc 4e 53 43 be 39 8e 07 be
       -0.12679535 -0.023308145 -0.19074747 -0.13237847
000380 27 a5 cd bd 2a 9c 59 bd 22 73 d1 3c d3 0f 77 be
       -0.10041266 -0.053127445 0.025567595 -0.2412713
000390 45 cf 92 bb fd 4a 0d be f0 09 c0 bd db 78 c0 3d
       -0.004480275 -0.13798137 -0.093768954 0.09398051
0003a0 68 30 00 bd 8b 4e 2d be 0c f9 40 be e1 0f 08 be
       -0.031296164 -0.16924493 -0.18845004 -0.13287307
0003b0 94 38 a3 bd 8f fc ee bd 8c aa 61 3d 2b 52 4e be
       -0.07969776 -0.116692655 0.055094287 -0.20148532
0003c0 4b d5 7b be 76 77 1c be c6 60 16 be 2f 0d 43 bd
       -0.24593084 -0.15279946 -0.14685354 -0.047619995
0003d0 1c 4e 2e be 5c 65 14 bd 84 8f 33 be 62 21 63 3e
       -0.17021984 -0.036229476 -0.17535216 0.22180703
0003e0 39 ad 8a 3d ed 74 11 be a0 35 23 be e5 85 1e 3c
       0.06771321 -0.1420476 -0.15938425 0.009675478
0003f0 fa ec 59 3e 2f 2a 87 3d c5 d0 21 bc 9a eb 55 3c
       0.21281806 0.06599843 -0.009876435 0.01305666
