04_cnn/4_vgg_net.pth (torch_old, 182960 bytes, 32 tensors)

conv1_1.weight f4 [16, 1, 3, 3]
0.37996346 -0.7547551 -0.27791646 0.83236426 -0.29211864 -0.055259973 0.86825055 -1.0669383
0.10256782 0.051609382 0.12605254 -0.22313765 0.4164474 -0.00410314 0.018889401 -0.049468234
-0.26842996 0.2625707 0.51978976 -0.5663356 0.9605905 2.1285386 -0.89172834 1.0616983
0.43805212 -1.8743811 0.01587478 0.96133274 0.3572886 0.2692268 -0.11812018 1.099063
-0.8414902 -1.0955905 1.3842684 0.33898088 0.33344495 0.6823009 0.38054574 -0.82930464
-0.38691327 0.18898357 -1.90042 -1.7584156 -0.7528796 1.2547375 0.7311254 -0.1876624
0.15183409 -0.88135207 -1.7309432 -0.050185997 1.2394564 -0.5192944 -0.22262196 0.71087235
-0.2441298 -0.21380527 0.6956377 -0.35964248 0.18252255 0.4037069 -0.735441 0.76491535
-0.4150871 -1.1876788 0.1631978 -0.10669091 -1.6508714 1.9044999 1.0531948 -0.3625629
0.69768834 0.0137826055 -0.42355537 0.2908807 2.11442 -1.7259693 -0.57511425 1.3022763
-1.3676567 0.459279 -0.6993216 0.29677984 -0.3604653 -1.8406326 -0.304478 -0.31444865
-2.3605049 -0.51411253 0.018768063 0.91320485 0.6097895 -1.978349 0.20114763 -0.07396105
-0.037096865 -0.018019512 0.7419661 -0.12761083 -1.0049341 -0.04554769 1.2937723 0.8971333
0.5566174 -0.09154138 1.1168978 -0.025609642 -0.53495103 0.21286918 -0.38077196 0.42398876
0.019577347 0.27920827 0.13753086 -0.16681406 -0.6427246 0.7435402 2.5253763 0.9964331
-0.37074372 -0.58545196 0.19300255 -1.4622065 -1.5458235 -0.6436381 0.8270274 -0.597478
-0.73971885 1.4749572 -0.5749885 -1.0078717 1.3752317 0.08096579 0.49665362 -0.954205
0.6096219 0.33310992 -1.996239 0.85557854 0.12109459 -0.23142171 0.65637743 0.5512277
00000000: 928a c23e a137 41bf 114b 8ebe d315 553f
00000010: 9390 95be 4858 62bd ab45 5e3f 6f91 88bf
00000020: 140f d23d 5c64 533d eb13 013e 327e 64be
00000030: 9838 d53e a273 86bb f2bd 9a3c 349f 4abd
00000040: a76f 89be ab6f 863e f110 053f 5ffb 10bf
00000050: 42e9 753f fa39 0840 4f48 64bf bbe5 873f
00000060: 5e48 e03e b8eb efbf d40b 823c e719 763f
00000070: 88ee b63e 18d8 893e fee8 f1bd 19ae 8c3f
00000080: e76b 57bf 4f3c 8cbf b52f b13f e78e ad3e
00000090: 4cb9 aa3e 46ab 2e3f e4d6 c23e 4f4d 54bf
000000a0: 7f19 c6be e984 413e f640 f3bf c313 e1bf
000000b0: b8bc 40bf 3d9b a03f 092b 3b3f 922a 40be
000000c0: 657a 1b3e 4aa0 61bf 8c8f ddbf d58f 4dbd
000000d0: 82a6 9e3f 7af0 04bf 03f7 63be bbfb 353f
000000e0: 2afd 79be c5ef 5abe 5015 323f 0f23 b8be
000000f0: 31e7 3a3e acb2 ce3e dd45 3cbf 7ed1 433f
00000100: 4c86 d4be dc05 98bf 531d 273e c480 dabd
00000110: c14f d3bf a7c6 f33f 16cf 863f d8a1 b9be
00000120: b49b 323f 70d0 613c 40dc d8be 51ee 943e
00000130: a852 0740 90ec dcbf b03a 13bf fdb0 a63f
00000140: 600f afbf 9e26 eb3e be06 33bf 87f3 973e
00000150: e88e b8be d999 ebbf 8ae4 9bbe 6aff a0be
00000160: 8312 17c0 e19c 03bf 7bbf 993c cbc7 693f
00000170: 2a1b 1c3f 8a3a fdbf a5f9 4d3e e478 97bd
00000180: e2f2 17bd a89d 93bc 7ef1 3d3f 6aac 02be
00000190: aea1 80bf 3790 3abd 559a a53f 87aa 653f
000001a0: 7a7e 0e3f 0c7a bbbd 82f6 8e3f 50cb d1bc
000001b0: 8df2 08bf 61fa 593e 8bf4 c2be 0e15 d93e
000001c0: ac60 a03c 63f4 8e3e e4d4 0c3e 4ed1 2abe
000001d0: 9989 24bf a758 3e3f c49f 2140 3d16 7f3f
000001e0: 1fd2 bdbe 2ee0 15bf 76a2 453e 9529 bbbf
000001f0: 8bdd c5bf 77c5 24bf 11b8 533f 51f4 18bf
00000200: 375e 3dbf 66cb bc3f 7232 13bf f101 81bf
00000210: 9807 b03f 64d1 a53d 6249 fe3e c746 74bf
00000220: 2e10 1c3f 628d aa3e c284 ffbf 3207 5b3f
00000230: 7100 f83d d0f9 6cbe 5a08 283f 421d 0d3f

conv1_1.bias f4 [16]
-2.0837307 -2.7123654 -0.627468 -1.3706998 -1.574876 -0.9345653 -1.6659713 -1.3678538
0.26840594 -2.8090463 -1.3503383 1.1676754 -1.9936603 -1.0216249 -1.7647115 -0.6112968
00000000: d85b 05c0 6597 2dc0 bea1 20bf 1773 afbf
00000010: 8995 c9bf ac3f 6fbf 8c3e d5bf d515 afbf
00000020: 816c 893e 6ac7 33c0 e3d7 acbf 6376 953f
00000030: 4330 ffbf 9bc4 82bf 11e2 e1bf f27d 1cbf

batchnorm_16.weight f4 [16]
0.24299423 0.20698506 0.24115574 0.4202758 0.234989 0.33137482 0.49850297 0.31634897
0.42226174 1.2801889 0.35510314 0.3304472 0.26786932 0.32022345 0.2677744 0.23251262
00000000: 7bd3 783e e4f3 533e 88f1 763e 642e d73e
00000010: f5a0 703e f6a9 a93e c83b ff3e 7ef8 a13e
00000020: b132 d83e 3bdd a33f 14d0 b53e 6030 a93e
00000030: 2b26 893e 54f4 a33e ba19 893e ca17 6e3e

batchnorm_16.bias f4 [16]
0.033062942 0.44287682 0.1354263 -0.7110709 0.050767347 0.07079664 0.0066514164 0.099683575
0.40466455 -1.941235 0.0029057139 0.6699541 0.13387702 0.18738374 -0.17660105 0.023199694
00000000: 026d 073d c0c0 e23e 31ad 0a3e be08 36bf
00000010: 6cf1 4f3d d4fd 903d 20f4 d93b e726 cc3d
00000020: 3130 cf3e 637a f8bf ca6d 3e3b 1d82 2b3f
00000030: 0f17 093e 86e1 3f3e e8d6 34be 490d be3c

batchnorm_16.running_mean f4 [16]
-0.04809937 -0.05052816 -0.013393454 -0.040459834 0.121005975 -0.0031673468 0.07724263 0.03543952
-0.0024172135 -0.011738641 0.019137979 0.06064364 0.039645977 -0.023555176 0.033617456 0.058793142
00000000: d803 45bd 9ef6 4ebd 3870 5bbc 36b9 25bd
00000010: fbd1 f73d 4393 4fbb 6231 9e3d 0829 113d
00000020: 1d6a 1ebb 6e53 40bc 40c7 9c3c 7765 783d
00000030: d263 223d c9f6 c0bc 75b2 093d 14d1 703d

batchnorm_16.running_var f4 [16]
0.72488165 0.7369015 0.6873507 0.7319152 0.68956935 0.69697577 0.69558364 0.7000071
0.707781 0.72873276 0.69490916 0.68277824 0.6945068 0.7024488 0.6866114 0.6897491
00000000: d891 393f 94a5 3c3f 37f6 2f3f cb5e 3b3f
00000010: 9e87 303f 016d 323f c511 323f aa33 333f
00000020: 2331 353f 3b8e 3a3f 91e5 313f 8eca 2e3f
00000030: 33cb 313f afd3 333f c4c5 2f3f 6693 303f

conv1_2.weight f4 [16, 16, 3, 3]
-0.69721717 -0.60220194 -0.56242347 -0.40659502 -0.5724453 -0.5169886 -0.57725865 -0.49962008
-0.40177256 -0.11984403 -0.026948363 -0.1280355 -0.07551322 -0.072257824 -0.14964278 -0.18947622
-0.05972962 -0.03412933 -0.3104125 -0.4691224 -0.28226236 -0.2771773 -0.4075357 -0.06274101
-0.6318182 -0.54737145 -0.19836283 0.013637269 -0.100165 0.08534388 -0.04114332 -0.09240683
-0.0707435 0.03788652 -0.017481606 0.071863525 -0.31323633 -0.27335572 -0.38950184 -0.38835964
-0.31751785 -0.40466765 -0.3537226 -0.28489622 -0.22300345 0.22277948 0.35836077 0.011482672
-0.165144 -0.036311813 -0.23144157 -0.116083525 -0.07715773 -0.35822645 -0.29052356 0.094887614
-0.29980782 0.13901134 0.27752477 -0.28336087 0.40289056 0.27329287 0.037196934 -0.17838256
0.0013811964 -0.089343555 -0.07642059 0.09328484 0.060038656 -0.035481345 -0.027187988 -0.061586384
-0.5301527 -0.35603902 -0.44348264 -0.35107854 -0.2800368 -0.4176733 -0.41044065 -0.3746269
-0.47083634 -0.291207 -0.43217054 -0.49468485 -0.070828065 -0.11572786 -0.20504463 -0.28841594
-0.24961501 -0.28256717 0.119894885 0.011004132 0.16747883 -0.2822258 -0.17880394 -0.13165306
-0.25241148 -0.3244859 -0.21970241 -0.6968225 -0.7173592 -0.7510261 -0.7585925 -0.7169409
-0.78296113 -0.40582675 -0.5099476 -0.47623453 -0.05234722 -0.03146421 -0.14156929 -0.055991843
-0.052134596 -0.07301566 -0.0690449 0.006208682 -0.04146604 0.037896864 0.09457399 0.098758265
-0.58367103 -0.40545934 -0.32218593 -0.21247785 -0.15669985 -0.020081302 -0.18417582 -0.38906616
0.025083955 -0.13075848 -0.12146209 0.07212735 -0.039029505 -0.40376183 0.02899622 -0.102136604
-0.4105575 -0.3695388 -0.24648222 -0.45954067 -0.5305 -0.5172453 -0.59263754 -0.5576411
0.4270167 0.1726055 -0.9735243 0.40324414 0.4781501 -0.9521051 0.6365969 0.3183069
-0.8406857 -0.71860856 -0.44679186 -0.098315425 -0.6751683 -0.4275288 -0.2068591 -1.0378278
-0.46195424 -0.5440245 0.6669852 0.427477 0.563294 0.8851406 -2.5883205 1.3015244
0.65829796 -1.5193502 -0.030284107 -0.32737553 1.6673205 0.48052648 -0.7741234 1.7174759
0.5678028 -1.3129777 0.1910282 1.1082951 0.49157727 -0.8597201 -1.2551715 2.2768118
0.22473545 -1.1839833 0.9853732 0.2537342 -1.0561665 -1.091914 -1.4724909 -0.1918302
0.8179926 0.54366857 -0.35152072 1.1221383 -1.1813666 -0.89967334 0.32058576 -0.0063184416
0.57808816 -0.0051977597 -0.8974391 -0.1495063 0.02533032 -1.225207 -0.7327961 -1.1052372
-3.3707106 -1.2784953 -0.7920067 -2.8020473 -1.1046889 -0.30109978 -0.3884749 -1.6520329
-1.1884221 0.5237231 0.9386047 -3.0928988 1.5152485 0.64017355 -2.2107143 0.058987375
0.28201184 0.45982552 -1.3822006 -0.13392136 1.2782677 -1.1270723 0.28547436 1.6202484
-1.6318837 -0.5609539 0.7124001 -0.04220025 -0.3990689 0.7401953 0.5860887 -0.8343489
1.1543088 0.86718404 -0.20530634 -0.27667084 0.7439558 0.831607 -1.1020796 -0.13912731
0.7553462 -0.31851146 -0.35232753 1.111434 0.47502714 0.8576439 -0.1256526 0.17948768
00000000: d37c 32bf e829 1abf fcfa 0fbf 392d d0be
00000010: c68b 12bf 5d59 04bf 39c7 13bf 34ce ffbe
00000020: 22b5 cdbe c970 f5bd d0c2 dcbc bd1b 03be
00000030: ada6 9abd e9fb 93bd f53b 19be 0e06 42be
00000040: 0ca7 74bd 32cb 0bbd 63ee 9ebe d030 f0be
00000050: b184 90be 2fea 8dbe 85a8 d0be 5c7e 80bd
00000060: d6be 21bf 8920 0cbf a01f 4bbe da6e 5f3c
00000070: 4f23 cdbd c6c8 ae3d e685 28bd cb3f bdbd
00000080: f8e1 90bd e52e 1b3d 9635 8fbc 2f2d 933d
00000090: 8360 a0be 48f5 8bbe c96c c7be 13d7 c6be
000000a0: b391 a2be 9930 cfbe 211b b5be ebdd 91be
000000b0: 045b 64be 4e20 643e 107b b73e d121 3c3c
000000c0: 821b 29be b2bb 14bd 05ff 6cbe 33bd edbd
000000d0: df04 9ebd 7569 b7be 81bf 94be 7054 c23d
000000e0: 6980 99be fd58 0e3e ba17 8e3e ad14 91be
000000f0: ac47 ce3e 0bed 8b3e d05b 183d eba9 36be
00000100: 4309 b53a c1f9 b6bd 6682 9cbd 1f0c bf3d
00000110: 18eb 753d e354 11bd 58b9 debc 0142 7cbd
00000120: 16b8 07bf bf4a b6be 2810 e3be 91c0 b3be
00000130: fc60 8fbe 46d9 d5be 4725 d2be 19cf bfbe
00000140: 7611 f1be 1519 95be 7545 ddbe 5547 fdbe
00000150: 4e0e 91bd ba02 edbd 38f7 51be 41ab 93be
00000160: 149b 7fbe a5ac 90be 738b f53d ad4a 343c
00000170: 927f 2b3e e67f 90be 6118 37be 0fd0 06be
00000180: 143c 81be 0423 a6be abf9 60be f662 32bf
00000190: daa4 37bf 3f43 40bf 1e33 42bf 7089 37bf
000001a0: 2470 48bf 86c8 cfbe ed8b 02bf 03d5 f3be
000001b0: 0a6a 56bd 9ee0 00bd 8af7 10be b457 65bd
000001c0: 168b 55bd 3c89 95bd 6a67 8dbd 3372 cb3b
000001d0: 4bd8 29bd be39 1b3d 02b0 c13d c641 ca3d
000001e0: 776b 15bf 5e98 cfbe 8ef5 a4be cb93 59be
000001f0: ed75 20be 8b81 a4bc 9698 3cbe ae33 c7be
00000200: de7c cd3c 8de5 05be 1ec1 f8bd 81b7 933d
00000210: 67dd 1fbd dfb9 cebe 7b89 ed3c ff2c d1bd
00000220: 9834 d2be 3134 bdbe d665 7cbe ea48 ebbe
00000230: d9ce 07bf 306a 04bf 18b7 17bf 91c1 0ebf
00000240: efa1 da3e 7fbf 303e e338 79bf 0476 ce3e
00000250: 17d0 f43e 29bd 73bf 04f8 223f 1ff9 a23e
00000260: 2e37 57bf bbf6 37bf e7c1 e4be 9959 c9bd
00000270: d4d7 2cbf 0ee5 dabe dfd2 53be 8bd7 84bf
00000280: 4485 ecbe 3145 0bbf 8bbf 2a3f 44de da3e
00000290: 0934 103f 9398 623f 0ba7 25c0 5a98 a63f
000002a0: 3786 283f 117a c2bf 6016 f8bc c49d a7be
000002b0: c26a d53f 9107 f63e f32c 46bf 40d6 db3f
000002c0: 865b 113f a70f a8bf e59c 433e 9ddc 8d3f
000002d0: 04b0 fb3e 9e16 5cbf 76a9 a0bf 49b7 1140
000002e0: 0d21 663e c48c 97bf 6b41 7c3f 73e9 813e
000002f0: 7730 87bf d7c3 8bbf 957a bcbf 236f 44be
00000300: f767 513f dd2d 0b3f 86fa b3be 3aa2 8f3f
00000310: 0537 97bf fe50 66bf d123 a43e ee0a cfbb
00000320: 96fd 133f f851 aabb 92be 65bf 2e18 19be
00000330: 8881 cf3c 95d3 9cbf 8698 3bbf 6a78 8dbf
00000340: b9b9 57c0 bca5 a3bf f3c0 4abf be54 33c0
00000350: 7266 8dbf c029 9abe 2fe6 c6be d075 d3bf
00000360: 371e 98bf b812 063f 6648 703f 0ef2 45c0
00000370: aaf3 c13f 6ae2 233f 587c 0dc0 bf9c 713d
00000380: db63 903e 406e eb3e f3eb b0bf ae22 09be
00000390: 479e a33f e843 90bf b229 923e 4d64 cf3f
000003a0: 91e1 d0bf ad9a 0fbf da5f 363f 2bda 2cbd
000003b0: c252 ccbe 707d 3d3f e909 163f e497 55bf
000003c0: 64c0 933f c6ff 5d3f d33b 52be cda7 8dbe
000003d0: e373 3e3f 32e4 543f f210 8dbf 6477 0ebe
000003e0: 5e5e 413f ef13 a3be 4664 b4be 7843 8e3f
000003f0: c236 f33e 8d8e 5b3f 13ab 00be 9ecb 373e

conv1_2.bias f4 [16]
-0.696912 0.13961448 -0.51821953 -0.10470952 0.7610711 -0.29757357 0.80354166 0.42055568
-0.7935541 -0.028215906 -0.46943036 -1.0491551 0.7718791 -0.2741876 -0.0758055 -0.18314858
00000000: d368 32bf 19f7 0e3e 09aa 04bf f271 d6bd
00000010: 8ed5 423f 905b 98be e8b4 4d3f 1353 d73e
00000020: 5d26 4bbf 0b25 e7bc 2d59 f0be b74a 86bf
00000030: de99 453f 5162 8cbe ea3f 9bbd 4d8b 3bbe

conv1_3.weight f4 [16, 16, 3, 3]
-0.14942853 -0.20033698 -0.19800892 -0.2264678 -0.1774359 -0.2548864 -0.28233486 -0.20752579
-0.1256635 -3.555029 -2.122713 -0.36976936 -0.7049712 -2.6053438 -1.0360707 0.8412422
0.24546042 -0.881593 0.101950906 0.16575192 0.23892087 0.43704432 0.37156555 0.27422088
0.26839006 0.1685091 0.5669641 0.050666463 0.07607124 -0.08513897 -0.03718609 -0.115806654
0.040009893 -0.066183604 0.018301055 0.13558231 -0.23367353 -1.0651267 -1.5083358 -0.39231062
-0.7250614 -0.79981333 -0.44297826 -1.2685529 -0.47681952 -0.082683384 -0.3210909 0.016285446
-0.04253382 0.07403435 0.07242791 0.09856821 -0.019816294 -0.01592754 -0.6833802 -0.82394326
-0.49118957 -0.07899679 -2.4193594 0.8833246 -0.5731692 -1.8152758 1.2738049 -0.53070974
0.30738544 1.7714676 -2.5583282 -2.21427 -0.5544378 -2.4677405 -1.03676 -1.4482844
-0.07938436 -0.24868497 -0.098180614 0.14471498 0.14250757 -0.2581731 -0.7873443 -0.8276269
-0.69875723 0.06004142 -0.1245282 -0.1237652 0.059946943 -0.090756096 -0.0777934 -0.0036607606
0.07302289 -0.08092516 -0.111452624 -0.094742365 0.06543506 -0.0952345 -0.0051882407 0.19759354
-0.077228166 -0.066308066 -0.036748555 -0.51987433 -0.5102431 -0.10104076 0.059927743 -0.15079287
0.45332634 0.5155255 -0.06380315 0.15962227 0.04477882 0.6866473 0.6528689 0.9689346
1.8176119 1.8521633 -0.9488443 -0.563233 0.38738465 -0.3765163 -0.22043584 -0.47685975
0.035116695 -0.09216769 -0.30425283 -0.26356512 -0.32950386 -0.47108153 -0.09951497 -0.09179973
-0.09137547 0.027915994 0.051010948 0.022182304 -0.13282135 -0.011921081 -0.13031448 -0.03326366
-0.14263175 -0.25309113 -0.1109111 0.021665655 -0.25630337 -0.004135744 0.2649572 -0.08519664
-0.35945773 -0.017624654 -0.18555743 -0.026366524 0.14653458 -0.14157306 -0.12882105 0.06496459
-0.051747 -2.4924424 -1.166294 -2.06595 -2.1673696 -0.84703654 -1.6707588 -2.2602646
-0.4379912 -2.51665 -0.37397328 -0.354674 -0.39533675 -0.33136025 -0.41494665 -0.40398887
0.33490422 -0.30163434 -0.16863564 -0.00997144 -0.018715974 -0.052911516 0.016413903 0.0652074
-0.022189585 -0.10977593 -0.10873906 -0.056121714 0.3876586 -1.8531914 -1.9697733 0.20757061
-2.5193434 -1.3763088 0.16589287 -1.9419091 -3.7072246 -0.13578229 0.03994562 -0.1091083
0.00029834383 -0.13304895 0.0022792877 -0.013549957 -0.021487068 0.09924129 -1.4047918 -1.5858341
-1.2721198 -2.2067802 -0.08976604 -1.7335402 -2.280717 0.11795729 -1.1927 -1.5369215
0.3842627 -2.0036619 -2.0600843 0.7246987 -1.1482302 -1.5016739 -0.22424167 -1.4396975
-0.10969176 -0.0044936575 -0.0740055 -0.009590371 -0.040485777 0.012565808 -0.06693262 -0.088109784
0.18379751 0.09742735 0.06048031 0.03508228 -0.0077097467 -0.16498235 -0.06024825 -0.057860557
-0.105303206 -0.02235809 -0.038815133 0.053505074 0.05749403 -0.00828312 0.0013289017 0.13375556
-0.09535558 -0.08528629 0.04583805 -0.8962588 -0.43009382 0.7876131 -0.21304512 -0.055476803
0.12592305 -0.9870578 0.8348325 -0.48908862 -1.1436694 -0.52625567 -0.53035027 -0.96145695
00000000: cb03 19be 2325 4dbe dac2 4abe 2de7 67be
00000010: c2b1 35be 7880 82be 328e 90be a481 54be
00000020: efad 00be 9885 63c0 88da 07c0 6952 bdbe
00000030: fe78 34bf f4bd 26c0 f79d 84bf a65b 573f
00000040: fa59 7b3e 14b0 61bf a3cb d03d dfba 293e
00000050: aca7 743e 46c4 df3e d73d be3e ae66 8c3e
00000060: 6c6a 893e a68d 2c3e 8f24 113f a387 4f3d
00000070: 3dcb 9b3d 575d aebd 7150 18bd 0a2c edbd
00000080: 6ae1 233d 458b 87bd 18ec 953c 17d6 0a3e
00000090: 1d48 6fbe 1256 88bf 2611 c1bf f0dc c8be
000000a0: a09d 39bf 91c0 4cbf 0cce e2be f15f a2bf
000000b0: b021 f4be e855 a9bd 0766 a4be 0e69 853c
000000c0: f137 2ebd 529f 973d 1655 943d 21de c93d
000000d0: c855 a2bc 797a 82bc 01f2 2ebf f2ed 52bf
000000e0: 337d fbbe 12c9 a1bd c9d6 1ac0 9021 623f
000000f0: 37bb 12bf f55a e8bf 0a0c a33f 98dc 07bf
00000100: a061 9d3e 73bf e23f a6bb 23c0 9ab6 0dc0
00000110: a3ef 0dbf 76ef 1dc0 8db4 84bf 6261 b9bf
00000120: 4494 a2bd 46a7 7ebe eb12 c9bd 2a30 143e
00000130: 81ed 113e 442f 84be 658f 49bf 5bdf 53bf
00000140: c1e1 32bf feed 753d a408 ffbd 9c78 fdbd
00000150: ed8a 753d 55de b9bd 2552 9fbd 5fe9 6fbb
00000160: 068d 953d 17bc a5bd 4641 e4bd 4908 c2bd
00000170: d102 863d 4e0a c3bd 1e02 aabb f655 4a3e
00000180: cd29 9ebd 86cc 87bd a785 16bd 7c16 05bf
00000190: 4b9f 02bf 75ee cebd cb76 753d 7269 1abe
000001a0: 641a e83e 7bf9 033f 3aab 82bd 0574 233e
000001b0: ff69 373d 1ec8 2f3f 6b22 273f 190c 783f
000001c0: 82a7 e83f b013 ed3f 76e7 72bf 0a30 10bf
000001d0: 4857 c63e bfc6 c0be efb9 61be f626 f4be
000001e0: 86d6 0f3d 6ac2 bcbd 07c7 9bbe 02f2 86be
000001f0: bbb4 a8be 9931 f1be 81ce cbbd 7f01 bcbd
00000200: 1023 bbbd 15b0 e43c dbf0 503d aab7 b53c
00000210: 5202 08be a350 43bc 2971 05be 7a3f 08bd
00000220: 0f0e 12be 2995 81be 5c25 e3bd 2c7c b13c
00000230: 323a 83be 2385 87bb 78a8 873e 937b aebd
00000240: d80a b8be 9461 90bc c402 3ebe 9cfe d7bc
00000250: 290d 163e 87f8 10be aae9 03be 280c 853d
00000260: aaf4 53bd 2d84 1fc0 1f49 95bf 8638 04c0
00000270: 2fb6 0ac0 63d7 58bf 6ddb d5bf 2da8 10c0
00000280: 6240 e0be cb10 21c0 6d79 bfbe d597 b5be
00000290: 9469 cabe 0da8 a9be e373 d4be a1d7 cebe
000002a0: 9178 ab3e d16f 9abe d2ae 2cbe 405f 23bc
000002b0: 3e52 99bc bfb9 58bd 7376 863c 758b 853d
000002c0: efc6 b5bc 34d2 e0bd 96b2 debd e2df 65bd
000002d0: 307b c63e 6035 edbf 8821 fcbf 648d 543e
000002e0: ec3c 21c0 e32a b0bf d2df 293e 7a90 f8bf
000002f0: 2b43 6dc0 830a 0bbe 059e 233d 2c74 dfbd
00000300: 086b 9c39 fc3d 08be 1a60 153b a400 5ebc
00000310: a605 b0bc 043f cb3d 38d0 b3bf 9dfc cabf
00000320: d2d4 a2bf e33b 0dc0 42d7 b7bd a5e4 ddbf
00000330: 44f7 11c0 9793 f13d 65aa 98bf d8b9 c4bf
00000340: 15be c43e ff3b 00c0 6cd8 03c0 db85 393f
00000350: 35f9 92bf da36 c0bf 9c9f 65be 0248 b8bf
00000360: 13a6 e0bd 883f 93bb 3290 97bd ee20 1dbc
00000370: 6ad4 25bd d2e0 4d3c f813 89bd e772 b4bd
00000380: 6a35 3c3e fe87 c73d 34ba 773d 70b2 0f3d
00000390: 0ba2 fcbb 22f1 28be dec6 76bd 31ff 6cbd
000003a0: 35a9 d7bd 5028 b7bc 9efc 1ebd 2328 5b3d
000003b0: dc7e 6b3d ecb5 07bc 8b2e ae3a 38f7 083e
000003c0: c949 c3bd 94aa aebd aec0 3b3d 3771 65bf
000003d0: 4235 dcbe 03a1 493f 8028 5abe a53b 63bd
000003e0: f9f1 003e d2af 7cbf 95b7 553f d369 fabe
000003f0: c263 92bf b1b8 06bf 09c5 07bf 0b22 76bf

conv1_3.bias f4 [16]
0.27509436 -0.10892773 -0.51709425 -0.26426378 -1.9702767 -0.26977736 -0.41990438 -0.4786339
-1.089905 -0.10114969 -0.07160382 -1.9559906 -0.7010291 0.013818655 -0.20003586 -1.0404105
00000000: 2bd9 8c3e 8015 dfbd 4a60 04bf 954d 87be
00000010: 0732 fcbf 4220 8abe b5fd d6be 810f f5be
00000020: 0282 8bbf 9227 cfbd 06a5 92bd e65d fabf
00000030: a576 33bf a467 623c 33d6 4cbe 2c2c 85bf

conv2_1.weight f4 [32, 16, 3, 3]
0.83720994 -1.3481765 -2.298477 -1.9983784 -0.193194 0.4745998 -0.81994474 -0.39994887
2.9332068 2.1814795 1.5799584 1.4742472 1.6285452 0.47009116 -0.13403428 0.40760428
-0.17093897 0.47095865 0.16504279 0.24069205 0.3388979 -3.3580487 -0.26218498 0.5984391
-4.927544 0.6742684 -0.23608571 -0.05391808 -0.107640386 0.009935996 0.0069408324 -0.13380688
-0.09179616 0.051955927 0.0007998689 -0.07257999 0.49684355 -0.9336098 1.0054338 -1.4713453
-0.9402761 0.33306316 -1.9834833 -0.6149282 -0.213056 -2.9131062 0.8125818 0.52785254
-4.4942517 1.2600566 0.7693614 -2.7818198 1.6274397 -0.5476044 -0.39546287 -0.30359542
0.15214303 0.04448422 -0.2581625 0.16240945 0.04171036 -0.27256086 0.16378261 -0.13585632
0.3224766 0.078383796 -0.07789457 0.094810836 0.35343316 -0.18158333 -0.10891247 -0.097179145
0.7539203 0.31420222 0.17514232 -0.38538274 -0.4883713 -0.8269791 0.8229322 3.4710166
-0.002495085 1.0481203 -1.5674537 0.21941929 -0.32492176 -0.20179625 -0.18537933 -2.169207
-0.30702752 -1.1782699 -2.7331963 0.18711823 1.2549256 -4.8394613 0.49163812 0.5964606
-2.677767 0.7054358 0.6556111 0.8171454 0.44682315 0.77792025 0.20446822 -2.4396608
-0.9372726 -0.7789636 -0.45946118 -0.8155185 -2.3277676 1.0493199 0.8378037 -2.1252637
0.3523227 0.2007047 -2.2731004 0.9192167 0.052986886 1.1542047 -0.7998201 -2.6090648
-3.519498 0.6494485 0.16593775 -2.1836464 0.6811316 2.4235659 -0.88686466 0.87345636
-0.21981467 -1.432551 -1.0080411 0.19017103 -0.7173755 -2.0301287 0.5627317 -0.7178305
-0.3983534 0.10821859 -0.28817508 -0.036496703 0.09625217 -0.11988491 -0.034824368 0.06985376
0.47605124 1.0015454 0.46970668 0.17115232 0.6292896 1.0373045 0.48960862 -0.23852119
0.18607032 -1.0865465 0.101012245 -0.2413031 -1.275414 0.044121824 -0.5283327 -1.8608646
-0.33159342 0.046330076 1.1142001 -0.73014617 0.6361697 -2.3999429 -2.4648478 -2.2696376
-1.837923 -3.2352133 -3.143217 -0.08152725 0.07688743 -0.022022525 0.0528122 0.09281089
0.08891945 0.07862713 0.098905616 0.042984586 -0.5955012 -0.66632515 1.127199 0.14901388
0.8288601 0.21029638 -0.650645 0.23875655 -1.419659 -0.31978124 -0.28649724 0.9685366
-2.7459815 -2.7868032 -0.69997805 -1.6465049 -3.3060062 -1.0879881 -0.13917597 0.1766821
0.25949606 -0.18775035 0.094590895 -0.23634082 -0.13127807 0.41091284 0.17807913 0.16543742
-0.08226052 0.18609175 0.22337 0.17648748 0.07033591 0.121950075 0.097124144 0.17263256
1.311174 -1.5573688 0.61223686 1.7385349 -0.08508556 0.45483997 -1.4541827 -0.60558796
-0.108732894 0.112726554 0.6360259 0.4968837 -0.13769141 -1.8657997 -0.30209202 -0.9405449
-0.620662 -0.14492674 1.1510092 1.2396275 0.896165 -0.12532875 -3.2697704 -2.737074
-0.41037402 -4.1840763 -1.9607208 0.9383489 0.46962073 -0.6938163 -1.6994063 -0.38554144
-0.80125475 -0.12165696 0.9848906 -1.2391666 1.609522 0.9296541 0.12700331 -0.1819164
00000000: 6453 563f 0c91 acbf 3f1a 13c0 ddca ffbf
00000010: a6d4 45be bffe f23e e6e7 51bf 19c6 ccbe
00000020: a9b9 3b40 5c9d 0b40 143c ca3f 22b4 bc3f
00000030: 2b74 d03f caaf f03e 4840 09be 82b1 d03e
00000040: a00a 2fbe 7e21 f13e fa00 293e fa77 763e
00000050: 0784 ad3e 45ea 56c0 1c3d 86be 4e33 193f
00000060: 71ae 9dc0 db9c 2c3f 74c0 71be 34d9 5cbd
00000070: 9072 dcbd 96ca 223c ec6f e33b ac04 09be
00000080: a0ff bbbd bdcf 543d 4bae 513a d1a4 94bd
00000090: 4762 fe3e 0d01 6fbf 0eb2 803f 0b55 bcbf
000000a0: efb5 70bf 4187 aa3e c8e2 fdbf ef6b 1dbf
000000b0: 5a2b 5abe 5570 3ac0 5c05 503f 5821 073f
000000c0: e9d0 8fc0 8949 a13f def4 443f 5609 32c0
000000d0: f24f d03f cd2f 0cbf 1c7a cabe dc70 9bbe
000000e0: 62cb 1b3e 1635 363d e02d 84be aa4e 263e
000000f0: 7cd8 2a3d 198d 8bbe a1b6 273e eb1d 0bbe
00000100: a71b a53e af87 a03d 3087 9fbd 2f2c c23d
00000110: 31f5 b43e fbf0 39be 800d dfbd dc05 c7bd
00000120: ec00 413f 1ddf a03e 8258 333e e350 c5be
00000130: ce0b fabe e7b4 53bf afab 523f 2325 5e40
00000140: 9484 23bb ce28 863f 53a2 c8bf 73af 603e
00000150: 255c a6be ada3 4ebe 14d4 3dbe 4ad4 0ac0
00000160: b632 9dbe 8cd1 96bf b0ec 2ec0 ec9b 3f3e
00000170: 67a1 a03f dedc 9ac0 feb7 fb3e a4b1 183f
00000180: 8960 2bc0 7197 343f 21d6 273f 7130 513f
00000190: 01c6 e43e c825 473f 1e60 513e 6723 1cc0
000001a0: 19f1 6fbf 296a 47bf 7f3e ebbe d2c5 50bf
000001b0: 25fa 14c0 1d50 863f 4e7a 563f 5204 08c0
000001c0: a463 b43e 8885 4d3e 7a7a 11c0 c951 6b3f
000001d0: c708 593d fbbc 933f 03c1 4cbf ebfa 26c0
000001e0: 753f 61c0 4242 263f 96eb 293e ddc0 0bc0
000001f0: a45e 2e3f b41b 1b40 9009 63bf d69a 5f3f
00000200: 1917 61be d55d b7bf 7e07 81bf 32bc 423e
00000210: eca5 37bf a1ed 01c0 2f0f 103f bdc3 37bf
00000220: faf4 cbbe b5a1 dd3d af8b 93be 917d 15bd
00000230: dc1f c53d 3886 f5bd ffa3 0ebd 7d0f 8f3d
00000240: fdbc f33e a432 803f 657d f03e 8e42 2f3e
00000250: 2019 213f 65c6 843f fbad fa3e e63e 74be
00000260: 3889 3e3e f513 8bbf 82df ce3d 2918 77be
00000270: c440 a3bf 16b9 343d d040 07bf d030 eebf
00000280: 9dc6 a9be 9bc4 3d3d 1c9e 8e3f dcea 3abf
00000290: 04dc 223f aa98 19c0 11c0 1dc0 be41 11c0
000002a0: 1041 ebbf bc0d 4fc0 782a 49c0 c2f7 a6bd
000002b0: 2877 9d3d 9568 b4bc 9b51 583d a313 be3d
000002c0: 671b b63d 4307 a13d 078f ca3d 9b10 303d
000002d0: c472 18bf 4994 2abf 0f48 903f 1897 183e
000002e0: 2d30 543f ef57 573e ac90 26bf 997c 743e
000002f0: 63b7 b5bf 5eba a3be c4af 92be 04f2 773f
00000300: 29be 2fc0 fc5a 32c0 c331 33bf acc0 d2bf
00000310: 9b95 53c0 3243 8bbf 2584 0ebe 27ec 343e
00000320: abdc 843e a141 40be dfb8 c13d 5403 72be
00000330: c26d 06be 2b63 d23e 605a 363e 6d68 293e
00000340: 3478 a8bd d68e 3e3e 1bbb 643e 22b9 343e
00000350: 460c 903d f6c0 f93d 06e9 c63d 97c6 303e
00000360: 8dd4 a73f dc57 c7bf 8ebb 1c3f 5088 de3f
00000370: 5741 aebd c9e0 e83e a922 babf d007 1bbf
00000380: 5aaf debd 2edd e63d 98d2 223f 8a67 fe3e
00000390: fafe 0cbe 86d2 eebf ceab 9abe 8dc7 70bf
000003a0: b4e3 1ebf ad67 14be 4554 933f 1dac 9e3f
000003b0: 126b 653f 2e56 00be eb43 51c0 382c 2fc0
000003c0: 8b1c d2be f4e3 85c0 e6f8 fabf a237 703f
000003d0: 2172 f03e f29d 31bf 2586 d9bf b065 c5be
000003e0: 081f 4dbf 4927 f9bd ca21 7c3f 039d 9ebf
000003f0: d104 ce3f d0fd 6d3f 280d 023e 4b48 3abe

conv2_1.bias f4 [32]
-0.44943547 1.092111 -0.8145796 -1.0281594 -0.36586413 -0.87943125 -0.98537636 -0.24565834
0.8387347 -2.7302065 -1.2054162 1.0669991 -1.320883 0.9876392 0.5666954 -0.56830436
-1.0541676 -2.0684106 -0.100217335 -0.5313953 -1.0653378 -0.24796903 -0.98879164 -0.50561386
-1.5561092 -0.7289922 -0.27337545 -1.8412771 -1.9371624 0.0133669805 -0.26128143 -0.7489296
00000000: 681c e6be 4bca 8b3f 4a88 50bf ba9a 83bf
00000010: 8b52 bbbe 6822 61bf a041 7cbf dc8d 7bbe
00000020: 51b7 563f b4bb 2ec0 144b 9abf 6d93 883f
00000030: b212 a9bf ecd5 7c3f f312 113f 657c 11bf
00000040: f7ee 86bf d760 04c0 bf3e cdbd 8609 08bf
00000050: fd5c 88bf 98eb 7dbe 7321 7dbf e96f 01bf
00000060: 962e c7bf 3c9f 3abf def7 8bbe f8ae ebbf
00000070: f0f4 f7bf 2e01 5b3c aec6 85be dab9 3fbf

batchnorm_32.weight f4 [32]
0.2260044 0.13936092 0.1398804 0.09930281 0.2748592 0.17081392 0.14546815 0.13568112
0.17197096 0.17372528 0.1901626 0.17080489 0.26930943 0.20891243 0.084726684 0.24674727
0.31432003 0.01648377 0.036689255 0.22388221 0.19226563 0.18096083 0.22316262 0.23941432
0.12466887 0.20568089 0.10483306 0.1503352 0.11716256 0.25397733 0.23116285 0.22025439
00000000: b36d 673e a1b4 0e3e cf3c 0f3e 465f cb3d
00000010: 58ba 8c3e d8e9 2e3e 9af5 143e feef 0a3e
00000020: 2819 303e 0ae5 313e fcb9 423e 7ae7 2e3e
00000030: ede2 893e 24ed 553e 2f85 ad3d 51ab 7c3e
00000040: 8eee a03e f908 873c 7947 163d 6141 653e
00000050: 48e1 443e cc4d 393e be84 643e 0729 753e
00000060: 6452 ff3d 039e 523e b7b2 d63d 78f1 193e
00000070: edf2 ef3d 5109 823e f4b5 6c3e 5e8a 613e

batchnorm_32.bias f4 [32]
0.71264094 2.025082 1.1433624 0.5834146 -0.6101779 0.28757006 0.78369576 0.6813691
1.5746471 1.2421005 0.9844792 2.0428553 1.4837226 1.625353 1.4145448 1.7816699
1.2461759 -0.028357908 -1.4189556 1.4947381 0.44558734 0.7732475 0.48647934 -1.5797118
0.3612083 0.656304 1.2543372 0.1973576 1.0917032 0.97509843 1.6565751 0.6162869
00000000: a36f 363f f29a 0140 b359 923f a95a 153f
00000010: 9e34 1cbf 623c 933e 49a0 483f 356e 2e3f
00000020: 098e c93f 26fd 9e3f d406 7c3f 24be 0240
00000030: 9fea bd3f 910b d03f ce0f b53f c20d e43f
00000040: b182 9f3f d84e e8bc 56a0 b5bf 9453 bf3f
00000050: 0624 e43e 8cf3 453f d213 f93e ff33 cabf
00000060: 4bf0 b83e 8a03 283f 1f8e a03f 1c18 4a3e
00000070: eebc 8b3f 0da0 793f a70a d43f fac4 1d3f

batchnorm_32.running_mean f4 [32]
0.047159024 -0.063168816 0.0050019766 -0.008478562 0.018254492 0.038305975 -0.022798087 0.014533917
-0.070983715 -0.036416344 0.017261706 -0.045317713 -0.017957307 -0.045091305 -0.03621325 -0.091448076
-0.0028012483 -0.012587198 0.025632147 0.030442456 0.026079636 -0.033005822 0.017630713 0.11537241
0.0034123335 -0.052091256 -0.0017017943 0.008250051 0.019759014 0.031335548 -0.013497971 0.031910967
00000000: d229 413d a75e 81bd 9fe7 a33b abe9 0abc
00000010: 728a 953c bae6 1c3d 0ec3 babc ab1f 6e3c
00000020: e95f 91bd 4e29 15bd 6c68 8d3c 119f 39bd
00000030: 341b 93bc a9b1 38bd 5854 14bd 2149 bbbd
00000040: 2695 37bb 893a 4ebc 82fa d13c 7562 f93c
00000050: f6a4 d53c 1d31 07bd 496e 903c 5f48 ec3d
00000060: 75a1 5f3b a45d 55bd be0e dfba 392b 073c
00000070: a8dd a13c b459 003d 9826 5dbc 13b5 023d

batchnorm_32.running_var f4 [32]
0.6957591 0.702035 0.6939943 0.6927915 0.69052345 0.7170874 0.708301 0.69706184
0.6949815 0.71816605 0.6893542 0.7015183 0.69620353 0.71801335 0.7003244 0.70146656
0.71718496 0.6939579 0.6994016 0.69723606 0.7058014 0.6877869 0.6951616 0.70143414
0.6973433 0.69266623 0.7012726 0.70229244 0.7056092 0.69226825 0.7000467 0.70157886
00000000: 451d 323f 91b8 333f 9ca9 313f c95a 313f
00000010: 25c6 303f 0a93 373f 3753 353f a572 323f
00000020: 4fea 313f bbd9 373f 8479 303f b496 333f
00000030: 653a 323f b9cf 373f 7648 333f 5093 333f
00000040: 6f99 373f 3aa7 313f fc0b 333f 107e 323f
00000050: 67af 343f cd12 303f 1cf6 313f 3091 333f
00000060: 1785 323f 9352 313f 9a86 333f 70c9 333f
00000070: cea2 343f 7e38 313f 4336 333f ac9a 333f

conv2_2.weight f4 [32, 32, 3, 3]
0.31735975 -1.638607 -0.51036245 0.25895217 1.5498543 -0.009022831 -0.17750557 0.19885351
0.06944638 -2.449305 -1.6304923 -2.876925 -1.1617086 0.72513 -2.372724 -1.5329612
-0.017068863 -2.1467412 -1.3672916 -0.8484245 0.52260214 -0.02835804 1.0028726 0.36211106
0.29993793 -0.9238957 -1.7530434 -0.17873861 0.60630697 -2.3383436 -0.74987894 -2.6747704
-3.3110785 -1.8919768 -0.92274755 -2.3975317 0.015022824 -0.0005082041 0.08240584 0.07990183
-0.041703723 -0.08214706 0.21716629 -0.06351162 -0.2376803 -0.89564985 -0.34735984 -0.89755553
2.044458 0.46180478 -1.4001089 -2.2750382 1.4585841 -0.2002927 -1.8023891 -1.7227225
-1.4857451 -2.048962 -2.4828851 -1.4736296 -0.7827247 0.7243903 -2.00573 -0.99240565
-1.9605701 -3.3688679 -1.1180205 -1.6553656 -4.260459 -1.1142393 -1.6589593 -2.36305
-0.8664764 -0.7557322 -0.30042872 1.506245 -1.3563539 -1.2402252 0.7830536 -0.5293179
-1.2192241 -3.1661098 -0.8168884 -0.69104326 -2.0555682 -1.0565578 1.1049943 0.7356353
-0.87349176 0.7811109 0.16196181 -0.26243994 -1.5906312 -2.5273366 -2.150385 -3.3023062
-1.7534649 -1.76013 -0.62421906 -2.0504644 -1.9078184 1.2097393 0.10016373 0.9244845
-1.165003 -2.1880348 -1.1799804 -0.49876827 2.182696 0.07837243 -0.12262049 -0.49373293
-0.12501091 0.61049664 0.65571976 -0.75785214 -0.4527657 -1.9696845 -1.8336464 -1.1600097
1.630875 0.18803713 2.3340816 -1.2660515 -2.0689144 -1.0310913 0.52119076 -1.0338224
0.43115523 -0.8715467 0.4760358 -0.7072733 -1.4802883 -2.268438 -0.110905394 -2.4142504
-0.24906218 -0.7086165 0.31686985 1.5134823 -0.25915655 -1.949006 0.83377254 -0.23556475
-0.76569074 0.10612379 0.33795375 -0.6575319 -0.32614335 -1.5629897 -0.43980813 -0.3560403
0.13718842 -1.0689594 0.09564598 -2.1900458 -0.19491103 -0.97512287 0.63851327 -0.31273404
-0.27594775 -2.6998022 -0.013809194 -0.05993991 0.13454038 -0.12250941 -0.08360489 0.15855262
-0.113779135 0.098798044 0.10022321 0.33433884 0.40171164 -1.6487235 0.6657275 -0.122000486
-1.3216537 1.1354152 -0.9786231 -1.0777968 -2.5458333 0.76751304 -0.0839705 0.07474445
-1.1705359 -0.39743614 -0.33610827 0.5124418 0.46002847 -2.3613293 -2.047557 0.23518325
-0.30412164 -1.0772057 -2.0511167 0.056600112 1.8224404 1.360271 -0.22459385 1.195006
-1.9474529 -0.74802136 -0.9474368 -0.8632152 -0.31433523 -0.28933758 2.2388554 0.12322389
0.4520557 0.44092515 0.4887456 0.30472696 0.53185564 -0.9165068 -0.27408108 0.31452724
-0.7655572 -0.8970055 -0.032016035 -0.18646349 0.45997763 -0.269868 0.033950306 0.42281893
-0.5243779 0.117968716 -0.60366976 0.01813291 -0.32419708 -0.67923564 0.00087821623 -0.54892176
0.29821193 0.06827644 0.34390378 0.7372474 -0.5763692 1.0822812 -0.9886019 -0.22227386
1.352048 -1.2352446 -0.22286153 -0.20286505 -1.3977178 -0.8131179 -0.8815796 -0.8144687
-0.40170118 -0.18475604 -0.36644953 -1.0793219 -1.0901674 -1.0221909 -1.8437189 0.3729371
00000000: fa7c a23e e0bd d1bf 1da7 02bf 6195 843e
00000010: a061 c63f 7fd4 13bc 05c4 35be 41a0 4b3e
00000020: e739 8e3d 6ac1 1cc0 f9b3 d0bf 8a1f 38c0
00000030: deb2 94bf 1fa2 393f b6da 17c0 1338 c4bf
00000040: 00d4 8bbc 3564 09c0 6903 afbf 5932 59bf
00000050: 41c9 053f 1f4f e8bc 215e 803f 9f66 b93e
00000060: 7791 993e 6e84 6cbf ba63 e0bf 4107 37be
00000070: ef36 1b3f 6ca7 15c0 11f8 3fbf 702f 2bc0
00000080: b6e8 53c0 4c2c f2bf 2f39 6cbf 2971 19c0
00000090: 4a22 763c 0039 05ba 65c4 a83d 92a3 a33d
000000a0: 86d1 2abd b83c a8bd d760 5e3e 6112 82bd
000000b0: 7762 73be 4f49 65bf 26d9 b1be 33c6 65bf
000000c0: 66d8 0240 ad71 ec3e c536 b3bf 3a9a 11c0
000000d0: e2b2 ba3f 8819 4dbe b0b4 e6bf 2c82 dcbf
000000e0: e52c bebf 3222 03c0 97e7 1ec0 e59f bcbf
000000f0: a560 48bf a571 393f e15d 00c0 4c0e 7ebf
00000100: f6f3 fabf 889b 57c0 4c1b 8fbf 05e3 d3bf
00000110: ae55 88c0 659f 8ebf c758 d4bf 363c 17c0
00000120: 66d1 5dbf aa77 41bf cbd1 99be a3cc c03f
00000130: 019d adbf b3bf 9ebf 3376 483f 6181 07bf
00000140: 890f 9cbf 8ba1 4ac0 991f 51bf 36e8 30bf
00000150: 6e8e 03c0 493d 87bf 7470 8d3f 9852 3c3f
00000160: 289d 5fbf e2f6 473f 51d9 253e 875e 86be
00000170: ce99 cbbf e2bf 21c0 e89f 09c0 fc58 53c0
00000180: 8a71 e0bf f14b e1bf d2cc 1fbf cf3a 03c0
00000190: 6533 f4bf bdd8 9a3f a422 cd3d 04ab 6c3f
000001a0: d11e 95bf c308 0cc0 9909 97bf 8e5e ffbe
000001b0: 4bb1 0b40 b981 a03d 7420 fbbd 90ca fcbe
000001c0: dc02 00be 8249 1c3f 40dd 273f 9902 42bf
000001d0: e8d0 e7be 9f1e fcbf edb4 eabf 337b 94bf
000001e0: 83c0 d03f ce8c 403e 9861 1540 fa0d a2bf
000001f0: 1869 04c0 cdfa 83bf c26c 053f 4b54 84bf
00000200: 61c0 dc3e af1d 5fbf f7ba f33e dd0f 35bf
00000210: 167a bdbf 172e 11c0 5e22 e3bd 1483 1ac0
00000220: 280a 7fbe e467 35bf c43c a23e cab9 c13f
00000230: 2bb0 84be 0779 f9bf 1e72 553f e337 71be
00000240: 4f04 44bf 6e57 d93d 4608 ad3e 0354 28bf
00000250: 43fc a6be 0c10 c8bf 882e e1be ea4a b6be
00000260: 1f7b 0c3e a9d3 88bf 0ae2 c33d b629 0cc0
00000270: c296 47be a7a1 79bf 9b75 233f ad1e a0be
00000280: 0649 8dbe 8fc9 2cc0 f53f 62bc 8d83 75bd
00000290: f4c4 093e 37e6 fabd 0a39 abbd 9e5b 223e
000002a0: 0905 e9bd a156 ca3d d441 cd3d 762e ab3e
000002b0: 26ad cd3e 5f09 d3bf 1e6d 2a3f 64db f9bd
000002c0: f32b a9bf 4955 913f 0b87 7abf 3ff5 89bf
000002d0: efee 22c0 bc7b 443f baf8 abbd 9e13 993d
000002e0: 1fd4 95bf c07c cbbe 6216 acbe 632f 033f
000002f0: da88 eb3e 0520 17c0 2d0b 03c0 e1d3 703e
00000300: d5b5 9bbe e0e1 89bf 7f45 03c0 85d5 673d
00000310: ba45 e93f 5c1d ae3f eefb 65be f5f5 983f
00000320: 2346 f9bf 547e 3fbf 388b 72bf acfb 5cbf
00000330: 8cf0 a0be 0e24 94be 6849 0f40 cf5c fc3d
00000340: d873 e73e f1c0 e13e dd3c fa3e 2c05 9c3e
00000350: b127 083f 31a0 6abf 5b54 8cbe b709 a13e
00000360: 8ffb 43bf 27a2 65bf 3f23 03bd 49f0 3ebe
00000370: 3082 eb3e 232c 8abe 7a0f 0b3d b97b d83e
00000380: a13d 06bf 9599 f13d 1a8a 1abf 788b 943c
00000390: 29fd a5be 63e2 2dbf 1838 663a 2386 0cbf
000003a0: 3caf 983e 85d4 8b3d 2814 b03e 3fbc 3c3f
000003b0: ef8c 13bf 3188 8a3f 0415 7dbf c29b 63be
000003c0: e90f ad3f 7f1c 9ebf d035 64be dbbb 4fbe
000003d0: 6be8 b2bf 7f28 50bf 33af 61bf 0581 50bf
000003e0: c7ab cdbe b030 3dbe 469f bbbe 3827 8abf
000003f0: 9b8a 8bbf 27d7 82bf fbfe ebbf 9df1 be3e

conv2_2.bias f4 [32]
-0.14034395 -0.17547093 -1.0132198 0.091230236 -0.98235667 -1.9161052 1.9882144 -0.99353004
-0.50902694 2.0378208 -0.28770995 0.15147021 -2.1532886 0.44144648 -0.40984127 -0.8811237
0.69985837 -1.70597 -0.29815853 0.501336 0.18293388 -1.3889949 -1.2232724 -3.1057878
-1.229148 1.8317477 0.14966816 -1.0174124 0.8729334 -1.2923889 0.018403476 -0.996733
00000000: 53b6 0fbe a7ae 33be 30b1 81bf ebd6 ba3d
00000010: ba7b 7bbf ef42 f5bf cf7d fe3f fc57 7ebf
00000020: 974f 02bf a86b 0240 b84e 93be 021b 1b3e
00000030: 7bcf 09c0 4605 e23e b7d6 d1be 5391 61bf
00000040: eb29 333f 3a5d dabf 3ca8 98be 8e57 003f
00000050: 0553 3b3e 96ca b1bf 3194 9cbf 3ac5 46c0
00000060: b954 9dbf b576 ea3f 9c42 193e 923a 82bf
00000070: 9078 5f3f 006d a5bf e3c2 963c e529 7fbf

conv2_3.weight f4 [32, 32, 3, 3]
-0.28071347 -1.6364135 0.957469 0.9769687 0.31300855 -1.2806401 -0.9051569 -0.040816654
-0.287614 -1.715132 -2.6303253 -2.4347072 0.19202381 -0.82125443 -1.4475918 0.34000096
-0.4169418 1.9172841 0.7477456 -0.9684549 -1.8197763 2.6365643 0.505768 -1.6989254
-0.2935278 -2.2267742 0.37199855 -0.9485699 -1.1398108 -0.73379874 -2.566564 -0.678436
0.45490927 -1.0831233 -1.171354 0.4013481 0.34833565 -1.1376543 -2.7798686 0.50798
-1.1199582 -1.028487 1.3288021 -0.736091 -2.5683012 -0.08806416 -0.05335981 0.09164144
-0.5444853 -0.451636 0.06955847 0.1309205 -0.6551579 -0.056169897 1.3643159 -1.1268109
-1.2405907 -1.2449497 -1.8202422 1.3540052 -1.9936006 -2.97558 -1.8383664 0.9737496
0.82923996 -1.487533 -0.4466422 0.5409967 -0.81133705 -0.21922606 -0.5939862 -0.2347837
-0.3724357 -1.5826638 -0.5455077 0.51125276 -0.9176746 -1.3047103 -0.95816195 -1.831415
-0.3902894 1.1581874 1.1231109 0.08352211 -0.123191714 -1.191517 -0.3836907 0.12509087
-2.0955489 -1.5213671 1.0520867 -0.18805443 1.6502866 -1.4462575 -0.52381545 -0.41822022
-1.9804183 -0.3271977 -0.6363299 0.8410958 -0.4996966 -1.3817511 2.2074447 0.29742974
0.51564777 -2.285927 -2.3528807 -0.76882356 0.72631514 0.28894088 -1.0551077 -0.13190508
1.3158556 0.55090487 -1.3647397 -0.44284597 0.28235587 -1.7433543 0.9140078 2.4004827
-1.9861577 0.81049675 -0.3779252 -0.78764427 1.366065 0.7876656 -2.1430023 -1.399731
-2.974859 -0.23825121 0.8624592 1.2879907 -1.3332717 -0.50732374 2.6398423 1.350405
0.50979227 -0.43420848 -0.43105033 -1.0010567 1.1471775 0.36714873 0.8536365 -0.5602653
-2.4411983 0.09246371 -1.2223963 -0.21641575 0.6212921 -0.4762676 -0.16886324 -0.18895233
1.0193048 -0.10827769 -0.6610978 -0.1898467 0.7022691 -0.4496847 0.57468385 0.6792932
-0.1407267 0.50163716 0.34746942 0.5609788 -0.089342415 0.25585994 0.43956766 -0.001976333
0.2739911 0.42612866 -0.11773333 -0.24860363 -0.14897756 -0.052842494 0.9924341 0.11504136
0.8741869 -0.1147837 0.41972783 -0.45502114 0.24332944 -0.5090123 -0.10747729 0.13351901
-0.24841927 1.0258437 -1.1766113 1.3327547 0.5253136 0.9929399 -0.29087636 -0.47508615
0.72923714 1.2430176 -0.22155711 -0.5173977 0.40006462 0.6098724 -2.044768 1.450062
-0.2558405 0.33995524 1.8326735 -1.008207 0.3487307 -1.0448015 -0.2848737 -0.18381456
-1.0722607 -4.420138 -0.6764558 0.75496215 -1.2734232 -2.35378 -0.6088598 0.8407003
0.09357177 -2.1920264 -2.2011797 0.13880575 -0.9818112 -0.79149467 0.17961633 -1.6169207
-1.3950716 -0.90389895 1.5148525 1.8776937 -0.025201086 1.8219805 -1.7994744 0.19724393
-0.42128795 -1.3252745 -1.500285 -1.9171414 -1.2666584 -3.5910385 -0.33775058 -0.7373463
-2.2528985 -1.1661654 -1.847251 -0.30442485 1.2243003 -0.9641677 0.43420196 0.06940296
0.42831394 0.9925567 0.93881 0.2284796 0.025316508 0.39287546 -0.9985891 0.25405157
00000000: adb9 8fbe ff75 d1bf b01c 753f 9f1a 7a3f
00000010: a842 a03e 04ec a3bf 5db8 67bf 5d2f 27bd
00000020: 2442 93be 7289 dbbf 4057 28c0 3ed2 1bc0
00000030: e4a1 443e bb3d 52bf b04a b9bf 9b14 ae3e
00000040: 6579 d5be 9169 f53f 416c 3f3f a9ec 77bf
00000050: 6eee e8bf 78bd 2840 037a 013f 6376 d9bf
00000060: 4749 96be 7883 0ec0 9876 be3e 7ad5 72bf
00000070: 52e5 91bf 3cda 3bbf 9642 24c0 fbad 2dbf
00000080: dee9 e83e c9a3 8abf eeee 95bf 807d cd3e
00000090: 0d59 b23e a89e 91bf 5ee9 31c0 fa0a 023f
000000a0: ca5a 8fbf 76a5 83bf 3016 aa3f 7670 3cbf
000000b0: 0c5f 24c0 fb5a b4bd d18f 5abd 82ae bb3d
000000c0: 6363 0bbf d53c e7be ac74 8e3d 0610 063e
000000d0: 6eb8 27bf 6812 66bd e7a1 ae3f 573b 90bf
000000e0: adcb 9ebf 835a 9fbf b2fd e8bf 0b50 ad3f
000000f0: 4e2e ffbf e76f 3ec0 974f ebbf a747 793f
00000100: 1249 543f 7b67 bebf 49ae e4be c27e 0a3f
00000110: c9b3 4fbf cc7c 60be 7b0f 18bf 236b 70be
00000120: e4af bebe ba94 cabf 65a6 0bbf 76e1 023f
00000130: b9ec 6abf bf00 a7bf 1a4a 75bf cf6b eabf
00000140: 03d4 c7be 7c3f 943f 19c2 8f3f a40d ab3d
00000150: f04b fcbd a183 98bf 1c73 c4be d217 003e
00000160: 791d 06c0 28bc c2bf c7aa 863f 5791 40be
00000170: 973c d33f f71e b9bf c518 06bf f620 d6be
00000180: 597e fdbf 7586 a7be 84e6 22bf 0e52 573f
00000190: 3cd8 ffbe 38dd b0bf c646 0d40 b648 983e
000001a0: 7e01 043f a14c 12c0 9995 16c0 9fd1 44bf
000001b0: caef 393f 0ff0 933e c50d 87bf 2012 07be
000001c0: f56d a83f 1a08 0d3f caaf aebf b5bc e2be
000001d0: f390 903e 3c26 dfbf 6afc 693f 82a1 1940
000001e0: 6a3a febf b77c 4f3f 697f c1be 0ea3 49bf
000001f0: 38db ae3f 74a4 493f f326 09c0 632a b3bf
00000200: 1764 3ec0 20f8 73be 20ca 5c3f e1dc a43f
00000210: a6a8 aabf f8df 01bf 2df3 2840 12da ac3f
00000220: bf81 023f 9350 debe a1b2 dcbe a022 80bf
00000230: b6d6 923f ebfa bb3e ec87 5a3f 8c6d 0fbf
00000240: 983c 1cc0 9d5d bd3d 7b77 9cbf 179c 5dbe
00000250: 000d 1f3f 59d9 f3be 7cea 2cbe b87c 41be
00000260: 9478 823f b2c0 ddbd b53d 29bf 2c67 42be
00000270: e8c7 333f 133d e6be 7b1e 133f 29e6 2d3f
00000280: a91a 10be 4b6b 003f 83e7 b13e 4e9c 0f3f
00000290: 28f9 b6bd 1300 833e 030f e13e 5e85 01bb
000002a0: 9048 8c3e 892d da3e 2c1e f1bd f391 7ebe
000002b0: 938d 18be 5f71 58bd 2910 7e3f ce9a eb3d
000002c0: b6ca 5f3f b713 ebbd 91e6 d63e 88f8 e8be
000002d0: 5a2b 793e a14e 02bf 0e1d dcbd 35b9 083e
000002e0: 9f61 7ebe d94e 833f 339b 96bf b597 aa3f
000002f0: f47a 063f 4f31 7e3f bfed 94be 7e3e f3be
00000300: 49af 3a3f 331b 9f3f dedf 62be 2d74 04bf
00000310: 45d5 cc3e 9920 1c3f 7bdd 02c0 a29b b93f
00000320: 87fd 82be 9d0e ae3e 0c95 ea3f ed0c 81bf
00000330: d58c b23e 0ebc 85bf f7da 91be e239 3cbe
00000340: d73f 89bf c571 8dc0 352c 2dbf 3345 413f
00000350: 88ff a2bf 55a4 16c0 3cde 1bbf 2338 573f
00000360: 8ea2 bf3d 294a 0cc0 21e0 0cc0 1823 0e3e
00000370: fb57 7bbf 659f 4abf 58ed 373e 42f7 cebf
00000380: b591 b2bf ec65 67bf b0e6 c13f 4458 f03f
00000390: 8272 cebc a836 e93f 2d55 e6bf 50fa 493e
000003a0: 0eb3 d7be 98a2 a9bf 5709 c0bf e464 f5bf
000003b0: dd21 a2bf 93d3 65c0 a5ed acbe bac2 3cbf
000003c0: 7d2f 10c0 e844 95bf b972 ecbf 93dd 9bbe
000003d0: dfb5 9c3f b2d3 76bf b84f de3e 2423 8e3d
000003e0: f74b db3e 3218 7e3f da55 703f 8ef6 693e
000003f0: 9164 cf3c f926 c93e 89a3 7fbf 0c13 823e

conv2_3.bias f4 [32]
0.6886106 1.8853258 0.52713376 -0.013588769 -1.480101 -0.37228006 2.5334573 -2.4385915
-0.39477533 2.6491404 0.9292768 1.712982 1.1326121 -2.2652895 1.3320981 2.3887994
-1.2296522 0.50622255 -0.5260753 -0.8060505 -0.38608897 -0.5616276 -0.5076228 -0.083582796
-1.3351997 -2.8486345 0.06737523 1.7009491 3.0990276 -0.6531771 -0.23034257 -0.8076243
00000000: c948 303f 5b52 f13f 3df2 063f 6ea3 5ebc
00000010: f373 bdbf 7e9b bebe 2a24 2240 e211 1cc0
00000020: fe1f cabe 848b 2940 16e5 6d3f ff42 db3f
00000030: 6ff9 903f 81fa 10c0 3182 aa3f 17e2 1840
00000040: 3e65 9dbf cd97 013f dfac 06bf 5359 4ebf
00000050: 74ad c5be d4c6 0fbf 91f3 01bf 752d abbd
00000060: d3e7 aabf 0750 36c0 06fc 893d b3b8 d93f
00000070: 7856 4640 9d36 27bf ecde 6bbe 77c0 4ebf

conv3.weight f4 [48, 32, 3, 3]
-0.8987962 -0.059928406 -1.8406268 -0.10278571 0.77451205 -0.93363523 0.86588985 1.0903955
-0.1269871 2.033855 0.863479 0.30779216 0.44795868 0.59537303 0.9726347 -1.7039043
0.5999319 -0.37543568 -2.1181548 -1.2965261 -2.7673297 0.27721372 -2.1826704 0.39021444
0.97546107 -2.5414748 2.0068483 -2.1865957 -0.29845333 -1.7296591 1.1052228 0.562685
-0.16129808 -1.0034131 -0.42250776 -0.05354329 0.05319573 0.022762192 -0.48419976 0.47170165
-0.08705413 -0.7111237 0.3747758 -0.18809332 -0.9927992 0.25185835 -1.0846862 -0.41844818
-1.4633408 -1.939702 -2.1748035 0.38337204 0.6973159 1.7474996 0.99782294 -2.0418098
-0.61596924 0.5280107 -2.4357312 1.5468473 -2.4021904 -2.2967012 1.53543 -0.27025557
-0.29575258 -0.16756576 0.07351386 -0.86734194 -0.20814927 0.5813115 1.1084447 -1.1858653
-1.3367563 -0.43922207 -1.6873517 -2.027206 -0.3058042 -0.6257161 0.14087991 -1.2958931
0.038903974 -2.9414709 -1.0198516 -0.7683989 -1.3186443 -0.6369434 -0.3022545 -0.2880168
-0.95806164 -2.2971027 -2.452569 0.5349017 -1.7229313 -1.5936066 -0.983965 0.37819752
2.288823 -3.2381725 0.39608473 -1.0743632 0.31305885 -1.5729293 -1.3781979 -0.93125975
-0.1949177 -3.0208728 -0.027393423 0.27221867 -1.7715489 -1.5316685 1.3352172 -2.5460644
-2.1539483 -1.2827778 -2.2731647 -0.42998827 -3.6720967 -1.07079 1.3705028 0.7410145
-0.63328785 1.7544572 -0.75357324 -0.6434165 2.1445827 -0.95314485 -2.8663535 -1.6722456
0.4433211 -0.96556604 -1.2374066 0.47416434 -0.94607896 -1.6837915 1.1222718 -2.0083766
-0.65643644 0.8158826 -1.5921168 -2.043167 -0.7964069 1.9295517 0.4510695 -0.68390405
-0.69434536 -0.47013047 0.20967816 -0.021143213 -0.07985121 0.7177269 0.23753107 -0.6878004
0.20200711 -1.8187511 -0.05018653 0.33598685 -0.23127586 0.7086994 1.4799904 1.0146128
-0.338821 -0.37077102 -0.972128 -0.39487153 -0.22155227 -0.44538608 -0.16793153 -0.23948097
1.337451 0.5633625 -0.15996598 -1.5802184 0.2973422 -0.12982802 3.622512 1.1716381
-0.3130317 -0.79135656 -0.28711504 0.18409492 0.79047036 0.8638874 0.3172525 1.3099536
1.1997868 -0.27844113 1.3711802 0.8259854 -0.49554738 -0.7829713 0.21058035 -0.51922315
0.54371345 1.4722166 -0.2606378 1.2603071 0.11636015 -1.1062468 -0.91184795 1.2332534
1.0972066 -0.543532 0.3031891 -0.621101 1.0711741 0.22326733 -0.3454141 -0.053331055
-0.018500581 0.19210097 0.12905554 0.03271252 0.038074374 0.039415166 0.12694168 0.05043577
-0.53881156 -0.73080283 0.6355576 -0.17727506 -1.1155314 0.5509986 -0.24639112 0.11887236
0.565151 0.8035464 -0.62629867 -1.3263354 0.46258232 0.0803872 -0.16636166 -0.01664607
1.1159889 1.04747 -0.25338843 0.81797004 0.5774466 -0.16894443 0.50992 -1.6702011
-1.3764812 -0.22415881 -0.6073427 -1.2259079 -3.1596043 -0.08470387 1.1283705 -0.5235405
2.6766758 -2.5223498 0.0790831 1.2468191 -0.78211004 -2.0006115 1.9947675 1.1190614
00000000: 8217 66bf 7d77 75bd a999 ebbf 5081 d2bd
00000010: 6c46 463f b802 6fbf f5aa 5d3f 1492 8b3f
00000020: e808 02be ae2a 0240 f60c 5d3f ef96 9d3e
00000030: d75a e53e 5e6a 183f 96fe 783f 8919 dabf
00000040: 2395 193f 1b39 c0be d98f 07c0 91f4 a5bf
00000050: ee1b 31c0 f5ee 8d3e dfb0 0bc0 30ca c73e
00000060: d1b7 793f 86a7 22c0 3470 0040 2ff1 0bc0
00000070: e0ce 98be 7865 ddbf f177 8d3f 200c 103f
00000080: 532b 25be d76f 80bf f052 d8be 3550 5bbd
00000090: c4e3 593d c777 ba3c 08e9 f7be e182 f13e
000000a0: 7049 b2bd 340c 36bf 9de2 bf3e 899b 40be
000000b0: 1728 7ebf 94f3 803e ffd6 8abf d73e d6be
000000c0: c04e bbbf 2848 f8bf fb2f 0bc0 5749 c43e
000000d0: 4b83 323f 11ae df3f 5371 7f3f 03ad 02c0
000000e0: 29b0 1dbf b62b 073f 05e3 1bc0 18ff c53f
000000f0: 7dbd 19c0 27fd 12c0 f888 c43f f05e 8abe
00000100: e26c 97be 5c96 2bbe 6f8e 963d 1f0a 5ebf
00000110: 1525 55be d5d0 143f 84e1 8d3f 6fca 97bf
00000120: d51a abbf b7e1 e0be 24fb d7bf bebd 01c0
00000130: 5e92 9cbe ee2e 20bf d342 103e d3df a5bf
00000140: c659 1f3d 0f41 3cc0 7f8a 82bf cab5 44bf
00000150: 56c9 a8bf b90e 23bf 1ac1 9abe f076 93be
00000160: 8743 75bf bb03 13c0 e4f6 1cc0 51ef 083f
00000170: 0389 dcbf 4dfb cbbf 21e5 7bbf 1ba3 c13e
00000180: 137c 1240 383e 4fc0 9ecb ca3e bc84 89bf
00000190: 4049 a03e bf55 c9bf ca68 b0bf 0a67 6ebf
000001a0: 8198 47be fb55 41c0 2c68 e0bc 3f60 8b3e
000001b0: 1dc2 e2bf b70d c4bf 66e8 aa3f b8f2 22c0
000001c0: 4ada 09c0 1032 a4bf 887b 11c0 6c27 dcbe
000001d0: a203 6bc0 a60f 89bf a36c af3f 20b3 3d3f
000001e0: 271f 22bf 0e92 e03f 2dea 40bf f2b6 24bf
000001f0: d840 0940 4d01 74bf 5672 37c0 250c d6bf
00000200: fcfa e23e 562f 77bf 5763 9ebf abc5 f23e
00000210: 3b32 72bf 7b86 d7bf 9aa6 8f3f 3e89 00c0
00000220: 380c 28bf afdd 503f 7cca cbbf 40c3 02c0
00000230: 53e1 4bbf 8dfb f63f 95f2 e63e 5614 2fbf
00000240: 9ec0 31bf f1b4 f0be dfb5 563e 8834 adbc
00000250: 0889 a3bd f3bc 373f 583b 733e b013 30bf
00000260: f4da 4e3e d6cc e8bf 6490 4dbd 7806 ac3e
00000270: 94d3 6cbe 536d 353f 5370 bd3f d5de 813f
00000280: f279 adbe b3d5 bdbe 61dd 78bf 9a2c cabe
00000290: 99de 62be a509 e4be 3ef6 2bbe 803a 75be
000002a0: 9831 ab3f 8638 103f 1fce 23be 9944 cabf
000002b0: 3d3d 983e a3f1 04be 3dd7 6740 3df8 953f
000002c0: b145 a0be 5896 4abf be00 93be 6183 3c3e
000002d0: 445c 4a3f ba27 5d3f eb6e a23e 8fac a73f
000002e0: 9d92 993f d68f 8ebe d582 af3f c773 533f
000002f0: 63b8 fdbe cf70 48bf 60a2 573e cfeb 04bf
00000300: ce30 0b3f 9871 bc3f 5172 85be be51 a13f
00000310: 3b4e ee3d 7f99 8dbf de6e 69bf 3fdb 9d3f
00000320: 4471 8c3f ea24 0bbf 9a3b 9b3e 7a00 1fbf
00000330: 3c1c 893f 31a0 643e 1eda b0be aa71 5abd
00000340: 888e 97bc 1eb6 443e 2327 043e 90fd 053d
00000350: e0f3 1b3d cc71 213d 00fd 013e bd95 4e3d
00000360: 8eef 09bf e515 3bbf e7b3 223f 9887 35be
00000370: bcc9 8ebf 3f0e 0d3f f44d 7cbe 5a73 f33d
00000380: bcad 103f 38b5 4d3f 1c55 20bf 5cc5 a9bf
00000390: 97d7 ec3e 0ba2 a43d b65a 2abe 575d 88bc
000003a0: b9d8 8e3f 7f13 863f 21bc 81be 7c66 513f
000003b0: 8ad3 133f c5ff 2cbe 1e8a 023f 26c9 d5bf
000003c0: 8930 b0bf e389 65be d07a 1bbf 8dea 9cbf
000003d0: f536 4ac0 3979 adbd 726e 903f c006 06bf
000003e0: a84e 2b40 2e6e 21c0 52f6 a13d c597 9f3f
000003f0: 5d38 48bf 050a 00c0 8b54 ff3f 673d 8f3f

conv3.bias f4 [48]
0.39404553 -0.17034027 -0.38379815 -0.69865847 -0.35260347 -0.59119433 -1.0640115 0.38827074
-0.23898594 0.62413484 -0.7968633 -0.33885068 1.6380409 -0.7882054 1.066586 -0.21008074
2.1531603 -0.10861586 0.5436924 -0.7766114 -1.19523 0.6596921 0.7614059 -0.20396772
-0.34084794 -0.57214904 -0.36450857 0.038536474 -0.35664195 -0.30600017 -0.15990126 -0.94910115
-0.17488949 -0.35551482 0.35267165 0.7752327 -0.5752962 -0.7946034 1.4419454 3.055011
-0.20212118 1.2343926 -0.10485706 1.3495734 -0.078285426 -1.1401552 0.6534239 -0.6294701
00000000: 56c0 c93e ae6d 2ebe 3181 c4be 48db 32bf
00000010: 7188 b4be 8358 17bf 8731 88bf 6ccb c63e
00000020: bbb8 74be 4dc7 1f3f 3cff 4bbf d67d adbe
00000030: 53ab d13f d4c7 49bf e485 883f 681f 57be
00000040: 61cd 0940 fe71 debd 6d2f 0b3f 01d0 46bf
00000050: 4cfd 98bf 95e1 283f 7feb 423f eadc 50be
00000060: 9f83 aebe 5c78 12bf dea0 babe 6cd8 1d3d
00000070: c699 b6be 0eac 9cbe 28bd 23be 4bf8 72bf
00000080: 3b16 33be 0a06 b6be 6191 b43e a675 463f
00000090: 9d46 13bf 216b 4bbf ab91 b83f 4d85 4340
000000a0: dbf8 4ebe 9400 9e3f 4cbf d6bd d2be ac3f
000000b0: 1c54 a0bd 9bf0 91bf ca46 273f f424 21bf

batchnorm_48.weight f4 [48]
0.81146514 0.4976552 0.0074097333 0.11178853 0.7942458 0.21109906 0.0027230661 0.32943693
0.68421406 0.5838328 0.3275271 0.7671991 0.42338037 0.24027218 0.56131583 0.7462502
0.5524855 0.82467055 0.2651705 0.19855177 0.24245201 0.25567383 0.6572862 0.3588472
0.81829506 0.0022437293 0.4977636 0.9301003 0.2997731 0.015785031 0.8832456 0.0048837066
0.83532476 0.5952216 0.38730183 0.57751906 0.62689024 0.4682554 0.28091332 0.4331688
-0.0040223524 0.64111674 0.7795678 0.31200606 0.47723886 0.27472287 0.63286465 0.4473446
00000000: 2ebc 4f3f aacc fe3e 59cd f23b 63f1 e43d
00000010: b153 4b3f 5a2a 583e 7875 323b f5ab a83e
00000020: a728 2f3f 1176 153f a2b1 a73e 2967 443f
00000030: 50c5 d83e e909 763e 65b2 0f3f 410a 3f3f
00000040: b16f 0d3f 9c1d 533f 6ec4 873e 2851 4b3e
00000050: 5745 783e aee7 823e e943 283f d2ba b73e
00000060: c97b 513f 880b 133b dfda fe3e 0e1b 6e3f
00000070: dc7b 993e 9c4f 813c 621c 623f 8007 a03b
00000080: d8d7 553f 7160 183f 6d4c c63e 4ad8 133f
00000090: e17b 203f 2cbf ef3e dfd3 8f3e 4dc8 dd3e
000000a0: f0cd 83bb 3a20 243f c191 473f 42bf 9f3e
000000b0: a758 f43e 7aa8 8c3e 6b03 223f 5a0a e53e
