08_few/8_pn.pth (torch_old, 470497 bytes, 26 tensors)

conv1.weight f4 [64, 1, 3, 3]
0	0x3dde7d05	0.10863689
1	0xbe51ab93	-0.20475607
2	0x3e72b0f1	0.2370031
3	0xbe919935	-0.284372
4	0x3e9bca1b	0.30427632
5	0x3e577f2a	0.21044603
6	0x3d9f5298	0.077794254
7	0x3db6e30a	0.08930023
8	0xbe8f695e	-0.28010076
9	0xba6ebc7c	-0.0009107066
10	0xbe2cbfd0	-0.16870046
11	0x3dd79f26	0.10528402
12	0xbc31669b	-0.010827686
13	0xbd1e4a0d	-0.03864484
14	0x3dc13bfb	0.094352685
15	0x3e0d9526	0.13826427
16	0xbeaa6900	-0.33283234
17	0x3e7c0dcb	0.24614637
18	0x3e434e6b	0.19072883
19	0x3e03f36c	0.12885827
20	0xbea56695	-0.32304826
21	0xbe9277c7	-0.28607008
22	0x3e4f20a7	0.202273
23	0x3c8331a6	0.016014885
24	0xbe1791c5	-0.148017
25	0x3dd590dd	0.10428021
26	0x3e7481b6	0.23877606
27	0x3cb46093	0.022018706
28	0xbe879628	-0.26481748
29	0xb957d56d	-0.00020583505
30	0x3cf9e4ce	0.03050461
31	0xbd5babbb	-0.05363057
32	0xbe3e18cf	-0.18564151
33	0x3e68e805	0.22744758
34	0x3d84acb5	0.06478254
35	0xbe860ee9	-0.2618325
36	0x3d1dc17c	0.0385146
37	0x3d025048	0.031814843
38	0xbe27a260	-0.16370535
39	0x3d353c0e	0.044246726
40	0xbd331e0b	-0.043729823
41	0xbe78382a	-0.24240175
42	0x3e143d37	0.14476477
43	0x3e13ab97	0.14420925
44	0xbe9fe5a4	-0.3122989
45	0x3e78e7e5	0.2430721
46	0xbc96c4e4	-0.018404432
47	0xbe874954	-0.26423132
48	0x3e1fe3cd	0.15614243
49	0xbc8d6d78	-0.017264113
50	0xbe188d28	-0.14897597
51	0xbe40e57f	-0.18837546
52	0x3db344e6	0.08753376
53	0xbea00f88	-0.3126185
54	0xbd4c7bd9	-0.049922798
55	0xbea8c164	-0.32960045
56	0xbe8692cd	-0.26283875
57	0x3d88519f	0.06656193
58	0x3e804848	0.25055146
59	0x3e764a8b	0.24051873
60	0x3d598873	0.053108644
61	0x3d900b10	0.0703336
62	0x3c705ad0	0.014670089
63	0x3da57889	0.08079631
64	0x3e5c223d	0.21497436
65	0xbe88d392	-0.26723915
66	0xbda9ded2	-0.08294453
67	0xbda435d9	-0.08018083
68	0xbdc62f40	-0.09676981
69	0x3b860730	0.0040902123
70	0x3e96f997	0.29487297
71	0xbea9b00e	-0.33142132
72	0xbe9fac88	-0.31186318
73	0xbebfbfc6	-0.37451
74	0xbe876658	-0.2644527
75	0xbd988303	-0.074468635
76	0x3e4afd72	0.19823244
77	0x3e574bd5	0.21025021
78	0xbe8283ae	-0.2549109
79	0x3e8c040a	0.27346832
80	0x3e7f0429	0.2490393
81	0xbd9fc414	-0.07801071
82	0x3dda344e	0.106545076
83	0x3ca9d158	0.020729706
84	0xbd5155f3	-0.05110736
85	0x3e565c68	0.20933688
86	0xbeba63bc	-0.36404216
87	0x3e33b243	0.1754847
88	0x3c86c78d	0.016452575
89	0x3e26bcde	0.16282985
90	0x3cd55c47	0.026044978
91	0xbe3e8ec6	-0.18609151
92	0xbea1d744	-0.31609547
93	0xbd743171	-0.059617463
94	0x3de8af0e	0.11361514
95	0xbdc84ae8	-0.09779912
96	0x3dd5608f	0.10418808
97	0x3e2a8093	0.1665061
98	0x3e90c760	0.2827711
99	0x3e0a159e	0.13484809
100	0xbe657b1e	-0.22410247
101	0x3dd95986	0.10612778
102	0x3d9cbf5d	0.07653687
103	0x3d6bb8ff	0.057549473
104	0xbe38ad60	-0.18034887
105	0x3e35fd6b	0.17772453
106	0x3b693534	0.003558469
107	0xbe48a2cf	-0.19593357
108	0x3e30b1e0	0.17255354
109	0x3dcce0e3	0.10003831
110	0x3bda8aca	0.006669377
111	0xbe987671	-0.29777864
112	0x3e849aa7	0.2589924
113	0x3e8145a9	0.2524846
114	0xbe72ea36	-0.23722157
115	0xbe06cded	-0.13164492
116	0xbd83feb6	-0.06445067
117	0xbe0efe78	-0.1396426
118	0x3db575e6	0.08860378
119	0x3e8c9b6c	0.27462327
120	0x3d19f600	0.03758812
121	0x3e97f6c3	0.29680452
122	0xbe8a0f36	-0.2696473
123	0xbe5ac31b	-0.2136349
124	0x3c89cd5c	0.016821556
125	0x3dde8b6d	0.10866437
126	0xbea810a5	-0.328252
127	0xbce3176f	-0.027721135
128	0x3e1711a6	0.14752826
129	0x3e197054	0.14984256
130	0x3e5d15cc	0.21590346
131	0xbcddb5c5	-0.027064214
132	0xbe58cde4	-0.21172291
133	0xbeaf904f	-0.34289786
134	0x3db7c7f1	0.08973683
135	0x3e7e0212	0.24805477
136	0xbe3326f5	-0.1749533
137	0xbe888063	-0.2666045
138	0xbe676e1c	-0.22600597
139	0x3e1d7362	0.15376046
140	0x3de04405	0.10950474
141	0x3d2656f5	0.040610272
142	0x3e6f297f	0.23355673
143	0xbe99722d	-0.29969922
144	0x3dcb795b	0.09935256
145	0x3e389534	0.18025666
146	0xbe901a92	-0.28145272
147	0xbd7d025e	-0.061769836
148	0x3ea0c03c	0.31396663
149	0x3d8ac7d6	0.06776397
150	0x3cddcd54	0.027075447
151	0x3e17c322	0.14820531
152	0x3e7796ed	0.24178667
153	0x3e200f07	0.15630732
154	0xbd86b2df	-0.06577086
155	0x3d3ec185	0.046571273
156	0xbeb0c4cb	-0.3452514
157	0xbd9b4a2b	-0.07582506
158	0xbbc80532	-0.006104135
159	0x3e33f20a	0.175728
160	0x3d6426a8	0.055700928
161	0xbe392922	-0.18082097
162	0x3d979c16	0.07402818
163	0x3d80e6b8	0.06294006
164	0x3c9ebf8a	0.019378442
165	0x3d0a6b40	0.033793688
166	0x3e7b8e18	0.24565923
167	0xbdbbe8b1	-0.09175242
168	0x3ea23d02	0.3168717
169	0x3d23833e	0.039920084
170	0x3e3b42e1	0.18287231
171	0x3e6b9245	0.23005016
172	0x3d62339d	0.055225004
173	0xbe85edd3	-0.26158008
174	0x3e6f2937	0.23355566
175	0x3daf99b9	0.08574242
176	0xbe6eef1f	-0.23333405
177	0x3e6033f9	0.21894826
178	0x3cb399b1	0.021923872
179	0x3d339f6a	0.0438532
180	0xbe903e4b	-0.28172526
181	0xbe8270e6	-0.2547676
182	0x3debe0a4	0.11517456
183	0x3eaef67f	0.34172437
184	0xbe37b8e2	-0.17941621
185	0x3ea0414c	0.31299818
186	0xbe4d3258	-0.20038736
187	0x3d3f2f07	0.04667571
188	0xba8a6fd9	-0.0010561898
189	0xbe883b22	-0.26607615
190	0xbe210cba	-0.15727511
191	0x3ea09c7e	0.31369394
192	0xbc27e268	-0.010246851
193	0x3ce15986	0.027508508
194	0xbe1d91b1	-0.15387608
195	0x3db0a39f	0.08624958
196	0xbe992523	-0.29911146
197	0xbe3d67c7	-0.18496619
198	0xbe6985da	-0.22804967
199	0x3dc21000	0.09475708
200	0x3e70c25f	0.23511647
201	0xbe4714f1	-0.19441582
202	0xbdf73f64	-0.12072638
203	0xbea07ba8	-0.31344342
204	0x3e232d36	0.15935215
205	0xbe62b804	-0.22140509
206	0x3e35d090	0.17755342
207	0x3e7f5d53	0.24937944
208	0x3d8d6487	0.0690394
209	0xbe4390f2	-0.19098261
210	0x3df4946b	0.11942371
211	0x3e5749a0	0.2102418
212	0xbd7a7d3a	-0.06115458
213	0x3e9b785f	0.30365273
214	0xbe6f14e7	-0.23347817
215	0x3ea11ec0	0.31468773
216	0xbdba9af6	-0.09111588
217	0x3e9a18a2	0.30096918
218	0x3e8f283c	0.27960384
219	0x3e8823e7	0.2658989
220	0xbdab1b77	-0.08354848
221	0xbdec415b	-0.11535903
222	0x3e5fa0f6	0.21838745
223	0x3d451db2	0.048124023
224	0xbeb51eb0	-0.35374975
225	0xbea94833	-0.33062896
226	0xbd7b818b	-0.06140284
227	0xbe1fb73b	-0.1559724
228	0xbb4536bf	-0.0030092446
229	0x3d300e97	0.042982664
230	0xbe16f864	-0.14743191
231	0x3ebd1ae4	0.36934578
232	0xbdcb93aa	-0.09940274
233	0xbe62b0c7	-0.22137748
234	0x3d5a203d	0.0532534
235	0x3dfb86c4	0.12281564
236	0xbd930489	-0.071785994
237	0x3e8dee70	0.27720976
238	0x3d9534c0	0.07285452
239	0x3d543a51	0.051813427
240	0x3de626cf	0.11237871
241	0xbe68dc78	-0.22740352
242	0x3e2e37a5	0.17013414
243	0xbe46992e	-0.19394371
244	0xbe88cfdc	-0.26721084
245	0x3eb38765	0.35064235
246	0xbd84f091	-0.06491197
247	0xbe1376be	-0.14400765
248	0x3e1774ec	0.14790696
249	0xbda4c27d	-0.08044908
250	0xbe1628c0	-0.14663982
251	0xbe708840	-0.23489475
252	0xbe708692	-0.23488835
253	0x3dab2e13	0.08358397
254	0x3db7190e	0.08940326
255	0xbe434e11	-0.19072749

conv1.bias f4 [64]
0	0xbea58a16	-0.32331914
1	0xbc9cb9be	-0.019131538
2	0x3e0f95a3	0.14021926
3	0xbe53b437	-0.20674215
4	0x3caa0d5a	0.02075832
5	0x3ea125dd	0.314742
6	0x3e93e651	0.28886655
7	0x3cba8d87	0.022772564
8	0xbe8b1a3d	-0.27168456
9	0x3deacb4f	0.11464559
10	0x3d2baca7	0.0419127
11	0xbb6c59e6	-0.0036064326
12	0x3c1baa5c	0.009501066
13	0x3e024d39	0.1272477
14	0x3e5e2f57	0.21697746
15	0x3d5624dc	0.052281246
16	0x3dcd3d9a	0.10021515
17	0x3e2f4bff	0.17118834
18	0x3e5a9696	0.21346506
19	0x3e8735d0	0.26408243
20	0xbe950835	-0.29107824
21	0xbeb8a62e	-0.36064285
22	0x3daaf3c6	0.08347277
23	0x3dad763c	0.08469817
24	0x3e0ab355	0.13544972
25	0xbe45bf55	-0.19311269
26	0x3e1f981b	0.15585367
27	0x3c25f514	0.010129232
28	0xbe8e21e9	-0.27760246
29	0xbd4202e6	-0.047366045
30	0xbe93b9ef	-0.28852794
31	0x3e909db4	0.28245318
32	0x3d915605	0.07096485
33	0xbe36bef3	-0.17846279
34	0x3e2ac596	0.16676936
35	0x3d6584f4	0.056034997
36	0xbddc2e1b	-0.107509814
37	0xbe0fe0ab	-0.14050548
38	0xbe75cbbc	-0.240035
39	0xbe08ba6d	-0.13352366
40	0xbd4189e0	-0.04725063
41	0xbea0ce08	-0.3140719
42	0x3db85e49	0.090023585
43	0xbdc0e4ba	-0.09418626
44	0xbe7e2851	-0.24820067
45	0xbd626a3b	-0.05527709
46	0x3e9ab7cc	0.3021835
47	0xbe2ddb60	-0.16978216
48	0x3d1105de	0.035405986
49	0xbe4b6345	-0.19862087
50	0xbe7cf28e	-0.24701902
51	0x3e9579f8	0.29194617
52	0xbea18145	-0.31543937
53	0xbe4dbd65	-0.2009178
54	0xbd7ce6f2	-0.061743684
55	0xbdcc1119	-0.099641986
56	0x3d6e0a97	0.058115568
57	0x3e6cd4fc	0.23128122
58	0xbe71da63	-0.23618464
59	0xbe7b78b6	-0.24557766
60	0x3b07e1fd	0.0020734065
61	0xbe681823	-0.22665457
62	0x3c9161d1	0.017746838
63	0xbe89ac1a	-0.26889116

bn1.weight f4 [64]
0	0x3f7db267	0.99100345
1	0x3f80843f	1.0040358
2	0x3f7ebcb7	0.99506706
3	0x3f8b7955	1.0896403
4	0x3f813613	1.0094627
5	0x3f85d7d4	1.045649
6	0x3f824f41	1.0180436
7	0x3f863672	1.0485365
8	0x3f7533af	0.9578199
9	0x3f7db9dd	0.9911173
10	0x3f81603f	1.0107497
11	0x3f771f62	0.9653226
12	0x3f7d1c1e	0.9887103
13	0x3f76b10b	0.96363896
14	0x3f7fd2ea	0.99931204
15	0x3f7bdccf	0.983838
16	0x3f754a53	0.95816535
17	0x3f8e2505	1.1105047
18	0x3f6c3b8f	0.9227838
19	0x3f77ca04	0.96792626
20	0x3f80457c	1.0021205
21	0x3f86fb11	1.0545369
22	0x3f87397d	1.0564419
23	0x3f725a7d	0.94669324
24	0x3f755e1b	0.9584672
25	0x3f8f6dcf	1.1205386
26	0x3f72edb2	0.94893944
27	0x3f8765fb	1.0577997
28	0x3f870d16	1.0550869
29	0x3f73a8bf	0.9517936
30	0x3f75bea3	0.95994014
31	0x3f7d7f0d	0.9902199
32	0x3f863ee0	1.0487938
33	0x3f80cb5d	1.0062062
34	0x3f837f12	1.0273154
35	0x3f82db3b	1.0223154
36	0x3f817a65	1.0115477
37	0x3f89440c	1.0723891
38	0x3f702f22	0.9382192
39	0x3f75aacc	0.9596374
40	0x3f8448a0	1.0334663
41	0x3f803b10	1.0018024
42	0x3f78cf2b	0.97191113
43	0x3f7a966d	0.9788578
44	0x3f81070a	1.0080273
45	0x3f7f0dc3	0.99630374
46	0x3f7aca97	0.9796538
47	0x3f746cd5	0.95478565
48	0x3f83f7ce	1.0309999
49	0x3f938634	1.152533
50	0x3f756bd9	0.9586769
51	0x3f8121b7	1.0088414
52	0x3f88fdb6	1.0702426
53	0x3f7562a2	0.95853627
54	0x3f876667	1.0578126
55	0x3f737227	0.9509606
56	0x3f8429b7	1.032523
57	0x3f830354	1.0235391
58	0x3f757a36	0.95889604
59	0x3f80c7a8	1.006093
60	0x3f7821e6	0.96926725
61	0x3f8f7e9f	1.1210517
62	0x3f945aab	1.159017
63	0x3f7c77b8	0.98620176

bn1.bias f4 [64]
0	0x3b89961c	0.0041988026
1	0x3bc79794	0.0060910676
2	0xbd6c58c1	-0.05770183
3	0x3cb66cfd	0.022268767
4	0xbce27c0e	-0.027647045
5	0xbcefe72e	-0.02928504
6	0x3c53b771	0.012922154
7	0xbc9cf386	-0.01915909
8	0xbd1e62c5	-0.038668413
9	0xbc187038	-0.009304099
10	0xbc2869bf	-0.010279118
11	0xbd1e0970	-0.03858322
12	0xbc51da0d	-0.012808335
13	0xbcaa2ce7	-0.020773364
14	0x3bd6f185	0.006559553
15	0xbc0fe0ae	-0.008781595
16	0xbd334bc8	-0.043773443
17	0x3d24580a	0.040123023
18	0xbc5e1402	-0.013554575
19	0xbd14fdc8	-0.036374837
20	0xbd6e916a	-0.058244146
21	0xbb2f334b	-0.0026733454
22	0x3cca879a	0.024722863
23	0xbd007ee7	-0.031371024
24	0xbc73e25f	-0.014885514
25	0xbbc0a17e	-0.0058786264
26	0xbca1c983	-0.019749409
27	0x3d37860c	0.04480557
28	0x3c2fa001	0.0107193
29	0xbd33f2a2	-0.043932565
30	0xbd7b432f	-0.06134337
31	0xbccd5670	-0.02506563
32	0x3d257161	0.04039133
33	0xbc074e0e	-0.008258356
34	0x3c6917a9	0.014226832
35	0x3d79afbe	0.060958616
36	0x3c92c21d	0.017914826
37	0x3b2eec6a	0.0026691207
38	0xbd422236	-0.047395907
39	0xbd2dd136	-0.042435847
40	0xbd39e98d	-0.045388747
41	0xbc4f9134	-0.0126688965
42	0xbce37ee4	-0.027770467
43	0xbcca40fa	-0.024689186
44	0x3cb836b2	0.022487018
45	0x3cb84c4c	0.022497319
46	0xbc0effa9	-0.008727946
47	0xbcda29d5	-0.026631275
48	0x3aed6e6c	0.0018114573
49	0x3d80e938	0.06294483
50	0xbcd702d2	-0.026246462
51	0xbcae5663	-0.021281427
52	0x3cccbc2c	0.024992071
53	0xbd30be10	-0.043150008
54	0xbbb751a5	-0.0055944496
55	0xbd326b3b	-0.043559294
56	0x3d1cd27f	0.038286682
57	0x3b54e22d	0.0032483444
58	0xbc7b02d7	-0.015320501
59	0x3c308f01	0.010776282
60	0xbd29f635	-0.041494567
61	0xbc21188c	-0.009832513
62	0x3d0d1433	0.03444309
63	0x3b9d5277	0.0048010903

bn1.running_mean f4 [64]
0	0xbe9a41b0	-0.3012824
1	0xbc876849	-0.01652922
2	0x3e1a5615	0.150719
3	0xbe7880cf	-0.24267887
4	0xbc215b85	-0.00984848
5	0x3e8cee5f	0.27525613
6	0x3e963c2e	0.29342788
7	0x39aabbb0	0.00032564765
8	0xbe9a5d6e	-0.30149406
9	0x3e06b576	0.1315516
10	0x3d372321	0.044711236
11	0xbbf13595	-0.007361124
12	0x3c703e65	0.0146633135
13	0x3e13c795	0.14431603
14	0x3e4100b1	0.1884792
15	0x3d1696db	0.03676496
16	0x3e26e8e3	0.16299777
17	0x3e1a6131	0.15076138
18	0x3e93e28b	0.28883776
19	0x3e986392	0.29763466
20	0xbe996eb4	-0.29967272
21	0xbed4c593	-0.41556987
22	0x3d45eb15	0.048319895
23	0x3e1aea4c	0.1512844
24	0x3e33acb0	0.17546344
25	0xbe7aafee	-0.24481174
26	0x3e50b681	0.2038212
27	0xbd341da9	-0.0439736
28	0xbe9e082c	-0.3086561
29	0xbd007b07	-0.031367328
30	0xbe352e67	-0.17693482
31	0x3e7efd9c	0.24901432
32	0x3d30c0d6	0.043152653
33	0xbe310c37	-0.17289816
34	0x3e1abacc	0.1511032
35	0x3d5868fc	0.052834496
36	0xbdff318d	-0.12460623
37	0xbe2719d9	-0.16318454
38	0xbe385806	-0.18002328
39	0x3c0dd7cf	0.00865741
40	0xbd4fd777	-0.050742593
41	0xbec11931	-0.37714532
42	0x3d8ac67a	0.06776138
43	0xbdabdb9a	-0.08391495
44	0xbe8718b5	-0.26386037
45	0xbd97bca7	-0.074090295
46	0x3e996f12	0.29967552
47	0xbe038f69	-0.12847675
48	0x3b80ce9a	0.003930879
49	0xbe4ddc8a	-0.2010366
50	0xbe2ce7ad	-0.16885252
51	0x3e885248	0.26625276
52	0xbeb2f649	-0.34953526
53	0xbe271a63	-0.1631866
54	0xbdf7b30a	-0.12094696
55	0xbd711690	-0.058859408
56	0x3c41da14	0.011831779
57	0x3e585411	0.21125819
58	0xbe52d70c	-0.20589846
59	0xbe7a64a3	-0.24452452
60	0x3d3e3a2d	0.0464422
61	0xbe8235f9	-0.25431803
62	0xbc6de120	-0.014519006
63	0xbec79e54	-0.38987982

bn1.running_var f4 [64]
0	0x3bd314bf	0.006441682
1	0x3b85a72a	0.0040787654
2	0x3bf27194	0.0073987935
3	0x3c693d1c	0.014235761
4	0x3c6d2270	0.014473543
5	0x3c8ca206	0.017167103
6	0x3c32db2c	0.010916512
7	0x3c167072	0.0091820825
8	0x3cf6173a	0.030040372
9	0x3b9526bd	0.004551737
10	0x3c655423	0.013997111
11	0x3bca6a3c	0.006177215
12	0x3c4e81fd	0.012604234
13	0x3bce7cae	0.006301484
14	0x3c1a1af5	0.009405841
15	0x3bb762dc	0.0055965018
16	0x3cc1000d	0.023559595
17	0x3b8f7eb0	0.004379116
18	0x3cc750f6	0.024330597
19	0x3ca872dd	0.020562584
20	0x3c0a6e6b	0.008449177
21	0x3c8fb798	0.017543599
22	0x3c43419b	0.011917497
23	0x3cb76581	0.022387268
24	0x3c9239e8	0.017849877
25	0x3ca0e29b	0.019639304
26	0x3c38f8ac	0.011289757
27	0x3cb0dc21	0.02158934
28	0x3c5c9c67	0.013465024
29	0x3b820b4e	0.003968633
30	0x3d3767dd	0.044776786
31	0x3c418c22	0.011813195
32	0x3c0809a7	0.008303083
33	0x3c730dc0	0.014834821
34	0x3b795a94	0.0038048374
35	0x3b4fe814	0.0031724023
36	0x3c327c7a	0.010893935
37	0x3bd8d22c	0.0066168513
38	0x3cef3d11	0.029203923
39	0x3da0d072	0.07852258
40	0x3b17c6a7	0.0023159178
41	0x3c932e18	0.017966315
42	0x3c47af39	0.012187772
43	0x3c543bff	0.012953757
44	0x3ba8d375	0.005152161
45	0x3c2edbf2	0.010672556
46	0x3bb0e61f	0.0053985263
47	0x3cbdd8e1	0.023174705
48	0x3c2e8409	0.010651597
49	0x3b519d09	0.003198447
50	0x3cfec770	0.031100959
51	0x3c11150a	0.008855114
52	0x3c3fcca8	0.011706509
53	0x3c7461d6	0.014915904
54	0x3ccbb76d	0.024867738
55	0x3c7321ca	0.014839599
56	0x3c4b551d	0.012410429
57	0x3c58de2b	0.013236563
58	0x3b824d3f	0.0039764936
59	0x3b9dd8e2	0.004817114
60	0x3c5c5428	0.013447799
61	0x3c023100	0.007946253
62	0x3c22d515	0.009938498
63	0x3d6fe87d	0.058571327

conv2.weight f4 [64, 64, 3, 3]
0	0xbd78f071	-0.060776178
1	0xbcd35cea	-0.02580114
2	0x3b023437	0.0019867548
3	0xbd237420	-0.039905667
4	0xbd08c2ed	-0.03338902
5	0x3bde7919	0.0067893383
6	0xbcf010c5	-0.029304871
7	0xbd27c19d	-0.04095613
8	0x3c01f701	0.0079324255
9	0xbcd3a961	-0.025837602
10	0xbc265fb8	-0.010154657
11	0x3cd0c9e9	0.025486903
12	0xbcf69443	-0.030099994
13	0xbb7b941c	-0.003838784
14	0x3cf209cd	0.029545689
15	0xbba8533c	-0.0051368754
16	0x3bb9841e	0.0056615015
17	0xbc70850c	-0.014680158
18	0xbd226fb9	-0.03965733
19	0x3cb97351	0.022637995
20	0x3cb8c5b9	0.022555219
21	0xbd1b6a0a	-0.037942924
22	0x3b94ff83	0.004547061
23	0x3cdbf421	0.026849808
24	0xbca8d0bf	-0.02060735
25	0xbb73f1b6	-0.0037222928
26	0xbc1c16ba	-0.009526903
27	0xbd0e4fc5	-0.034744043
28	0xbd1bfb3e	-0.0380814
29	0xbce3a617	-0.027789159
30	0xbca028c8	-0.019550696
31	0x3ce09a1e	0.027417239
32	0xbcdcda87	-0.02695967
33	0xbc0c5d84	-0.008567218
34	0x3cd4761c	0.025935225
35	0xbd1750de	-0.036942355
36	0xbba063f4	-0.004894728
37	0x3c379ab7	0.0112063205
38	0x3b80e622	0.003933684
39	0xbcbfaa3a	-0.0233966
40	0x3c65e231	0.014030979
41	0x3cdbc4a7	0.02682717
42	0xbd0fe019	-0.035125826
43	0xbccea654	-0.025225796
44	0xbb76da78	-0.0037666839
45	0x3c8821d9	0.016617702
46	0x3a992914	0.0011685216
47	0x3cc2dcf9	0.023787009
48	0x3a05ea7d	0.0005108489
49	0x3d0c1d07	0.03420737
50	0x3c63cbb9	0.013903552
51	0x3c90770b	0.01763489
52	0x3c54baba	0.012983972
53	0x3b2a5b07	0.0025994198
54	0x3cbe2ea3	0.023215597
55	0xbcff9da7	-0.031203104
56	0xbcb7b4a8	-0.02242501
57	0xbc7f2412	-0.015572565
58	0xbcedce69	-0.029029088
59	0xbcc22c66	-0.023702811
60	0x3ceba553	0.028765356
61	0xbba2dd08	-0.0049701966
62	0x3be91263	0.0071127876
63	0xbd745d96	-0.059659563
64	0xbc5297b5	-0.012853553
65	0xbd1906fb	-0.037360173
66	0xbd12cd48	-0.035840303
67	0x3bcf228c	0.006321257
68	0xbc3997bc	-0.01132768
69	0x3cf9440c	0.030427955
70	0x3c10b221	0.008831532
71	0xbd218e96	-0.03944262
72	0x3a5574da	0.00081427174
73	0x3c3c798d	0.011503589
74	0xbbdd68d7	-0.0067568826
75	0xbc98066f	-0.018557755
76	0xbcc68ea6	-0.024237942
77	0x3d1084dd	0.03528296
78	0x3c047637	0.008084825
79	0x3d20a94a	0.039223947
80	0x3d69bedb	0.05706678
81	0x3c8415b8	0.016123638
82	0x3cf613e6	0.030038785
83	0xbd333338	-0.043750018
84	0xbd047e98	-0.03234729
85	0xbcacdc7c	-0.021101229
86	0x3c4cebab	0.0125073595
87	0xbc4e4c22	-0.012591394
88	0xbcbb85d5	-0.022890965
89	0xbba23371	-0.00494998
90	0x3c0aad22	0.00846413
91	0x3c3bac8d	0.0114547135
92	0xbca7ad09	-0.020468252
93	0x3d0332b1	0.032030765
94	0xbd2d8830	-0.042366207
95	0xbd26e44a	-0.040745057
96	0x3c973f66	0.018462848
97	0x3bde9013	0.0067920773
98	0xbc777217	-0.015102885
99	0xbc4d4982	-0.012529733
100	0xbc4f2bb8	-0.012644701
101	0xbcf27db3	-0.029600954
102	0xbd31511a	-0.043290235
103	0xbce6888a	-0.028141279
104	0xbd3c9ebd	-0.046049822
105	0xbbe9eab4	-0.0071385745
106	0x3ccbdef5	0.024886588
107	0xbd2397e0	-0.03993976
108	0xbbb8b451	-0.0056367298
109	0xbc408cf2	-0.011752354
110	0x3cc99ae0	0.024609983
111	0xbc8c5b44	-0.017133363
112	0xbcbe10ad	-0.023201311
113	0x3cbe9b6b	0.023267468
114	0xbcebb05e	-0.028770622
115	0x3c82947e	0.015939947
116	0xbc84287a	-0.016132582
117	0xbd4ae4e3	-0.04953469
118	0xbc7482c0	-0.014923751
119	0x3cc65fac	0.024215542
120	0x3ba18054	0.004928628
121	0x3c10571b	0.00880983
122	0x3bef3ba5	0.0073008114
123	0xb9ac9def	-0.00032924066
124	0xbc998a5b	-0.01874273
125	0x3c8f5aff	0.017499445
126	0x3afa53be	0.0019098443
127	0x3b00fc21	0.001968153
128	0xbd1a96cc	-0.037741467
129	0xbc1f78cf	-0.009733393
130	0x3c58c52c	0.013230603
131	0x3b933ff0	0.004493706
132	0xbd5bbcbd	-0.05364679
133	0xbd20adc4	-0.039228216
134	0xbd49e7e2	-0.049293406
135	0xbd46975d	-0.048484195
136	0x3ca8c052	0.020599518
137	0xbcf79f99	-0.03022747
138	0x3c2f3bfb	0.010695453
139	0xbcafa6b3	-0.021441793
140	0xbd23aaa6	-0.039957665
141	0xbcb144cb	-0.021639248
142	0x3c5119d9	0.01276251
143	0xbc2bc8fc	-0.01048493
144	0xbd2a4d60	-0.041577697
145	0xbce69c1f	-0.028150616
146	0xbd1eaff3	-0.038742017
147	0x3d2ca2ec	0.042147562
148	0x3c99c35e	0.018769916
149	0xbb8905f2	-0.004181617
150	0xbd527c37	-0.05138799
151	0x3d04a0ff	0.0323801
152	0x3bb6d91c	0.0055800807
153	0xbd7b6dfd	-0.06138419
154	0xbc40f16d	-0.01177631
155	0x3b11bea8	0.0022238884
156	0xb9dcaff2	-0.0004209276
157	0x3cedadb2	0.029013488
158	0xbb155714	-0.0022787498
159	0xbcc8a224	-0.024491377
160	0xbd863ec0	-0.06554937
161	0xbd2a19d2	-0.04152853
162	0x3d069ba8	0.03286329
163	0x3d14b5a0	0.036306024
164	0xbcf73d64	-0.03018064
165	0x3c3fa4c5	0.011696999
166	0xbc32c4b4	-0.0109111555
167	0x3d06e49f	0.032932874
168	0x3d00e94b	0.031472486
169	0xbcb6a4e3	-0.022295421
170	0x3cd2bc48	0.025724545
171	0x3bb4ce3d	0.0055177496
172	0xbcbad5bf	-0.022807
173	0xbb70d3ab	-0.0036747258
174	0x3ca549ff	0.020176886
175	0xbd044a00	-0.032297134
176	0x3c5264fa	0.0128414575
177	0xbc060337	-0.008179477
178	0xbc0a776f	-0.008451327
179	0x3c2400eb	0.0100099845
180	0x3cbb9895	0.022899905
181	0x3cb311a0	0.02185899
182	0xbb4acaab	-0.0030943553
183	0x3cd036b6	0.025416713
184	0x3cfac5a6	0.030611824
185	0x3b6cee6b	0.003615285
186	0x3cb060c1	0.02153051
187	0xbd1555eb	-0.03645889
188	0xbb180a5d	-0.0023199536
189	0xbcfef31c	-0.031121783
190	0x3d2932e3	0.041308295
191	0x3c6b34b9	0.014355832
192	0xbcc4a5f0	-0.024004906
193	0x3b56ab15	0.0032755781
194	0xbc58efb8	-0.013240747
195	0xba666650	-0.00087890495
196	0xbc7c5f4c	-0.01540358
197	0xbdb46855	-0.08808962
198	0xbd57c357	-0.052676525
199	0x3c69156a	0.014226297
200	0xbc7eb449	-0.015545913
201	0x3b886392	0.0041622603
202	0xbd11378c	-0.035453364
203	0xbc83182c	-0.016002737
204	0xbc456794	-0.012048621
205	0xbd0084bf	-0.031376597
206	0xbb9bfede	-0.004760607
207	0xbd577ffb	-0.052612286
208	0xbc8c9c17	-0.017164273
209	0xbce14670	-0.027499408
210	0xbc1b0b66	-0.009463167
211	0xbcb0b640	-0.021571279
212	0xbb683a99	-0.0035435318
213	0x3b67912a	0.0035334327
214	0xbc11a596	-0.008889576
215	0xbc7e1da2	-0.015509995
216	0x3a519394	0.0007994708
217	0xbc8df359	-0.017327951
218	0xbd52724e	-0.05137854
219	0x3caadb52	0.020856533
220	0x3ca93ffd	0.020660395
221	0x39fb94e2	0.00047985377
222	0x3cd35d27	0.025801254
223	0xbc55169a	-0.013005877
224	0x3c533772	0.012891637
225	0x3c96ff82	0.018432382
226	0xbbcf3ef7	-0.0063246447
227	0xbc6a81dd	-0.014313188
228	0x3d351660	0.04421079
229	0x3c06785a	0.008207405
230	0x3c072cce	0.008250428
231	0x3c76f691	0.015073434
232	0x3b955f13	0.004558453
233	0xbcf52eab	-0.02992948
234	0x3b098ad4	0.002098729
235	0x3b194918	0.0023389515
236	0xbc916aac	-0.01775106
237	0xbcb491a6	-0.022042107
238	0x3ce3fd7b	0.02783083
239	0x3d1bf411	0.038074557
240	0x3d155813	0.036460947
241	0x390ab458	0.00013227889
242	0xbbb7ee41	-0.005613119
243	0xbcde6fe9	-0.027152972
244	0xbc0096f3	-0.007848489
245	0x3b897bf1	0.004195683
246	0x3c8fbbe4	0.017545648
247	0xbc09ffbc	-0.008422788
248	0xbb79f95a	-0.003814301
249	0x3cfee089	0.031112926
250	0xbcbb62e5	-0.022874305
251	0xbcae9ee1	-0.021315994
252	0x3b9406a4	0.004517393
253	0xbc5bf2d5	-0.013424595
254	0x3b23ce0c	0.002499464
255	0x3be6eb0f	0.007047064

conv2.bias f4 [64]
0	0xb7a70cc0	-1.9913889e-05
1	0x3c5e4099	0.013565206
2	0x3d299d7c	0.041409954
3	0xbb3da123	-0.0028935156
4	0xbb75a072	-0.0037479666
5	0xbbb13658	-0.0054080896
6	0x3c3cdff2	0.011528002
7	0x3d41a1e0	0.047273517
8	0xba609e1a	-0.0008568481
9	0xbb39b615	-0.002833729
10	0xbcee77a3	-0.029109782
11	0x3c1fa401	0.009743691
12	0xbca3e4f7	-0.02000664
13	0xbcee3186	-0.029076349
14	0xbd20577f	-0.039145943
15	0x3cd106cc	0.025515936
16	0x3cbe956f	0.023264615
17	0xbd1cc81b	-0.038276773
18	0x3c25b1d3	0.010113197
19	0xbcd8604d	-0.026413107
20	0xbd0970cd	-0.03355484
21	0x3c50432a	0.012711326
22	0xbd11140c	-0.03541951
23	0x3c210e18	0.00983002
24	0xbbaa0adf	-0.005189284
25	0x3c8cd112	0.017189536
26	0x3d2c3c42	0.042049654
27	0xbd27a882	-0.040932186
28	0x3c7ed967	0.015554762
29	0xbc380733	-0.011232185
30	0xbbb400c0	-0.0054932535
31	0xbbc81743	-0.0061062886
32	0xbae9a290	-0.0017824937
33	0xbd0a4b65	-0.033763308
34	0x3cd91276	0.02649806
35	0xba9ba27a	-0.0011873983
36	0xbc022e91	-0.007945673
37	0xbbdd3674	-0.006750876
38	0xbb8a0277	-0.0042117196
39	0xbc585a60	-0.013205141
40	0x3cacd513	0.021097695
41	0x3c4df951	0.012571649
42	0xbd146378	-0.036227673
43	0x3c9362d8	0.017991468
44	0x3c8b0344	0.01696933
45	0xbcff0d1f	-0.031134186
46	0x3d195bed	0.037441183
47	0x3c50eabe	0.012751279
48	0x3d03293b	0.032021742
49	0xbc0e0ac5	-0.00866956
50	0x3c20cdd6	0.0098147
51	0xbcb62c8c	-0.022238038
52	0xbcc55788	-0.02408959
53	0x3d5b4ea1	0.053541783
54	0xbd20d16d	-0.039262224
55	0xbd17909c	-0.037003145
56	0x3c54e4b8	0.012993984
57	0xbc6c52a0	-0.014423996
58	0xbd854312	-0.06506933
59	0x3afeaddb	0.0019430475
60	0x3c33330e	0.010937465
61	0x3d4b03b7	0.04956409
62	0x3c2962e7	0.010338522
63	0xbce1a7a0	-0.02754575

bn2.weight f4 [64]
0	0x3f76f9dc	0.96475005
1	0x3f827390	1.0191517
2	0x3f7be6b5	0.98398906
3	0x3f7bc58f	0.98348325
4	0x3f81fd03	1.0155338
5	0x3f71539b	0.94268197
6	0x3f7efa77	0.9960093
7	0x3f75c1a0	0.95998573
8	0x3f7813b3	0.9690506
9	0x3f811ea5	1.0087477
10	0x3f7ebcc6	0.99506795
11	0x3f7effb5	0.9960893
12	0x3f7b9f4c	0.9828994
13	0x3f7fce82	0.9992448
14	0x3f76b943	0.96376437
15	0x3f81a241	1.0127641
16	0x3f747106	0.9548496
17	0x3f851f80	1.0400238
18	0x3f80572a	1.00266
19	0x3f806b91	1.0032827
20	0x3f837af6	1.02719
21	0x3f85cd3f	1.0453261
22	0x3f7f825b	0.9980828
23	0x3f777811	0.9666758
24	0x3f7e4025	0.99316627
25	0x3f82032c	1.0157218
26	0x3f7c32e0	0.9851513
27	0x3f72e5ee	0.94882095
28	0x3f7b33e8	0.9812608
29	0x3f832ce3	1.0248073
30	0x3f7709ed	0.9649952
31	0x3f7eb451	0.9949389
32	0x3f74c59d	0.95614034
33	0x3f7c0c37	0.9845614
34	0x3f820066	1.0156372
35	0x3f786952	0.97035706
36	0x3f7af8c8	0.9803586
37	0x3f81447c	1.0099025
38	0x3f7f5f03	0.9975435
39	0x3f7fde68	0.9994874
40	0x3f803ec2	1.0019152
41	0x3f7e4ebd	0.99338895
42	0x3f88a3d5	1.0674998
43	0x3f8472be	1.0347517
44	0x3f7a44e5	0.97761375
45	0x3f77b66a	0.96762717
46	0x3f808dda	1.004329
47	0x3f80d3d8	1.006465
48	0x3f794104	0.9736483
49	0x3f771902	0.96522534
50	0x3f7fd773	0.99938124
51	0x3f7f68ea	0.9976946
52	0x3f83e8bf	1.0305403
53	0x3f80769c	1.0036197
54	0x3f7e19d2	0.9925815
55	0x3f86d833	1.0534729
56	0x3f836734	1.026587
57	0x3f86520d	1.049379
58	0x3f870d91	1.0551015
59	0x3f8157a6	1.0104873
60	0x3f7fce07	0.9992375
61	0x3f8098e5	1.004666
62	0x3f785f23	0.9702017
63	0x3f8165b2	1.010916

bn2.bias f4 [64]
0	0xbd41fe08	-0.047361404
1	0xbc7d3c91	-0.015456335
2	0xbc76709c	-0.015041497
3	0xbd01d7bf	-0.031699892
4	0xbcfbe5b1	-0.030749174
5	0xbd922d97	-0.07137602
6	0xbd0a37f6	-0.033744775
7	0xbb945f56	-0.0045279665
8	0xbd1965b9	-0.037450526
9	0xbc66a16e	-0.014076574
10	0x3c85ab3f	0.016317008
11	0xbd247b3b	-0.040156584
12	0xbc86aab4	-0.01643882
13	0xbc6a8d34	-0.014315892
14	0xbda47c76	-0.080315515
15	0x3ccc3fb1	0.024932714
16	0xbcc4d854	-0.024028935
17	0x3d9e0b61	0.07717014
18	0x3c36c515	0.011155386
19	0xbc09b6b9	-0.008405381
20	0x3d93f8d2	0.07225193
21	0x3d20d997	0.03927001
22	0xbc105a83	-0.008810642
23	0xbb9f3892	-0.0048590386
24	0xbc36e784	-0.011163596
25	0xbc6ee98d	-0.01458205
26	0xbc17179e	-0.009221939
27	0xbcbb2bbf	-0.022848008
28	0xbc9d89e7	-0.019230796
29	0x3bf4c539	0.0074698
30	0xbd54b432	-0.05192966
31	0xbcfe7e6f	-0.031066148
32	0xbd334a14	-0.04377182
33	0xbd127321	-0.035754327
34	0xbd87f87a	-0.0663919
35	0xbbc99787	-0.0061520967
36	0xbd75645c	-0.059910163
37	0xbce25ed7	-0.027633114
38	0xbc378933	-0.011202144
39	0xbc392d80	-0.011302352
40	0xbd59084d	-0.052986432
41	0xbd5535f9	-0.052053425
42	0x3cc9ee91	0.02464989
43	0xbc8b8c63	-0.017034715
44	0xbd08bb3b	-0.033381682
45	0xbc419bd6	-0.011816939
46	0xbc82767e	-0.015925642
47	0x3cbed68a	0.02329566
48	0xbd1415ed	-0.036153723
49	0xbc9ad2e0	-0.018899381
50	0xbd09c010	-0.03363043
51	0xbcd42f86	-0.025901567
52	0x3d2f266c	0.04276125
53	0xbd3b1314	-0.04567249
54	0xbd0c1a6e	-0.034204893
55	0x3cd88875	0.026432255
56	0x3b5915bc	0.0033124527
57	0xbcf344bf	-0.029695867
58	0x3ce8df8c	0.028426908
59	0xbc77a60a	-0.01511527
60	0xbc6f2e82	-0.014598491
61	0xbba6097d	-0.005067049
62	0xbd2725d0	-0.040807545
63	0x3baf5082	0.0053501735

bn2.running_mean f4 [64]
0	0xbfe8259b	-1.8136476
1	0xbd9d0d24	-0.07668522
2	0x3f0b224b	0.543492
3	0xbfbc8f25	-1.4731184
4	0x3d1d3d22	0.03838838
5	0x3fb8f175	1.4448687
6	0xbd9b0b23	-0.075704835
7	0x3fe2c311	1.771578
8	0x3e63f76c	0.22262353
9	0x3d4ed4e6	0.050496005
10	0xbd4d6968	-0.05014935
11	0xbf5791d7	-0.8420691
12	0xbf2751b1	-0.65359026
13	0x3f9b1508	1.2115793
14	0xbfbff1dc	-1.4995685
15	0xbe363069	-0.17791905
16	0xbe35c596	-0.17751154
17	0x3f6e9171	0.93190676
18	0xbf9e18ce	-1.235132
19	0x3f54a950	0.8307085
20	0x3fa6ee3d	1.3041455
21	0x3f3f0109	0.74610955
22	0xc02e9fae	-2.728496
23	0xbdff4aed	-0.12465463
24	0xbf1f0d0e	-0.62129295
25	0x3ea8b40d	0.32949868
26	0x3da0a40a	0.07843788
27	0x3f94aab1	1.1614591
28	0xbf71a1ea	-0.94387686
29	0xbf560e62	-0.83615696
30	0xbf327e7f	-0.6972427
31	0x3e8a1be9	0.2697442
32	0xbfdf360d	-1.743837
33	0xbf0ac736	-0.5421022
34	0xbe8e9e42	-0.27855116
35	0xbea9e956	-0.33185834
36	0xbe2575ee	-0.16158268
37	0xbd4ba830	-0.049720943
38	0x3f8cd898	1.1003599
39	0xbf250a57	-0.644689
40	0x3e47917c	0.19489092
41	0x3f5c0b54	0.85954785
42	0x3ffc0938	1.9690313
43	0x3fb338ce	1.400171
44	0xbf707ea5	-0.93943244
45	0xbd80a180	-0.06280804
46	0xc0155fe5	-2.333978
47	0x3f692150	0.91066456
48	0xbf3d5064	-0.7395079
49	0x3f6e8a96	0.93180215
50	0x3f0aa54b	0.5415847
51	0xbf00c873	-0.5030586
52	0xbca50ecf	-0.020148663
53	0x3f96c5a8	1.177907
54	0xbf4cc5a0	-0.7998905
55	0x3fb7a861	1.434826
56	0x3edd3dfe	0.4321136
57	0xbfbc3d0b	-1.4706129
58	0xbfd5250f	-1.6651934
59	0xbfa62194	-1.2978997
60	0xbfbafdc5	-1.4608694
61	0x3e6214b7	0.22078215
62	0xbf9cebf5	-1.2259508
63	0x3f97cded	1.1859719

bn2.running_var f4 [64]
0	0x3fef34a9	1.8687946
1	0x4016c4b9	2.355757
2	0x403acbaa	2.9186807
3	0x40b114e4	5.5338
4	0x402e263f	2.7210844
5	0x40bc9de4	5.8942738
6	0x400e2e5a	2.221579
7	0x3f8c01b8	1.0938025
8	0x4010173d	2.2514184
9	0x3feb0512	1.8360922
10	0x3ff9d099	1.9516784
11	0x403dd856	2.966329
12	0x3ffd6987	1.9797829
13	0x403373ca	2.8039422
14	0x4005645f	2.0842512
15	0x3ffc458e	1.9708726
16	0x4024d688	2.575594
17	0x3fa7c3de	1.3106649
18	0x409c3c2e	4.882346
19	0x3fcc1e93	1.594683
20	0x3f80c89c	1.0061221
21	0x3fe21910	1.7663898
22	0x40bf9263	5.9866195
23	0x3fc306cf	1.5236453
24	0x4027587a	2.6147752
25	0x3ff57c23	1.9178509
26	0x400b1f9e	2.1738048
27	0x40ae0cdd	5.43907
28	0x407a2d1d	3.9090035
29	0x402861c0	2.6309662
30	0x404fbdea	3.2459664
31	0x3ff70fa3	1.9301647
32	0x4091d3a5	4.5570855
33	0x40025c1a	2.0368714
34	0x3ff32b85	1.8997656
35	0x4068f9be	3.640243
36	0x400f91d2	2.2432752
37	0x4075cf26	3.8407683
38	0x4047280c	3.1118193
39	0x40a2158a	5.0651293
40	0x408e1739	4.440335
41	0x409657f7	4.698238
42	0x40894272	4.289361
43	0x40536a83	3.303376
44	0x4099f558	4.811199
45	0x4037c3f9	2.8713362
46	0x4085c27b	4.1799903
47	0x3fbf978a	1.4968121
48	0x40c29649	6.0808454
49	0x40890291	4.2815633
50	0x4052469b	3.2855594
51	0x40255a38	2.5836315
52	0x3fd5fa65	1.6717039
53	0x4049bc2f	3.1521108
54	0x3f99db1d	1.2019993
55	0x3fb25241	1.3931352
56	0x403d5b7b	2.9587085
57	0x3ffa8334	1.957129
58	0x40164627	2.3480318
59	0x40731451	3.798115
60	0x403c2243	2.9395912
61	0x402d29b8	2.7056713
62	0x4097fcc1	4.7496037
63	0x3f63fe3b	0.890598

conv3.weight f4 [64, 64, 3, 3]
0	0xbc282e44	-0.010264937
1	0x3cfdb341	0.030969264
2	0xbdb05426	-0.086098
3	0x3cb97e2c	0.022643171
4	0xbc212b56	-0.009836992
5	0xbd17dc43	-0.037075292
6	0xbcfcb049	-0.030845778
7	0x3bc640cc	0.006050205
8	0xbc1bc693	-0.009507793
9	0xbba9b335	-0.005178834
10	0xbd140511	-0.036137644
11	0xbcfb9cd8	-0.030714437
12	0xbcf33818	-0.029689834
13	0xbbf583f0	-0.007492535
14	0xbd6dbca8	-0.058041245
15	0x3c92654a	0.017870564
16	0x3c9a7876	0.018856268
17	0xbd28c3aa	-0.041202225
18	0xbca803bb	-0.020509591
19	0xbc6351ad	-0.0138744535
20	0xbbd73cdc	-0.0065685343
21	0x3caf1813	0.021373784
22	0xbd2c1e24	-0.04202093
23	0xbc7c0939	-0.015383058
24	0x3d297043	0.041366827
25	0x3cb473be	0.022027846
26	0x3cc27de7	0.023741676
27	0x3ca51051	0.020149382
28	0x3928992f	0.00016078794
29	0x3c993720	0.018703043
30	0x3d8059c6	0.06267123
31	0x3cd2fe18	0.025755927
32	0xbcc7afe2	-0.02437586
33	0x3d81dba8	0.06340724
34	0x3bd1344d	0.0063844086
35	0xbcf43259	-0.029809164
36	0x3d801fde	0.06256078
37	0x3d5bbf8e	0.053649478
38	0x3d483011	0.048873965
39	0x3daf2fb2	0.08554019
40	0x3c388155	0.011261304
41	0x3b2b8aa6	0.002617517
42	0x3d5b59b9	0.053552363
43	0x3cdb5d1f	0.026777802
44	0x3d562c4d	0.052288342
45	0xbd238a11	-0.039926592
46	0xbcef3be4	-0.029203363
47	0xbd19a53a	-0.037511088
48	0xbd76af66	-0.060225867
49	0x3cd81885	0.02637888
50	0x3ce70ef8	0.02820538
51	0xbc1b4747	-0.009477443
52	0xbcb939c8	-0.02261056
53	0xbd0d1b73	-0.034450006
54	0x3d47883e	0.048713915
55	0x3d2bb634	0.04192181
56	0x3d6f5f56	0.05844053
57	0x3d0747e6	0.033027552
58	0x3cec81f3	0.028870558
59	0x3c01997a	0.007910127
60	0x3cf5a12b	0.029984077
61	0x3ca2eb49	0.019887583
62	0x3ccf58a6	0.025310826
63	0xbd37bc13	-0.044857096
64	0xbd10bfef	-0.035339292
65	0x3b85b95f	0.004080936
66	0xbd66b094	-0.05632074
67	0xbc3bc56f	-0.011460646
68	0xbcfc7cce	-0.03082123
69	0xbd698a54	-0.057016686
70	0xbd84e2b9	-0.064885564
71	0xbcacf954	-0.021114983
72	0x3bc762c5	0.0060847723
73	0x3d55948b	0.052143615
74	0x3d7aff90	0.06127888
75	0x3d480d44	0.048840776
76	0x3ccc2ac1	0.02492273
77	0x3d2845fd	0.04108237
78	0x3d025943	0.031823408
79	0x3d34b476	0.044117413
80	0xbc3a635c	-0.011376228
81	0x3d466a75	0.04844137
82	0xba965b12	-0.0011471233
83	0xbbe9365b	-0.0071170754
84	0xbc0d6013	-0.008628863
85	0x3cd163a2	0.025560204
86	0x3cdf2c95	0.027242938
87	0x3d075e9a	0.033049203
88	0x3ce00e99	0.02735071
89	0x3d0c7763	0.034293544
90	0x3c0f2d58	0.008738838
91	0xbcce51f5	-0.025185565
92	0xbc0b7e72	-0.008514034
93	0xbc6bb33d	-0.014385995
94	0x3ca2005d	0.019775564
95	0xbcb7d714	-0.022441424
96	0x3ce9501c	0.028480582
97	0xbcf3881e	-0.029727992
98	0x3cd4541a	0.025919009
99	0x3d2afde1	0.041746024
100	0x3ce9a8be	0.028522845
101	0xbc82f320	-0.015985072
102	0x3d952280	0.07281971
103	0x3d6680df	0.056275245
104	0x399d31bd	0.0002998243
105	0x3c93b147	0.018028868
106	0x3d195c4a	0.03744153
107	0x3d05a741	0.03263021
108	0x3cf7f4e2	0.030268136
109	0x3d326b82	0.04355956
110	0x3d90456c	0.07044491
111	0x3cc40ef3	0.02393291
112	0x3c250481	0.010071875
113	0x3d22d812	0.039756842
114	0x3d900ab9	0.07033295
115	0x3cd79a1b	0.0263186
116	0xbc5f7375	-0.013638367
117	0xbccfa8bb	-0.025349012
118	0x3ba8015e	0.005127116
119	0x3ce0a00b	0.027420064
120	0xbd0b171f	-0.033957597
121	0x3c658f8d	0.014011276
122	0xbd06796f	-0.03283065
123	0xbc81fb11	-0.015866788
124	0x38483090	4.7728943e-05
125	0xbd1e0366	-0.03857746
126	0xbd12f7de	-0.035880916
127	0x3c4457e2	0.0119838435
128	0xbd1d0a46	-0.038339876
129	0x3bd2e903	0.0064364686
130	0x3d30f8f8	0.043206185
131	0xbbdf8086	-0.006820741
132	0x3cd7ac14	0.02632717
133	0xbcc73253	-0.024315989
134	0xbd23e5d2	-0.040014096
135	0x3d1f5d19	0.038907144
136	0x3d8b30ab	0.06796392
137	0xbd373620	-0.044729352
138	0x3d302526	0.043004178
139	0x3aa53f49	0.0012607361
140	0xba914c0f	-0.0011085289
141	0xbb6939c5	-0.0035587412
142	0x3d10a97d	0.035317887
143	0xbd081b8e	-0.033229403
144	0x3b5dbcc2	0.0033834432
145	0xbb540231	-0.003234994
146	0xbd0a8334	-0.03381653
147	0x3b2ae379	0.0026075526
148	0x3ce0609d	0.027389819
149	0x3cdda9db	0.027058532
150	0x3bce6845	0.006299051
151	0xbcd73898	-0.026272103
152	0x3c546665	0.012963866
153	0xbc03101e	-0.007999448
154	0xbd28bd15	-0.041195948
155	0xbc98c146	-0.018646847
156	0xbcb1fb5f	-0.021726308
157	0x3d1fd054	0.039017037
158	0xbc04cfa7	-0.008106149
159	0xbc85527f	-0.016274689
160	0x3b742b7e	0.0037257369
161	0xbd06f3ce	-0.032947354
162	0xbd6566b5	-0.056006152
163	0xba96e735	-0.0011512997
164	0xbd570013	-0.052490305
165	0xb9c6bf9b	-0.0003790826
166	0xbb0063e6	-0.0019590794
167	0x3c564cc2	0.013079824
168	0xbc42bdaf	-0.011886044
169	0xbc0fd1a0	-0.008778006
170	0x3ce2bc3f	0.027677653
171	0x3c8e4de2	0.017371122
172	0xbcb02ef7	-0.02150677
173	0xbc33f38b	-0.010983358
174	0xbadfdd9d	-0.0017079596
175	0xbcd80dd0	-0.026373774
176	0x3ba85567	0.005137134
177	0x3bf39dfc	0.0074346047
178	0x3cf38294	0.02972535
179	0x3caa87cf	0.020816712
180	0x3ca5d243	0.020241862
181	0x3d594c60	0.053051353
182	0xbb892baf	-0.0041861157
183	0xbd17be42	-0.03704668
184	0xbce65a7b	-0.028119316
185	0xbc9247a7	-0.017856432
186	0x3c1991d3	0.009373146
187	0xbd305f80	-0.043059826
188	0xba3409ef	-0.00068679353
189	0xbcf79297	-0.030221267
190	0x3c07e4c8	0.008294292
191	0x3da33576	0.07969181
192	0x3c1c4ac2	0.009539308
193	0xbd5361fc	-0.051607117
194	0x3d04abe1	0.03239048
195	0xbd0b40c0	-0.033997297
196	0xbd85e65e	-0.0653808
197	0xbd6b6a16	-0.05747422
198	0xbc361c32	-0.011115121
199	0x3c8d1a5f	0.017224489
200	0xbd70123e	-0.058611147
201	0xbc85ba97	-0.016324325
202	0x3cd091b8	0.02546011
203	0xbd68d507	-0.056843784
204	0xbd14ca66	-0.036325835
205	0x3ce27e6b	0.027648171
206	0xbb8c1465	-0.004274892
207	0xbd33c0be	-0.043884985
208	0xbcfa28b8	-0.030536994
209	0xbd734efd	-0.0594015
210	0x3c8a35e2	0.016871396
211	0x3c536a2f	0.012903734
212	0xbbf7c39a	-0.0075611593
213	0xba4bcdaa	-0.0007774482
214	0xbd062746	-0.032752298
215	0x3ba838a6	0.005133706
216	0xbd58f2d7	-0.052965965
217	0xbd3c00f2	-0.04589934
218	0xbbbe1945	-0.005801352
219	0xbbcd15bb	-0.006258694
220	0x3caa904e	0.020820763
221	0xbd5e85df	-0.05432689
222	0x3cef3981	0.029202225
223	0x3d12f143	0.035874616
224	0xbd1121b5	-0.035432536
225	0x3c246030	0.0100326985
226	0xbc88e8dd	-0.0167126
227	0xbb8a60ba	-0.0042229565
228	0xbccbf134	-0.024895288
229	0xbd2e551c	-0.042561635
230	0x3b95230a	0.004551296
231	0xbd38f39b	-0.045154195
232	0xbd87bec1	-0.0662818
233	0x3baf5eb9	0.005351868
234	0x3d7644aa	0.060124077
235	0x3bbd5a99	0.0057786223
236	0xbd27d7d1	-0.040977303
237	0xbca2cf88	-0.01987435
238	0xbbed0015	-0.007232676
239	0x3b5ee933	0.003401351
240	0x3d669aab	0.056299847
241	0x3d400539	0.04687998
242	0xbd0ccdc0	-0.034375906
243	0xbcf7e6bd	-0.030261392
244	0x3d932a59	0.071858115
245	0x3c8c3b4e	0.017118122
246	0xbd51b029	-0.05119339
247	0x3d49b203	0.04924203
248	0x3ac8565e	0.0015284528
249	0x3c97ec9c	0.018545441
250	0xbc8e3427	-0.017358853
251	0xbbeee029	-0.0072899056
252	0x3c092f8d	0.008373153
253	0xbd49c4c0	-0.0492599
254	0xbd897022	-0.06710841
255	0x3c3b00ba	0.011413747

conv3.bias f4 [64]
0	0x3c801518	0.015635058
1	0xbd1a0079	-0.037598107
2	0x3cd329fd	0.025776858
3	0x3bb2068d	0.00543291
4	0x3c8b653c	0.017016046
5	0xbb9bea36	-0.0047581447
6	0xbd3a5cc4	-0.045498624
7	0xbc8899f6	-0.016674977
8	0xbc2ff566	-0.01073966
9	0x3c246885	0.010034685
10	0xbbbef5d9	-0.005827647
11	0x3cfef52e	0.03112277
12	0x3d84c6a3	0.064831994
13	0xbd213016	-0.0393525
14	0x3c66bc5f	0.014082997
15	0x3c7a67b1	0.015283511
16	0x3be89758	0.0070981197
17	0xba440fd7	-0.0007479167
18	0x3d1691a9	0.036760006
19	0xbc9d10a9	-0.019172983
20	0xbc1ebedb	-0.009689058
21	0xbb471054	-0.0030374723
22	0x3cd6f047	0.02623762
23	0x3cc60227	0.024170948
24	0x3c69bf0f	0.014266743
25	0xbcecb29a	-0.028893758
26	0x3cf17180	0.029473066
27	0xbc086778	-0.00832545
28	0xbc9c74f1	-0.01909873
29	0x3c0dc94f	0.008653953
30	0x3c15d5a1	0.009145171
31	0xbba74b6f	-0.005105428
32	0xbb697361	-0.003562175
33	0xbd19df4f	-0.03756648
34	0x3bf7f345	0.007566842
35	0x3c9e737d	0.019342178
36	0x3c1963aa	0.009362141
37	0x3c91e77c	0.017810576
38	0x3cbc8805	0.023014078
39	0x3d0d9719	0.034567926
40	0xbc95ff84	-0.018310316
41	0x3cfa8cab	0.030584654
42	0x3c66ccdd	0.014086929
43	0x3c7944ef	0.015214189
44	0xbd0aa4b6	-0.033848487
45	0x3d34ea23	0.044168603
46	0xbbf745c9	-0.007546161
47	0x3d595c93	0.0530668
48	0x3d1868bd	0.03720926
49	0x3c0c6fbe	0.008571563
50	0xbcc95030	-0.02457437
51	0x3bd2b679	0.006430444
52	0xbcd0d9de	-0.025494512
53	0x3c6cb9e7	0.014448619
54	0x3cb1b61e	0.021693286
55	0x39bc4b14	0.00035914092
56	0x3d083f7e	0.033263676
57	0x3d30ea27	0.043192055
58	0xbd09ec40	-0.03367257
59	0xbd0d9c5e	-0.03457295
60	0xbb3de36f	-0.0028974672
61	0x3a9841f1	0.0011616332
62	0x3a0c986b	0.0005363288
63	0x3cc35187	0.023842586

bn3.weight f4 [64]
0	0x3f8416a6	1.0319412
1	0x3f83c835	1.0295473
2	0x3f7475cd	0.9549225
3	0x3f81a34a	1.0127957
4	0x3f7c7ad9	0.9862495
5	0x3f7feb92	0.99968827
6	0x3f7f5e36	0.9975313
7	0x3f7d98b3	0.99061126
8	0x3f774f42	0.9660531
9	0x3f801471	1.0006238
10	0x3f7572cf	0.9587831
11	0x3f864ccb	1.0492185
12	0x3f7acbb5	0.9796708
13	0x3f75807c	0.95899177
14	0x3f87c5a2	1.0607188
15	0x3f7cea8c	0.9879539
16	0x3f814266	1.0098388
17	0x3f84b943	1.0369037
18	0x3f76d930	0.9642515
19	0x3f82d673	1.0221695
20	0x3f7e982f	0.99450964
21	0x3f86c27e	1.0528104
22	0x3f8a1486	1.0787513
23	0x3f816666	1.0109375
24	0x3f831f49	1.0243922
25	0x3f8435ab	1.0328878
26	0x3f74604e	0.9545945
27	0x3f762f58	0.9616599
28	0x3f82dc1c	1.0223422
29	0x3f846db5	1.034598
30	0x3f825195	1.0181147
31	0x3f8130ff	1.0093077
32	0x3f80f1d5	1.0073801
33	0x3f840637	1.0314397
34	0x3f7fdfff	0.99951166
35	0x3f6bdb9e	0.92131984
36	0x3f7bf6da	0.9842354
37	0x3f7a3724	0.9774039
38	0x3f7c8901	0.9864655
39	0x3f8419b8	1.0320349
40	0x3f79398b	0.9735343
41	0x3f7c77e6	0.9862045
42	0x3f7709e1	0.9649945
43	0x3f81abe3	1.0130581
44	0x3f7b486f	0.981574
45	0x3f751b7f	0.9574508
46	0x3f84abb9	1.0364906
47	0x3f85b516	1.0445888
48	0x3f805556	1.0026042
49	0x3f75d3ff	0.96026605
50	0x3f7cbd29	0.98726135
51	0x3f80c041	1.0058671
52	0x3f7df901	0.99208075
53	0x3f79ff0d	0.976548
54	0x3f821e2d	1.0165459
55	0x3f88d0b5	1.0688692
56	0x3f777fe2	0.9667951
57	0x3f7b5cb6	0.9818834
58	0x3f803d57	1.001872
59	0x3f6cc632	0.9248992
60	0x3f805a4b	1.0027555
61	0x3f7a64c0	0.9780998
62	0x3f6e01ae	0.92971313
63	0x3f83ff27	1.0312241

bn3.bias f4 [64]
0	0x3d3e0d56	0.046399437
1	0xbd3e824a	-0.046510972
2	0xbd984b04	-0.07436183
3	0x3a4f728b	0.00079134916
4	0xbd5c0010	-0.053710997
5	0xbc113ede	-0.008865086
6	0xbd775ba2	-0.060390122
7	0xbd1204ff	-0.035649296
8	0xbd1fd203	-0.039018642
9	0xbbc997ff	-0.0061521525
10	0xbd0c6c72	-0.03428311
11	0x3d327c74	0.04357572
12	0xbd369686	-0.044577144
13	0xbc389a2d	-0.011267227
14	0xbcacf86d	-0.021114552
15	0xbd09efda	-0.033676006
16	0xbca73af0	-0.020413846
17	0xbba0e8a7	-0.004910547
18	0xbd17a950	-0.037026703
19	0xbcccfe62	-0.025023643
20	0xbd73198e	-0.059350543
21	0xbae76b08	-0.0017655799
22	0x3cf8d4ed	0.030374968
23	0x3c9e8e16	0.019354861
24	0xbccb0194	-0.024781026
25	0x3d3a1cd7	0.04543766
26	0xbd455c59	-0.048183773
27	0xbcafb495	-0.021448413
28	0xbd6fab5b	-0.058513027
29	0x3c8b3818	0.016994521
30	0x3ceadd4b	0.028669974
31	0x3cf61bf3	0.030042624
32	0xbbf74e77	-0.0075471955
33	0xbb6c8358	-0.003608903
34	0xbcc18fcd	-0.02362814
35	0xbd4386d7	-0.047736015
36	0xbd34e898	-0.04416713
37	0x3c5779a6	0.013151562
38	0xbc97b0b8	-0.018516883
39	0x3cad8bbd	0.021184796
40	0xbd07945a	-0.033100463
41	0xbc9c5f12	-0.019088302
42	0xbd39b69b	-0.04534016
43	0x3be445e8	0.0069663413
44	0xba09af6c	-0.0005252275
45	0xbc9a0665	-0.018801877
46	0x3c920271	0.01782343
47	0xbd0a94fc	-0.03383349
48	0xbcab6533	-0.020922279
49	0xbc390a30	-0.011293933
50	0x3cb15203	0.021645552
51	0xbd8a8c06	-0.067649886
52	0xbcc41e2c	-0.023940168
53	0xbcb34564	-0.021883674
54	0xbd324baf	-0.04352921
55	0xbc4f3867	-0.012647725
56	0xbd3b9cd9	-0.04580388
57	0x3d0fafcb	0.03507976
58	0xbd7f6a81	-0.06235743
59	0xbd7430c1	-0.059616808
60	0xbd477a6a	-0.048700728
61	0x3c8306a3	0.015994376
62	0xbdad4cee	-0.08461939
63	0xbd0df499	-0.034657095

bn3.running_mean f4 [64]
0	0x3ed8d27e	0.42348093
1	0xbfafceb8	-1.373496
2	0xc021067e	-2.5160213
3	0xbab55ae5	-0.0013836293
4	0x3f06f490	0.5271692
5	0xbe089137	-0.13336645
6	0xbf283c14	-0.6571667
7	0x3f856ea5	1.0424391
8	0xc016a966	-2.3540893
9	0xbfdf2a58	-1.7434797
10	0xbfca5b57	-1.5809125
11	0xbf2116df	-0.62925524
12	0xbfe2ec81	-1.7728425
13	0x3f688413	0.9082653
14	0x3e76778d	0.24069043
15	0x3efc8f7f	0.4932823
16	0x3f58765b	0.84555596
17	0x3f190fa0	0.59789467
18	0xbf62bbcf	-0.88567823
19	0xbf82dc2c	-1.0223441
20	0xbfe5ca6e	-1.7952402
21	0xbec66979	-0.38752344
22	0x3f03408e	0.5127038
23	0x3e1b50c2	0.15167525
24	0xbebfc0f6	-0.37451905
25	0xbf6e4740	-0.9307747
26	0xbe9a8d05	-0.30185714
27	0x3f9f801b	1.246097
28	0x3f631c62	0.88715184
29	0xbf7b681d	-0.9820574
30	0xbf859715	-1.0436732
31	0x3fa23ed7	1.2675427
32	0xbfcc533b	-1.59629
33	0x3f78bf2a	0.97166693
34	0xbfa0c155	-1.2559
35	0x3f7e7b66	0.9940704
36	0x3f34836e	0.70513046
37	0xbf44d67f	-0.76889795
38	0xbfa3e536	-1.2804325
39	0xbf948508	-1.1603098
40	0xbdaef89b	-0.085435115
41	0xbf8b0e79	-1.0863792
42	0xc006f7c5	-2.1088727
43	0xbe0c8679	-0.13723172
44	0xbee353a3	-0.44399747
45	0xbf5e2e68	-0.8678956
46	0xbfa1260d	-1.2589737
47	0xbe045fef	-0.12927221
48	0xbf60851b	-0.877031
49	0xbe248a37	-0.1606835
50	0xbff3db38	-1.9051275
51	0x401142ac	2.2696943
52	0x3ef1b839	0.47210863
53	0xbe0d89c0	-0.13822079
54	0x3ec8dd16	0.39231175
55	0x3e1dc5ad	0.15407439
56	0x3fb783d9	1.4337112
57	0x3f50e2dc	0.8159616
58	0xbb10db8c	-0.0022103516
59	0xbf7b9514	-0.9827435
60	0x3f46afc2	0.77611935
61	0x3eed74b8	0.46378112
62	0xc01f4edc	-2.4891882
63	0x400ae4e4	2.1702204

bn3.running_var f4 [64]
0	0x40237100	2.553772
1	0x4012e28c	2.2950773
2	0x401dd929	2.4663794
3	0x4028a232	2.6348996
4	0x4069865e	3.6488261
5	0x4006573b	2.0990741
6	0x403e474f	2.9731023
7	0x40281aa0	2.626625
8	0x406485ee	3.5706744
9	0x40101fe9	2.2519476
10	0x4012f27c	2.29605
11	0x3fac41cb	1.3457578
12	0x4091f360	4.560959
13	0x4026eae1	2.6080859
14	0x409dce16	4.931407
15	0x4004cf36	2.0751472
16	0x4032e907	2.7954729
17	0x4006b0d3	2.1045425
18	0x4017294b	2.3618953
19	0x4087b9bc	4.2414227
20	0x4058b7c7	3.3862169
21	0x4058ffa0	3.390602
22	0x408e6a9a	4.450513
23	0x3fa56355	1.2920939
24	0x4067e008	3.6230488
25	0x403f913b	2.9932392
26	0x402acdae	2.6688037
27	0x401195fb	2.274779
28	0x40500649	3.2503836
29	0x4084a9f4	4.145746
30	0x3fccf920	1.6013527
31	0x40526924	3.2876673
32	0x40777507	3.8665178
33	0x405ec7a3	3.4809349
34	0x4074cc82	3.8249822
35	0x402f8bcc	2.7429075
36	0x400c23b5	2.1896794
37	0x40342c35	2.8151982
38	0x4026c83a	2.6059709
39	0x4043a14d	3.05672
40	0x401dc212	2.46497
41	0x40396a65	2.8971188
42	0x40133f42	2.300736
43	0x400b9fa1	2.181618
44	0x3fe402ec	1.7813392
45	0x403a22fc	2.9083853
46	0x403fb345	2.9953167
47	0x40278a69	2.617823
48	0x3fc785d0	1.5587711
49	0x3fc03600	1.501648
50	0x403d2960	2.9556503
51	0x4066271f	3.5961378
52	0x4067b671	3.6205103
53	0x400989b5	2.14903
54	0x403a5616	2.9115043
55	0x3ff7abcc	1.9349303
56	0x400ea891	2.2290385
57	0x3fc15117	1.5102872
58	0x40849d9d	4.14424
59	0x40698563	3.6487663
60	0x3ffb3e37	1.9628361
61	0x3ff1d9b1	1.8894559
62	0x4067e118	3.6231136
63	0x40601731	3.5014155
