07_gnn/7_gnn.pth (torch_old, 55762 bytes, 12 tensors)

msg_net.0.weight f4 [96, 20]
0	0x3da4ffc2	0.080565944
1	0xbe4a7eef	-0.19774984
2	0x3c335584	0.0109456815
3	0x3e2d8baf	0.16947816
4	0x3cc0688d	0.023487354
5	0xbe71ea18	-0.23624456
6	0xbddc8b41	-0.10768748
7	0xbe488743	-0.19582848
8	0x3d12ae7e	0.03581094
9	0xbe1e53ae	-0.15461609
10	0xbdcc05d3	-0.099620484
11	0x3e996dc9	0.29966572
12	0xbe53681f	-0.20645188
13	0xbc23b191	-0.009991066
14	0x3d939a2d	0.07207141
15	0x3e591371	0.21198823
16	0xbe52bc6c	-0.2057969
17	0xbed7b397	-0.42129204
18	0xbe16090b	-0.14651887
19	0xbe2e041b	-0.16993754
20	0x3cf0c0e5	0.029388854
21	0x3e48ba3e	0.19602296
22	0xbe26af5f	-0.16277836
23	0x3e4bf206	0.19916543
24	0xbdf1934a	-0.11795671
25	0x3dca9382	0.09891416
26	0xbdf0c8bd	-0.11757038
27	0x3da084db	0.0783784
28	0xbc3fed9d	-0.011714366
29	0x3e5a5720	0.21322298
30	0x3eb89409	0.36050442
31	0xbe521e51	-0.20519377
32	0x3d07648e	0.03305488
33	0xbe71406e	-0.23559734
34	0x3d9d8b82	0.07692625
35	0x3e115a49	0.14194597
36	0xbe60ea99	-0.21964492
37	0xbcf440c6	-0.029816043
38	0x3e8eb53e	0.27872652
39	0xbe9b6363	-0.30349264
40	0xbdeb9846	-0.11503653
41	0xbb821b7c	-0.0039705615
42	0xbe53f30e	-0.20698187
43	0x3e39db09	0.18149962
44	0xbc7b8aad	-0.015352887
45	0xbdc030eb	-0.0938433
46	0x3d8d4fc9	0.068999834
47	0x3e72bac0	0.23704052
48	0xbe77e286	-0.24207506
49	0xbd27aade	-0.040934436
50	0x3e4379dd	0.19089456
51	0x3da579a7	0.08079844
52	0xbdda91ee	-0.10672365
53	0x3e09e76d	0.13467188
54	0xbe272aa9	-0.16324867
55	0xbbb92473	-0.005650097
56	0xbe0aca88	-0.13553822
57	0x3e3a2d00	0.18181229
58	0x3e016bce	0.1263878
59	0xbdc63ca1	-0.09679533
60	0xbe67fb98	-0.22654569
61	0xbe842880	-0.2581215
62	0x3d6c20c3	0.05764843
63	0x3e20e6b2	0.15713003
64	0xbe43eaa8	-0.19132483
65	0xbdae185c	-0.0850074
66	0xbdeee6a1	-0.11665083
67	0x3d79f078	0.061020344
68	0xbced9cba	-0.029005397
69	0xbe90e780	-0.2830162
70	0xbc92fd1d	-0.01794296
71	0x3e91c162	0.28467852
72	0x3df37c05	0.11888889
73	0xbd26ba75	-0.040705163
74	0xbeb7f9f6	-0.35932893
75	0xbd5252e4	-0.051348582
76	0x3dde30a5	0.10849122
77	0xbd9f0815	-0.077652134
78	0x3e54ca2d	0.20780249
79	0x3edb3131	0.42810968
80	0xbdbd0f30	-0.092314124
81	0xbe21480a	-0.15750137
82	0x3c00fa0c	0.007872116
83	0xbdef28fc	-0.11677739
84	0xbd13fe8f	-0.036131438
85	0x3e302c70	0.17204452
86	0xbdcc9574	-0.099894434
87	0x3d58c60e	0.052923255
88	0xbd30544e	-0.04304915
89	0x3e26c2f9	0.16285314
90	0x3e7f17a0	0.24911356
91	0x3dcef08a	0.10104473
92	0xbe712d4b	-0.23552434
93	0xbe4fd0c0	-0.20294476
94	0xbe072680	-0.1319828
95	0x3e0f2bea	0.13981596
96	0xbd0e45fd	-0.034734715
97	0x3d3f64a4	0.046726838
98	0xbd16b54a	-0.036793984
99	0x3c2d70ee	0.010586007
100	0xbe096467	-0.13417207
101	0x3dd4d054	0.10391298
102	0xbe405471	-0.18782212
103	0x3d11c192	0.035584994
104	0xbdb6528c	-0.08902463
105	0x3e2e7686	0.170374
106	0xbdcf5a97	-0.101247005
107	0x3d5dea9b	0.054178815
108	0x3d9f7f1b	0.07787915
109	0x3dd20b5e	0.10256074
110	0xbde2f7a3	-0.11082389
111	0xbdf2126c	-0.1181992
112	0x3deda73e	0.116041645
113	0xbe19c5b1	-0.1501682
114	0xbeb0b0af	-0.345098
115	0xbe3a93d5	-0.18220456
116	0xbe5a79a1	-0.2133546
117	0x3d882ece	0.06649552
118	0xbe7355cc	-0.23763198
119	0x3d93bc32	0.0721363
120	0x3dcd2972	0.10017671
121	0x3c86456f	0.01639053
122	0xbdd8d31f	-0.10587143
123	0xbdabb604	-0.08384326
124	0xbe32094e	-0.17386362
125	0xbe35a53e	-0.17738816
126	0x3e1ce0b5	0.15320094
127	0x3c36195a	0.011114443
128	0x3c4f936c	0.012669425
129	0x3d0cfe0a	0.034421958
130	0xbd7f6e63	-0.062361132
131	0x3ed65878	0.4186437
132	0xbde386a9	-0.11109669
133	0xbe6340bd	-0.22192664
134	0xbeba3484	-0.3636819
135	0x3e9e664b	0.30937418
136	0xbd30f4e5	-0.0432023
137	0x3d687157	0.056748714
138	0x3db9c555	0.09070841
139	0x3e32d342	0.17463401
140	0xbe1365e8	-0.14394343
141	0xbc911b27	-0.017713143
142	0x3ea01f40	0.31273842
143	0x3c8415a5	0.016123602
144	0xbde5038c	-0.11182317
145	0x3e68295b	0.22672026
146	0xbd82563a	-0.06364103
147	0xbc6a3b9b	-0.014296438
148	0xbdc53335	-0.096289076
149	0x3da6c41b	0.08142873
150	0x3d403aad	0.046930958
151	0xbbbefe27	-0.005828637
152	0x3db3387f	0.0875101
153	0x3d96eb5f	0.07369112
154	0x3e56bc0a	0.20970169
155	0x3dd52766	0.10407905
156	0x3e30a074	0.17248708
157	0x3d6cffe2	0.057861216
158	0xbeb20570	-0.34769773
159	0xbe12e543	-0.14345269
160	0xbe77efa3	-0.24212508
161	0x3e03c627	0.12868558
162	0x3d9db970	0.07701385
163	0xbdd764bf	-0.10517263
164	0x3b156be8	0.0022799913
165	0x3de5c115	0.11218468
166	0x3dc8176a	0.09770091
167	0x3d6b1ffe	0.057403557
168	0x3e0c1240	0.13678837
169	0xbe327211	-0.17426325
170	0xbea2c29a	-0.31789094
171	0xbe7bb699	-0.24581374
172	0x3e9e1381	0.30874255
173	0x3e3d1274	0.1846407
174	0xbeb41e6b	-0.35179457
175	0xbe962cf2	-0.29331166
176	0xbdeb21e9	-0.11481077
177	0x3d6e05d5	0.05811103
178	0x3d20614b	0.039155286
179	0xbe8ae54d	-0.27128068
180	0xbd2e4556	-0.042546593
181	0x3e258b71	0.16166474
182	0x3c336ca8	0.010951199
183	0xbdaab548	-0.08335358
184	0x3e622ca2	0.22087339
185	0x3e1d85af	0.15383027
186	0xbddb0128	-0.1069358
187	0xbe78a1c3	-0.24280457
188	0xbe04cd6a	-0.12968984
189	0x3e11441e	0.14186141
190	0x3c1bca73	0.009508717
191	0x37b39644	2.1408436e-05
192	0x3e474771	0.19460846
193	0xbdf993d6	-0.121864006
194	0xbd877cca	-0.066155985
195	0x3d825d12	0.06365408
196	0xbe69bf8d	-0.22826977
197	0x3e010764	0.12600476
198	0x3e667f0a	0.22509399
199	0xbe3da369	-0.18519367
200	0x3d2e7e6b	0.04260103
201	0x3da4cf17	0.08047312
202	0x3e02e15b	0.12781279
203	0x3e4d4710	0.2004664
204	0xbd02532e	-0.031817608
205	0x3e2f596a	0.17123953
206	0x3e6601e6	0.22461662
207	0x3d0fd20a	0.03511242
208	0xbe2137b3	-0.15743904
209	0x3d893f6e	0.067015514
210	0x3d2f12f5	0.04274269
211	0xbddfbd26	-0.10924749
212	0xbeb68da8	-0.3565495
213	0xbe5cd949	-0.21567263
214	0x3e745c50	0.2386334
215	0xbd9646c0	-0.07337713
216	0xbdd995f6	-0.10624306
217	0x3e8871d5	0.26649347
218	0xbe14f400	-0.14546204
219	0xbcd73571	-0.0262706
220	0x3ddd3d53	0.10802712
221	0x3deba468	0.115059674
222	0xbbd17707	-0.006392363
223	0x3ea0cd16	0.31406468
224	0x3dcf6327	0.10126334
225	0x3e28d342	0.16486838
226	0xbd81f6ef	-0.06345927
227	0x3eb3e216	0.35133427
228	0x3e11d3fd	0.14241023
229	0x3e3e3369	0.18574299
230	0x3e08c4c1	0.13356306
231	0xbda3c77f	-0.07997035
232	0x3e66eb94	0.22550803
233	0x3bf05a4e	0.007334984
234	0x3c9d05f8	0.019167885
235	0xbe6b5dfe	-0.22985074
236	0x3dd7023a	0.104984716
237	0x3d73b842	0.059501894
238	0x3e883dcd	0.2660965
239	0x3d2ccd4e	0.04218798
240	0x3dc0d48a	0.094155386
241	0xbdd2d464	-0.102944165
242	0x3da91b45	0.082571544
243	0xbe241631	-0.1602409
244	0x3cd58a22	0.026066843
245	0xbea3b4ed	-0.31973973
246	0x3de8b866	0.11363296
247	0x3dd7d0a2	0.105378404
248	0x3eb058c9	0.34442738
249	0x3e309c36	0.1724709
250	0xbd5d6626	-0.054052494
251	0x3e10f128	0.14154494
252	0xbdd233db	-0.10263797
253	0xbd39b7cd	-0.0453413
254	0xbc7c108e	-0.015384806
255	0xbea4c57e	-0.32181925

msg_net.0.bias f4 [96]
0	0xbdde02a7	-0.1084035
1	0xbba25b52	-0.004954734
2	0x3dcdd40f	0.100502126
3	0x3c47a128	0.012184419
4	0xbcf792f0	-0.030221432
5	0xbdd01e4a	-0.10162027
6	0x3e0f8b73	0.1401804
7	0xbd9f3fe1	-0.07775856
8	0xbe404220	-0.18775225
9	0x3db034fa	0.086038545
10	0x3e07883c	0.13235563
11	0x3da27812	0.07933058
12	0xbe0c8d79	-0.13725843
13	0xbda13bc7	-0.0787273
14	0x3e016228	0.126351
15	0x3e54ae03	0.20769505
16	0xbdbd8363	-0.09253576
17	0xbe0621da	-0.13098851
18	0xbde42c6a	-0.11141284
19	0xbd63b2d9	-0.055590484
20	0xbd55c56d	-0.052190233
21	0xbe0f905a	-0.1401991
22	0x3e295c5d	0.1653914
23	0xbdc811a5	-0.097689904
24	0x3add383c	0.0016877721
25	0x3d1f0322	0.038821347
26	0x3df04388	0.117316306
27	0x3e29463b	0.16530697
28	0xbe5c5da9	-0.21520104
29	0x3e1e07fb	0.15432732
30	0x3cd81462	0.026376907
31	0x3da9d1f5	0.08291999
32	0x3dd21e40	0.10259676
33	0x3e2a13ea	0.16609159
34	0x3c744dc0	0.014911115
35	0xbe069f94	-0.13146812
36	0xbdacf1a8	-0.0844453
37	0x3dbcd7ff	0.092208855
38	0xba0e7b75	-0.00054352666
39	0xbcf2e84c	-0.029651783
40	0xbd7d0da5	-0.06178059
41	0xbcb9cedc	-0.022681646
42	0xbd24155c	-0.040059432
43	0xbdac5600	-0.08414841
44	0xbe104901	-0.14090349
45	0x3d95cef5	0.073148645
46	0xbd2a10aa	-0.0415198
47	0xbe0541b9	-0.13013352
48	0x3d9f9c39	0.07793469
49	0x3cfc2fd9	0.030784534
50	0x3b252c4c	0.0025203405
51	0xbcd2e559	-0.025744127
52	0x3e19999f	0.15000008
53	0x3e0a33fa	0.1349639
54	0x3e18b79b	0.1491379
55	0x3d4ad45f	0.04951894
56	0x3d5b5cca	0.053555287
57	0xbcc043c1	-0.023469808
58	0x3e39f76e	0.18160793
59	0x3c59a151	0.01328309
60	0xbdbc72a0	-0.092015505
61	0xbcde3aed	-0.027127707
62	0xbd25a11d	-0.040436853
63	0xbad932c3	-0.0016570914
64	0xbd559c09	-0.05215076
65	0xbd895da2	-0.06707312
66	0xbd5ce307	-0.053927448
67	0x3e1fa3cb	0.15589826
68	0x3e002e53	0.12517671
69	0xbddeee25	-0.10885266
70	0x3cd363dd	0.025804454
71	0x3df7f5df	0.12107443
72	0x3e0f6c04	0.14006048
73	0xbb65d992	-0.003507231
74	0x3e04f456	0.12983832
75	0x3c0c6892	0.008569853
76	0xbd5fa934	-0.054604724
77	0x3d936591	0.07197107
78	0xbdd4ff3a	-0.10400243
79	0xbe33858f	-0.17531417
80	0xbd9c5cca	-0.076348856
81	0x3c7d0ab9	0.015444451
82	0x3e6786b5	0.2260998
83	0x3d890558	0.06690472
84	0x3d875e4b	0.06609782
85	0xbd6972ee	-0.05699437
86	0x3d88e0b2	0.06683482
87	0xbd434e0d	-0.047681857
88	0x3de0ddf6	0.10979836
89	0xbd8cb590	-0.06870568
90	0xbd2a02a8	-0.04150644
91	0xbe18d292	-0.14924076
92	0x3df40a13	0.11915984
93	0x3c66dda5	0.01409093
94	0x3e54a0e1	0.20764495
95	0x3db4683d	0.088089444

msg_net.2.weight f4 [96, 96]
0	0x3cf0d203	0.029397016
1	0xbd3f95d8	-0.04677376
2	0xbd219636	-0.039449893
3	0xbddea6b9	-0.108716436
4	0x3d9df720	0.07713151
5	0xbd22d58e	-0.039754443
6	0xbd0ddbd9	-0.03463349
7	0xbcca8ddb	-0.024725845
8	0x3e4db842	0.2008982
9	0xbc7594fa	-0.014989132
10	0x3d90fc77	0.07079404
11	0x3cb740fd	0.022369856
12	0xba87dbea	-0.0010365222
13	0xbd67fbb2	-0.05663652
14	0x3c422764	0.011850212
15	0x3db67b54	0.08910242
16	0x3ea273ab	0.31728873
17	0xbb9e3022	-0.004827515
18	0xbd6c1801	-0.05764008
19	0x3e2021d4	0.15637904
20	0x3d0f8d1d	0.035046685
21	0x3df5bd27	0.119989686
22	0xbd1295a5	-0.035787243
23	0xbdc0e0f0	-0.094179034
24	0x3de5ab5c	0.11214325
25	0xbd143168	-0.03617993
26	0x3c5c12ae	0.013432188
27	0xbcc66f99	-0.024223136
28	0x3e2f2bb8	0.17106521
29	0xbb4b6d17	-0.0031040364
30	0x3d98c31b	0.074590884
31	0x3d8cae43	0.06869175
32	0xbc7f787c	-0.015592691
33	0xbcf81845	-0.03028501
34	0xbe587942	-0.21140006
35	0xbd973bfe	-0.073844895
36	0xbe01b6f1	-0.12667443
37	0x3dbd6fa5	0.0924981
38	0xbd08e842	-0.033424623
39	0x3cc42123	0.023941582
40	0xbe2c83b3	-0.16847114
41	0xbd0ec6ee	-0.034857683
42	0xbd5bb9eb	-0.053644102
43	0x3d87aa5f	0.066242926
44	0x3d83ea57	0.06441181
45	0x3d9087ff	0.07057189
46	0xbd764338	-0.0601227
47	0x3a859b60	0.00101934
48	0x3c1766ca	0.009240815
49	0xbd614821	-0.055000428
50	0x3dd2873f	0.102797024
51	0x3dbed984	0.093188316
52	0x3b19421a	0.0023385347
53	0xbc97cbdc	-0.018529825
54	0xbce7d572	-0.02830002
55	0xbd9dc2fa	-0.077032045
56	0xbd7b51bb	-0.06135724
57	0x3bc3552a	0.00596108
58	0x3dcf7e6b	0.10131534
59	0xbde8ba7e	-0.113636956
60	0xbd25dfdf	-0.040496703
61	0x3c9d6aa4	0.01921589
62	0xbdff1172	-0.12454499
63	0xbd1e9e04	-0.038724914
64	0x3df5f202	0.1200905
65	0x3d965c21	0.07341791
66	0xbd1e3ce5	-0.038632292
67	0xbd976412	-0.07392134
68	0x3de01cf2	0.10943021
69	0xbc249092	-0.010044234
70	0xbd43d114	-0.047806814
71	0xbd06c0a6	-0.032898568
72	0x3cdaba9a	0.026700307
73	0x3e32a4e2	0.1744571
74	0x3d9d6252	0.07684769
75	0x3dcb5b11	0.09929479
76	0x3dc81e90	0.09771454
77	0x3ddb251f	0.1070044
78	0xbe904a86	-0.28181857
79	0x3d53256a	0.051549353
80	0xbd03f32d	-0.032214332
81	0xbdf65a41	-0.12028933
82	0x3bf5a4d3	0.007496455
83	0x3b7b1ff4	0.0038318606
84	0x3c317462	0.0108309705
85	0xbdb64dad	-0.08901534
86	0xbd55394e	-0.052056603
87	0xbc7cfdd2	-0.015441375
88	0x3d313b8a	0.04326967
89	0xbc9520a1	-0.018204035
90	0xbe20acfd	-0.1569099
91	0x3e347c71	0.17625596
92	0x3b112e0f	0.0022152697
93	0x3da360ac	0.07977423
94	0xbc96c512	-0.018404517
95	0xbd8ee5b2	-0.06977405
96	0xbe132c54	-0.14372379
97	0x3d524561	0.051335696
98	0xbc8df7f6	-0.017330151
99	0xbc9be72c	-0.01903113
100	0x3d9a0891	0.07521165
101	0xbdce8c75	-0.10085384
102	0xbe0c9281	-0.13727762
103	0x3d55ba25	0.052179474
104	0xbd7a31b5	-0.06108256
105	0xbdb06263	-0.08612516
106	0xbdcecf69	-0.10098154
107	0x3c550955	0.013002713
108	0x3e8523cb	0.2600387
109	0x3da25e09	0.07928092
110	0x3d7b2ead	0.06132381
111	0xbde37253	-0.1110579
112	0x3ce23571	0.027613373
113	0xbd6defe0	-0.05809009
114	0xbe132c34	-0.14372331
115	0xbc0d5e15	-0.008628388
116	0x3d4d1bbf	0.05007529
117	0x3cdf5aa9	0.02726491
118	0x3cfdf512	0.031000648
119	0xbd9bcc76	-0.07607357
120	0x3bcfaf31	0.006338023
121	0x3d4770bc	0.048691496
122	0x3cedf0a9	0.02904542
123	0xbd901ba0	-0.07036519
124	0x3d573117	0.05253705
125	0xbddf48f8	-0.109025896
126	0x3c766693	0.015039104
127	0x3d10dc81	0.03536654
128	0x3d01319e	0.03154146
129	0x3dc3a16e	0.09552275
130	0xbdedd3d6	-0.1161267
131	0x3e1d1442	0.15339759
132	0xbd45fc90	-0.048336565
133	0xbdfb1eed	-0.12261758
134	0x3c480386	0.012207871
135	0x3cadf815	0.021236459
136	0xbd461286	-0.04835751
137	0xbdcc6a31	-0.09981192
138	0xbdc31621	-0.09525705
139	0x3d87b282	0.066258445
140	0xbe08d6de	-0.13363215
141	0x3d4c373c	0.049857363
142	0x3d280de4	0.041028872
143	0xbd9d759c	-0.07688448
144	0xbd76fe8f	-0.06030136
145	0x3dcdc5d7	0.100475006
146	0x3dc565cd	0.096385576
147	0x3dd760d1	0.10516513
148	0xbd9aedee	-0.07564913
149	0x3dfe1d9e	0.12407993
150	0x3d30f58b	0.043202918
151	0xbca01d0c	-0.0195451
152	0x3d20e018	0.039276212
153	0xbdcd22e4	-0.100164205
154	0x3d1b14d7	0.03786167
155	0x3c95bd45	0.018278727
156	0x3dfff737	0.12498324
157	0xbd765ec0	-0.060148954
158	0x3d2e79b7	0.042596545
159	0xbd13c8d0	-0.03608018
160	0xbb001286	-0.001954229
161	0xbd65402a	-0.055969395
162	0xbda9f3d9	-0.082984634
163	0xbd9645ed	-0.07337556
164	0x3d32fec8	0.04370001
165	0x3da7e30f	0.08197605
166	0xbe028bec	-0.12748688
167	0x3cbd905e	0.023140129
168	0x3dafd31b	0.08585187
169	0xbe1bd1e0	-0.1521678
170	0xbcf568f5	-0.029957274
171	0xbd5a647d	-0.05331849
172	0x3d37d181	0.044877533
173	0xbd0a4172	-0.03375382
174	0xbe0cc43b	-0.13746731
175	0xbc8ab433	-0.016931629
176	0x3cab6afe	0.020925041
177	0xbbc872e4	-0.0061172117
178	0x3dfd7e61	0.123776205
179	0x3c8157c3	0.015788918
180	0x3d99e0f3	0.07513609
181	0xbe73e39b	-0.23817293
182	0xbd88f2d3	-0.0668694
183	0x3da78403	0.08179476
184	0xbd8bf2f1	-0.06833447
185	0x3b4b619e	0.0031033526
186	0xbce26cf4	-0.027639844
187	0x3da3709d	0.07980464
188	0xbe13ca5c	-0.14432663
189	0x3d95f1da	0.0732152
190	0x3cc6438e	0.024202134
191	0xbc87372a	-0.016505796
192	0xbd00a0a0	-0.031403184
193	0xbd58b635	-0.05290814
194	0x3d5b6000	0.05355835
195	0xbe149598	-0.1451019
196	0xbd4e2549	-0.050328527
197	0x3993554e	0.00028101582
198	0x3cf76525	0.030199597
199	0x3d7108fb	0.058846455
200	0xbd8d9912	-0.069139615
201	0x3d7c95cd	0.0616663
202	0xbdd6ea2b	-0.10493883
203	0xbde0127f	-0.10941028
204	0x3d9a0e71	0.07522286
205	0x3b4b6659	0.0031036346
206	0x3d61edc1	0.05515838
207	0x3dc10101	0.094240196
208	0xbe4429a3	-0.19156508
209	0xbc674398	-0.014115237
210	0x3e115221	0.14191486
211	0x3d9c14e9	0.07621176
212	0x3d17c757	0.03705534
213	0xbe0aed3e	-0.13567063
214	0x3ddf331e	0.10898422
215	0xbd589bea	-0.052883066
216	0x3ddc9d47	0.10772186
217	0xbdc4bf88	-0.09606844
218	0x3dcbd05c	0.09951851
219	0xbd1e535d	-0.03865372
220	0xbdc48808	-0.095962584
221	0xbdb2b0e9	-0.08725149
222	0xbd04f911	-0.03246409
223	0x3d0e472b	0.03473584
224	0xbd39180e	-0.045188956
225	0xbbc194e5	-0.005907642
226	0xbdc91a07	-0.098194174
227	0xbd0cfd21	-0.03442109
228	0xbd01dee5	-0.03170671
229	0xbd6c3f38	-0.057677478
230	0x3c713053	0.014720994
231	0x3dae671d	0.08515761
232	0xbe013c40	-0.1262064
233	0x3e08269e	0.13295981
234	0xbe254018	-0.16137731
235	0xbcf0e36e	-0.029405322
236	0x3daf2f42	0.085539356
237	0x3ca3dea5	0.020003626
238	0xbd0fef4f	-0.03514033
239	0x3ce5468a	0.027987737
240	0xbd6057a7	-0.05477109
241	0x3d654927	0.055977967
242	0x3d587448	0.05284527
243	0xbd1a7497	-0.037708845
244	0xbd040047	-0.032226827
245	0xbbd17e1c	-0.0063932072
246	0x3ca0fc91	0.019651683
247	0x3ce00256	0.027344864
248	0xbd7c3315	-0.061572153
249	0xbcfb1763	-0.0306508
250	0x3d26e4a2	0.040745385
251	0x3c765929	0.015035906
252	0xbdb13853	-0.08653321
253	0x3dd3715f	0.10324358
254	0x3dfe9308	0.12430388
255	0x3d06e22d	0.03293054

msg_net.2.bias f4 [96]
0	0xbcce7f10	-0.025207072
1	0xbc35b53d	-0.011090574
2	0x3d9ac663	0.075573705
3	0xbcbdd949	-0.023174899
4	0x3dbede15	0.093197025
5	0xbd826e9f	-0.063687555
6	0x3ce4dc16	0.027936976
7	0xbd6ff3d3	-0.05858214
8	0xbda318b5	-0.07963697
9	0x3dc35d40	0.095392704
10	0xbcd921e6	-0.026505422
11	0x3d483720	0.048880696
12	0x3ca5edbc	0.020254962
13	0x3ab114f9	0.0013510279
14	0x3cf8225c	0.030289821
15	0xbc83625e	-0.016038116
16	0xbc69930e	-0.014256252
17	0x3db36f41	0.087614544
18	0x3d8d803c	0.069092244
19	0xbd423913	-0.04741771
20	0x3c4bbe06	0.012435442
21	0xbc985d1a	-0.018599082
22	0x3db04ee6	0.08608799
23	0x3de7cde9	0.11318571
24	0x3bf8e377	0.0075954753
25	0xbd67ef8e	-0.05662494
26	0x3d8adf5e	0.06780885
27	0x3c8423f8	0.016130432
28	0xbd52083c	-0.051277384
29	0x3b92f03b	0.004484204
30	0xbced7fd3	-0.028991615
31	0x3dbaeab8	0.091268
32	0x3d9d06ed	0.076673366
33	0x3da2e12f	0.079531066
34	0xbd552945	-0.05204131
35	0xbc67646c	-0.014123064
36	0xbdc62971	-0.09675873
37	0x3c4211e8	0.0118450895
38	0x3d59e50f	0.053196963
39	0xbd6c0721	-0.057623986
40	0xbd91c08e	-0.07116805
41	0xbd9add4f	-0.075617425
42	0xbd60672c	-0.054785892
43	0xbd980b0a	-0.074239805
44	0x3aadc54f	0.0013257655
45	0x3d015bd7	0.031581726
46	0xbda6d146	-0.081453845
47	0xbd5b6d11	-0.05357081
48	0x3d2743a3	0.040835988
49	0xbd23bc54	-0.039974526
50	0xbd9757e7	-0.07389813
51	0xbb99abcd	-0.0046896697
52	0xbcc5e54e	-0.024157193
53	0x3c54ff8c	0.01300038
54	0xbd6da6d4	-0.058020428
55	0x3c3bf013	0.011470812
56	0xbd3781ff	-0.04480171
57	0x3dce2155	0.10064951
58	0xbcf78656	-0.030215424
59	0x3d952a22	0.07283427
60	0xbdd0f5a9	-0.10203106
61	0xbdae824f	-0.08520948
62	0xb92e11d4	-0.00016600575
63	0xbd00bf53	-0.03143246
64	0x3d4e3419	0.050342653
65	0x3ddab5cd	0.10679207
66	0xbd8e9a19	-0.069629855
67	0x3d766422	0.060154088
68	0x3c29be78	0.010360353
69	0xbd240c71	-0.040050928
70	0x3d27d9cd	0.040979195
71	0x3d3e8759	0.046515796
72	0xbd84196a	-0.0645016
73	0xbd8948e5	-0.06703357
74	0xbca92c1f	-0.020650921
75	0x3ca92539	0.020647632
76	0xbd427344	-0.047473207
77	0x3d6af49d	0.057362188
78	0x3d6813ed	0.056659628
79	0x3db871e2	0.090060964
80	0x3d158ff4	0.036514238
81	0x3d2503a5	0.04028668
82	0x3db08714	0.08619514
83	0xbd58fc67	-0.052975085
84	0xbda33729	-0.07969505
85	0xbd92d7f3	-0.07170095
86	0x3d24c4e8	0.040226847
87	0x3cfdf2a6	0.030999493
88	0x3ce1b61f	0.027552662
89	0x3d82ec72	0.063927546
90	0xbcec31e8	-0.02883239
91	0xbd1f2219	-0.038850877
92	0x3d0bf469	0.034168635
93	0x3cf0cc01	0.029394152
94	0x3d4a8ddc	0.049451694
95	0x3d932714	0.07185188

msg_net.4.weight f4 [11, 96]
0	0xbd7efd1b	-0.0622531
1	0x3e26ffd6	0.16308531
2	0xbd59d089	-0.05317739
3	0x3dd205ec	0.10255036
4	0x3d5a7712	0.05333621
5	0xbe41ed46	-0.18938169
6	0xbe4e3f35	-0.20141299
7	0xbdb43325	-0.087988175
8	0x3dafa93e	0.08577202
9	0x3da2bb9f	0.07945942
10	0xbdbf173d	-0.09330604
11	0x3e25bb7f	0.16184805
12	0xbecd24a2	-0.4006701
13	0x3c80985b	0.015697649
14	0xbdd734bd	-0.10508106
15	0x3e350114	0.17676193
16	0x3cc62407	0.024187101
17	0xbd3d3782	-0.046195515
18	0x3e000c65	0.12504728
19	0x3cb69644	0.02228845
20	0x3e08df98	0.13366544
21	0xbe0c13ef	-0.13679479
22	0x3dae0b7e	0.08498286
23	0x3db7c684	0.08973411
24	0x3b4e25e7	0.0031455697
25	0x3d96a78e	0.07356177
26	0x3c2d99a0	0.010595709
27	0x3dfc53d3	0.12320676
28	0xbccf673a	-0.025317777
29	0x3d982bf4	0.074302584
30	0x3d9936d4	0.07481161
31	0xbd6063ea	-0.054782785
32	0xbdc1007c	-0.094239205
33	0x3d8eb39a	0.0696785
34	0x3cb290d4	0.021797575
35	0x3d944f13	0.07241645
36	0x3e055a49	0.13022722
37	0x3d3cabdb	0.04606233
38	0x3e00942d	0.12556525
39	0xbd885540	-0.06656885
40	0x3d1b1295	0.037859518
41	0xbb809ab0	-0.00392469
42	0x3dcd99a5	0.10039071
43	0xbda43c11	-0.08019269
44	0x3ddc05d4	0.10743299
45	0xbdfc760b	-0.123272024
46	0xbd8a77b7	-0.06761115
47	0xbddefec1	-0.10888434
48	0xbe06efea	-0.13177457
49	0xbdac8537	-0.08423846
50	0xbd26f85d	-0.0407642
51	0x3e1ab7ad	0.15109129
52	0x3d95ba84	0.07310966
53	0xbd8cb90a	-0.06871231
54	0xbdbfa97f	-0.09358501
55	0xbc6d1111	-0.014469401
56	0xbd1d7dbc	-0.038449988
57	0x3d83e53c	0.06440207
58	0xbd074a9b	-0.033030134
59	0x3d14aa3c	0.03629516
60	0x3d9c560c	0.076336
61	0x3d2101bb	0.03930829
62	0x3d79e3eb	0.061008375
63	0x3db79597	0.08964079
64	0xbe23d5f9	-0.15999593
65	0x3b0e5947	0.0021720694
66	0xbdea522f	-0.114414565
67	0xbd0c1268	-0.03419724
68	0x3dc22b80	0.09480953
69	0xbd366853	-0.044533085
70	0x3b8404a6	0.0040288744
71	0x3e1c86b7	0.15285765
72	0xbd62edb6	-0.05540248
73	0x3cfa0f94	0.030525006
74	0xbde10778	-0.10987753
75	0x3dd3d901	0.103441246
76	0x3da29211	0.07938016
77	0xbc852f76	-0.016257983
78	0xbd82924e	-0.06375562
79	0x3dc7efbd	0.09762523
80	0x3e06342b	0.13105838
81	0xbd376e90	-0.044783175
82	0x3dc88125	0.09790257
83	0xbd0f654e	-0.03500872
84	0x3ca88710	0.020572215
85	0xbd752c59	-0.059856746
86	0xbc7b9f29	-0.015357771
87	0x3db3eeec	0.08785805
88	0xbd41c293	-0.0473047
89	0xbda81569	-0.08207209
90	0x3dd6d668	0.104901135
91	0x3c234c49	0.009966918
92	0xbb8c6940	-0.0042850077
93	0x3dda7651	0.10667098
94	0xbc577f53	-0.013152915
95	0x3c9a7e52	0.018859062
96	0x3d65e93c	0.056130633
97	0x3d4841a9	0.048890743
98	0xbd8287a0	-0.06373525
99	0x3c56c4cd	0.013108444
100	0x3d777782	0.060416706
101	0x3e88fb50	0.26754236
102	0xbb0f4256	-0.0021859608
103	0xbda93abd	-0.082631566
104	0xbdb65105	-0.08902172
105	0x3d8734f0	0.06601894
106	0xbc878ffb	-0.016548147
107	0xbd753da0	-0.059873223
108	0xbe48f77e	-0.19625661
109	0x3d0091e6	0.03138914
110	0xbdaba4bc	-0.0838103
111	0x3e1e409e	0.15454337
112	0x3ca46f4a	0.020072598
113	0x3df0cde5	0.11758021
114	0xbe23bd16	-0.159901
115	0xbda82735	-0.08210603
116	0xbe1aff30	-0.15136409
117	0x3d9e9f5c	0.07745239
118	0x3dd23790	0.10264504
119	0x3dc5e3b2	0.0966257
120	0x3d6a5334	0.057208255
121	0x3d045821	0.03231061
122	0x3d230e8d	0.0398088
123	0xbd74d5bd	-0.05977415
124	0x3de75c09	0.11296851
125	0x3d2b914d	0.041886616
126	0xbdfbc82c	-0.12294039
127	0xbcaea2e3	-0.021317905
128	0x3d48e0ba	0.04904244
129	0xbd8120fe	-0.06305121
130	0xbdbcc921	-0.0921805
131	0xbc88cc31	-0.016698929
132	0xbdb17214	-0.08664337
133	0xbc59bdec	-0.01328991
134	0xbcf95ba4	-0.030439205
135	0x3d8a15f1	0.06742466
136	0x3d34c90c	0.044137046
137	0xbc4ed34d	-0.01262362
138	0x3e21c250	0.1579678
139	0xbac8b319	-0.0015312164
140	0xbd81aa28	-0.06331283
141	0xbdf02445	-0.11725668
142	0xbe1b47c7	-0.151641
143	0xba8d7b28	-0.001079415
144	0xbdccea43	-0.100056194
145	0x3e8266c6	0.25469035
146	0xbb9d0708	-0.004792098
147	0xbcf93a60	-0.030423343
148	0xbc44feb2	-0.012023615
149	0x3d80d834	0.062912375
150	0x3d87b924	0.0662711
151	0x3d61a451	0.055088345
152	0x3db53950	0.08848822
153	0xbce64b81	-0.028112175
154	0x3c74ef24	0.014949594
155	0xbdadace8	-0.08480245
156	0x3b196963	0.0023408763
157	0xbcb45d7f	-0.022017239
158	0x3d8e8d28	0.06960517
159	0x3de8e2ed	0.11371408
160	0xbd48c4ad	-0.04901569
161	0x3dbc1eb9	0.091855474
162	0x3e167810	0.14694238
163	0xbde4bb7f	-0.111685745
164	0x3e0788d6	0.13235793
165	0x3e3e5aaf	0.1858928
166	0x3de840b2	0.11340465
167	0x3e2a356f	0.16621946
168	0xbdbb6911	-0.09150899
169	0xbe0a5c92	-0.13511875
170	0xbdb80a58	-0.08986348
171	0x3d87f691	0.06638826
172	0xbe888398	-0.26662898
173	0x3cbfa9a7	0.023396326
174	0x3d885ed4	0.06658712
175	0x3c4236a3	0.011853847
176	0xbc0f2088	-0.008735783
177	0x3e4b5fbc	0.19860739
178	0x3d76fb5f	0.06029832
179	0x3d69599d	0.056970228
180	0x3c5303f0	0.012879357
181	0xbdb3f159	-0.08786268
182	0x3bcda100	0.006275296
183	0xbd16fc87	-0.036861923
184	0x3cd2cc01	0.025732042
185	0x3de3ed6c	0.11129269
186	0xbd00db47	-0.03145912
187	0xbd938b02	-0.07204248
188	0xbdc3a4d7	-0.09552925
189	0xbd60739e	-0.05479776
190	0xbd8f52ea	-0.069982365
191	0x3dd06eb6	0.101773664
192	0x3da59168	0.08084375
193	0x3dcfb17e	0.10141276
194	0x3c7d67a1	0.015466602
195	0xbcc5f5f0	-0.024165124
196	0x3ddee01f	0.108825915
197	0x3dd911e1	0.10599113
198	0x3d461083	0.04835559
199	0xbdccbf66	-0.09997444
200	0xbd90f203	-0.0707741
201	0xbc40543c	-0.011738833
202	0xbd6723f8	-0.056430787
203	0xbd96875b	-0.07350036
204	0xbeab1151	-0.3341165
205	0x3dd4a0ab	0.103822075
206	0xbc727959	-0.014799439
207	0xbdb71ef8	-0.08941454
208	0x3ddbb9ec	0.10728821
209	0xbda2fbe6	-0.07958202
210	0xbb91af65	-0.0044459575
211	0xbdbb97c6	-0.09159808
212	0x3d110911	0.035409037
213	0x3ddb8321	0.1071837
214	0xbc96beef	-0.018401591
215	0x3e05fd70	0.1308496
216	0x3dbb2a10	0.09138882
217	0xbd56cead	-0.052443195
218	0x3d97a9e0	0.07405448
219	0xbcc1f875	-0.023678044
220	0xbd0a94c0	-0.033833265
221	0xbc24af39	-0.010051542
222	0xbc287791	-0.010282413
223	0x3d3d4adc	0.04621397
224	0x3c704bf1	0.014666543
225	0x3c588152	0.013214426
226	0x3e06d6bd	0.13167854
227	0x3c829958	0.01594226
228	0xbdb6d6aa	-0.08927663
229	0x3d1767c9	0.03696421
230	0x3c0d1381	0.008610607
231	0x3dec0094	0.11523548
232	0x3de3139f	0.11087727
233	0xbd32e454	-0.043674782
234	0x3b8a9443	0.0042291
235	0x3b8a9dc0	0.004230231
236	0x3ed6f4ba	0.41983587
237	0xbd8c2d2c	-0.06844553
238	0xbd76e474	-0.060276464
239	0x3d3c41bc	0.045961127
240	0x3d96d282	0.0736437
241	0xbd63fd9e	-0.05566179
242	0x3da05090	0.07827866
243	0x3c979c47	0.018507136
244	0xbcaba06b	-0.020950517
245	0xbd9d029f	-0.076665156
246	0xbcb0d8c2	-0.021587733
247	0x3ca4afcb	0.020103356
248	0x3dedf16c	0.11618313
249	0x3bb81fed	0.00561904
250	0x3ade06b5	0.0016939255
251	0x3d82962a	0.06376298
252	0xbd25a4a5	-0.04044022
253	0x3af2167a	0.0018469833
254	0xbd8fbc19	-0.07018299
255	0x3d0598de	0.03261649

msg_net.4.bias f4 [11]
0	0x3c3fb282	0.011700274
1	0xbc1a7561	-0.009427399
2	0x3d1fb8b4	0.038994506
3	0x3dc6dc23	0.097099565
4	0xbd8e5eb3	-0.06951656
5	0x3dbac423	0.09119441
6	0xbd84c2e1	-0.06482483
7	0xbc990396	-0.018678468
8	0xbd881507	-0.06644636
9	0xbde09dc5	-0.10967592
10	0xbdef6fbd	-0.11691234

gru_unit.weight_ih_l0 f4 [30, 20]
0	0xbe771bad	-0.24131651
1	0x3ea50144	0.32227528
2	0xbd1dbb8f	-0.038508948
3	0xbd8b48e1	-0.0680101
4	0x3ea88739	0.32915667
5	0xbd7fdf78	-0.062468976
6	0x3db73074	0.089447886
7	0xbdbd35e7	-0.09238797
8	0x3de3e653	0.11127915
9	0xbe1f87a5	-0.15579088
10	0xbdae4706	-0.085096404
11	0x3e67ad0d	0.22624607
12	0xbf2e6d6a	-0.681357
13	0x3ed36686	0.41289157
14	0xbe8b01c5	-0.27149788
15	0x3f9fb7ab	1.2477926
16	0xbef6d05f	-0.4820585
17	0x3d5083e3	0.050907027
18	0x3ed3dbfe	0.41378778
19	0x3ddbd25a	0.10733481
20	0x3e07e913	0.13272505
21	0xbe168eb8	-0.1470288
22	0x3eee6697	0.46562645
23	0xbdceeef0	-0.101041675
24	0x3e7ed100	0.24884415
25	0xbdf172ac	-0.1178945
26	0x3dcf97fe	0.10136412
27	0xbd93b878	-0.07212919
28	0x3d96fbde	0.073722586
29	0x3d954044	0.07287648
30	0x3b0d5343	0.002156452
31	0x3fa5836e	1.2930734
32	0xbe97b5ef	-0.29630992
33	0x3f794120	0.97365
34	0xbf3f577a	-0.74742854
35	0xbf6ae717	-0.91758865
36	0xbeb62405	-0.35574356
37	0xbe8cff7c	-0.2753867
38	0xbf76d2f2	-0.96415627
39	0x3f50e454	0.815984
40	0xbb542142	-0.0032368456
41	0xbee5019a	-0.44727784
42	0x3b9a799f	0.0047142054
43	0xbd55848c	-0.05212836
44	0x3e1986fe	0.14992902
45	0xbe868087	-0.26269934
46	0x3e7390b8	0.23785675
47	0x3d3a950e	0.045552306
48	0x3dff1b68	0.12456399
49	0xbe3a078c	-0.18166941
50	0x3e8e5c68	0.27804875
51	0xbebd0d61	-0.3692427
52	0x3ddbb29b	0.10727426
53	0xbe0a1ab3	-0.13486747
54	0xbb05696e	-0.002035703
55	0xbeb2aafe	-0.34896082
56	0x3f193dea	0.598601
57	0xbe1dbccf	-0.15404056
58	0xbf1069d8	-0.56411505
59	0x3edf11d4	0.4356829
60	0xbdf0c53f	-0.11756372
61	0xbe5cd71c	-0.21566433
62	0x3d95fde0	0.073238134
63	0x3e3a612f	0.18201135
64	0xbdd363f3	-0.10321798
65	0x3ec4a78f	0.38409087
66	0xbe27ad33	-0.16374664
67	0xbda6a7af	-0.08137452
68	0xbe948e3e	-0.29014772
69	0x3d827e7e	0.06371783
70	0x3e34c971	0.17654969
71	0x3eb8b26a	0.3607362
72	0x3eb4eee3	0.35338506
73	0x3ee8d199	0.4547241
74	0xbe1f864b	-0.15578572
75	0xbef27abd	-0.47359267
76	0x3e6a2cd0	0.22868657
77	0xbf017128	-0.5056329
78	0x3f4c7998	0.7987304
79	0xbe1aff80	-0.15136528
80	0xbe7fe3e3	-0.24989276
81	0xbdf356ae	-0.11881767
82	0x3e522b7a	0.20524397
83	0xbdaec1ae	-0.08533035
84	0xbe5fd5a3	-0.2185884
85	0xbe27bd0e	-0.16380712
86	0x3e2e2102	0.17004779
87	0x3dc16311	0.094427235
88	0x3e242340	0.16029072
89	0x3cfda139	0.030960666
90	0xbe7fc3db	-0.24977057
91	0x3f41c641	0.75693136
92	0xbe2bb3e5	-0.16767843
93	0xbe72070b	-0.23635499
94	0x3f3fb9f8	0.7489314
95	0x3f7f5641	0.9974099
96	0xbee44a76	-0.4458806
97	0x3ea2246d	0.31668416
98	0xbf1594b5	-0.58430034
99	0xbebfed67	-0.3748581
100	0xbe6fe989	-0.2342893
101	0xbcfa6668	-0.03056641
102	0x3d36b51b	0.04460631
103	0x3ed0ec23	0.40805158
104	0xbe8ed2b0	-0.27895117
105	0x3dc660c1	0.09686423
106	0xbd2e3829	-0.042534027
107	0xbeb4898a	-0.35261184
108	0xbecd7f0d	-0.40135995
109	0x3e13c6b7	0.14431272
110	0xbdb87129	-0.090059586
111	0x3f8b7393	1.0894645
112	0x3f78debc	0.97214866
113	0xbe6e7098	-0.23285139
114	0x3f8b401a	1.0878937
115	0xbf893b37	-1.0721196
116	0x3e1770a9	0.1478907
117	0xbf6ca99c	-0.92446303
118	0xbf6dd480	-0.92902374
119	0xbedc3323	-0.43007764
120	0x3db14b37	0.08656924
121	0xbe90cc0d	-0.28280678
122	0xbd95fbe3	-0.07323434
123	0xbea44c5e	-0.32089514
124	0xbde6cdf8	-0.11269754
125	0x3f115ec1	0.5678521
126	0xbe396d05	-0.18107994
127	0x3e2f2e28	0.17107451
128	0xbe474417	-0.19459568
129	0x3e0788a4	0.13235718
130	0xbe2f6ba1	-0.17130901
131	0xbe6ab276	-0.2291964
132	0xbfa88777	-1.316634
133	0x3ef5a680	0.47978592
134	0x3f7ff4b7	0.9998278
135	0xbfb0f4fd	-1.3824764
136	0xbeed5022	-0.463502
137	0x3f1fe34e	0.62456214
138	0xbf23d829	-0.6400171
139	0xbe0ef70e	-0.13961431
140	0x3e244080	0.1604023
141	0x3eab174f	0.3341622
142	0xbe284ad8	-0.164348
143	0xbd29d386	-0.04146149
144	0x3eb3d2b6	0.35121697
145	0x3e03478b	0.1282026
146	0xbe1a1933	-0.15048675
147	0x3d64d1cd	0.055864144
148	0x3e9cf64d	0.30656663
149	0x3daefd5e	0.0854442
150	0xbd4cc3a5	-0.04999127
151	0xbeb89a82	-0.3605538
152	0x3f3f8374	0.74809957
153	0xbe9647ab	-0.29351553
154	0x3f2c2664	0.6724608
155	0xbf00ff29	-0.50389344
156	0xbf818948	-1.012002
157	0x3de88141	0.11352778
158	0xbf7f5688	-0.9974141
159	0x3f3af963	0.73036784
160	0x3dff960f	0.12479793
161	0x3eb1c208	0.34718347
162	0xbd78edf1	-0.060773794
163	0x3e5400d0	0.20703435
164	0x3da5d408	0.080970824
165	0x3e16bb09	0.14719786
166	0xbd8eb07d	-0.06967256
167	0x3ebfad3e	0.3743686
168	0x3e919fce	0.28442234
169	0x3e536094	0.2064231
170	0x3d31e456	0.04343065
171	0x3e735008	0.23760998
172	0xbf498d84	-0.7873156
173	0xbe7fa214	-0.24964172
174	0x3f2a993e	0.6664008
175	0x3f265717	0.6497664
176	0x3e9fef35	0.31237188
177	0xbee62fa0	-0.4495821
178	0xbf16aa5c	-0.588537
179	0x3e6b45a3	0.22975783
180	0xbd39a713	-0.04532535
181	0xbea5b97d	-0.3236808
182	0xbe87fcff	-0.26560208
183	0x3e0904bb	0.13380711
184	0xbe90f78a	-0.28313857
185	0xbdec553e	-0.11539696
186	0x3df47622	0.119365945
187	0xbc4e09a2	-0.012575539
188	0xbe8073e7	-0.25088426
189	0xbe62763c	-0.22115415
190	0x3e668add	0.2251391
191	0x3f658c58	0.8966727
192	0x3e6b07f5	0.22952254
193	0xbf0fdce8	-0.5619645
194	0xbe4e03ce	-0.20118639
195	0xbe662c89	-0.22477926
196	0xbef71c5a	-0.48263818
197	0x3ee32edf	0.44371697
198	0x3e912524	0.2834865
199	0xbe1a3e91	-0.1506293
200	0xbc5900d8	-0.01324483
201	0xbdc2f9e6	-0.095203206
202	0xbe30d45d	-0.1726851
203	0xbdc320f8	-0.09527773
204	0x3ebccec9	0.36876515
205	0xbde8c149	-0.11364991
206	0x3e8353a3	0.25649747
207	0xbe98bcc7	-0.29831526
208	0x3ee3ca0b	0.44490084
209	0x3e5782e7	0.21046029
210	0x3de80825	0.113296784
211	0xbef56ab8	-0.47932982
212	0xbe98978d	-0.29803124
213	0x3e8cd604	0.2750703
214	0xbe9d5d74	-0.30735362
215	0xbf26b1ed	-0.65115243
216	0xbe8edf0b	-0.27904543
217	0xbe818322	-0.2529536
218	0xbe075b31	-0.1321838
219	0xbd92bbfc	-0.071647614
220	0xbdf22490	-0.1182338
221	0xbe5eb7df	-0.21749829
222	0xbe048623	-0.12941794
223	0x3d9e1746	0.07719283
224	0x3d8a88df	0.06764387
225	0x3e83c518	0.25736308
226	0x3da3fd89	0.08007342
227	0xbed19f44	-0.40941823
228	0xbdf8400f	-0.12121593
229	0x3ee600e7	0.44922563
230	0x3efa195f	0.48847482
231	0xbe4b0943	-0.19827752
232	0xbbb5b930	-0.0055457577
233	0xbeaed691	-0.34148076
234	0xbedd5c87	-0.43234655
235	0xbea61fa7	-0.32446024
236	0x3de226ef	0.11042582
237	0xbefe7c87	-0.49704382
238	0x3dc4913e	0.09598015
239	0xbec9d538	-0.39420485
240	0xbf198fd4	-0.5998509
241	0x3ed10e9d	0.40831462
242	0xbe9d21ad	-0.30689755
243	0xbe8535cc	-0.26017606
244	0x3e3f5ce9	0.18687786
245	0xbf1dd418	-0.61651754
246	0xbb8480a8	-0.0040436573
247	0xbea61541	-0.3243809
248	0x3d8012ee	0.062536106
249	0x3d9ae20b	0.075626455
250	0x3dd79bbe	0.10527752
251	0xbe276474	-0.16346914
252	0xbd7df104	-0.06199743
253	0x3e2b3ec2	0.16723159
254	0x3d8bff83	0.06835844
255	0x3de45d57	0.11150616

gru_unit.weight_hh_l0 f4 [30, 10]
0	0x3eae6ca6	0.34067267
1	0xbd61c54a	-0.05511979
2	0xbc521e65	-0.012824629
3	0x3e997015	0.29968324
4	0xbcbe3a30	-0.023221105
5	0xbdd6276f	-0.1045674
6	0x3e420553	0.18947344
7	0xbe6047a4	-0.21902329
8	0x3d587871	0.052849237
9	0x3e4b950b	0.19881074
10	0xbe90a526	-0.28250998
11	0xbe86f159	-0.2635601
12	0x3ecd017a	0.4004019
13	0x3e85bcf3	0.2612072
14	0x3e2b4d0b	0.16728608
15	0x3e747645	0.23873241
16	0xbf1659c6	-0.58730733
17	0x3e1d8f80	0.15386772
18	0xbf0814fb	-0.53157014
19	0x3e830a5b	0.25593838
20	0x3e2f7053	0.17132692
21	0xbe0eff97	-0.13964687
22	0x3e028654	0.12746555
23	0xbe42c383	-0.19019894
24	0x3c7d8087	0.015472538
25	0x3cb0165c	0.021495037
26	0xbe8a6b69	-0.27035072
27	0xbdee448b	-0.11634167
28	0xbeb5c499	-0.35501555
29	0x3f09cd10	0.53828526
30	0x3de6e18d	0.11273489
31	0xbdac574e	-0.084150895
32	0x3cce6d90	0.025198728
33	0xbe26ca59	-0.16288127
34	0x3ea7f0ad	0.3280081
35	0x3d694275	0.056948144
36	0xbe19795f	-0.14987706
37	0x3d69c434	0.05707188
38	0xbe88e61d	-0.26738063
39	0x3c2325e1	0.0099577615
40	0x3e16ba7e	0.14719579
41	0xbda43103	-0.08017161
42	0x3e02018c	0.12695903
43	0x3e826f03	0.2547532
44	0xbe9a9e56	-0.30198926
45	0x3e722375	0.23646338
46	0x3ca3f656	0.020014923
47	0xbee3e796	-0.44512624
48	0xbe7affef	-0.24511693
49	0xbe93da79	-0.2887762
50	0x3c979a00	0.01850605
51	0xbdee498e	-0.11635123
52	0xbe37851d	-0.17921872
53	0xbe1548cb	-0.1457855
54	0x3e204fd4	0.15655452
55	0xbe089973	-0.13339786
56	0xbe9516e4	-0.29119027
57	0x3e10faf4	0.14158231
58	0x3ea37442	0.31924635
59	0x3ed76b6b	0.4207414
60	0xbd6cd76b	-0.057822626
61	0xbe83984f	-0.2570214
62	0xbd7e4f29	-0.06208721
63	0xbe4ee910	-0.20206094
64	0x3e602078	0.21887386
65	0x3e4976b5	0.1967419
66	0xbde1f4b4	-0.110330015
67	0xbe458ae3	-0.19291262
68	0xbd387a96	-0.045038782
69	0x3e5f8645	0.21828564
70	0x3e4ac562	0.19801858
71	0xbe00556d	-0.12532587
72	0x3e515d5b	0.20445769
73	0xbdeb3d98	-0.114863575
74	0x3d934a91	0.07191957
75	0xbcc56d85	-0.024100075
76	0xbd470c9b	-0.048596006
77	0xbe7abb46	-0.24485502
78	0xbe01a3e4	-0.12660176
79	0xbcc862ce	-0.024461176
80	0xbd262470	-0.040562093
81	0xbc1c66fb	-0.009546037
82	0x3db726ae	0.089429244
83	0xbe49d48d	-0.19709988
84	0xbd109669	-0.035299692
85	0x3c264767	0.01014886
86	0x3cfb0daa	0.030646164
87	0xbe6d95ab	-0.23201625
88	0x3e900c03	0.28134164
89	0x3dc0ab1e	0.09407638
90	0xbd7b9c79	-0.06142852
91	0x3e6219f9	0.2208022
92	0xbdf58b6a	-0.11989482
93	0x3d9cc39d	0.07654498
94	0xbe94ffaf	-0.2910132
95	0xbe11c5c6	-0.14235601
96	0xbbe70b6a	-0.007050921
97	0x3e706909	0.23477568
98	0x3d0b84ac	0.034062073
99	0xbe70a409	-0.23500074
100	0xbe936928	-0.28791165
101	0x3c9533b9	0.01821314
102	0xbe71c4fd	-0.23610301
103	0xbe829a28	-0.25508237
104	0xbcda865e	-0.0266754
105	0xbe614afc	-0.2200126
106	0x3e3b9fa0	0.18322611
107	0x3cbdab24	0.023152895
108	0xbd88f5bd	-0.06687496
109	0xbe163a68	-0.14670718
110	0x3e2bdce1	0.16783477
111	0xbe1ef7a0	-0.15524149
112	0xbe49c830	-0.19705272
113	0x3d89e34f	0.06732809
114	0x3eef16af	0.46696994
115	0xbe20bb1d	-0.15696378
116	0x3e469b9b	0.19395296
117	0xbe1ec758	-0.15505731
118	0xbe646b1f	-0.22306488
119	0x3db8dd29	0.09026558
120	0xbf1250b3	-0.5715439
121	0x3eb0a5f0	0.345016
122	0xbe877d39	-0.26462725
123	0xbe2c7f87	-0.16845523
124	0xbeda02a2	-0.42580134
125	0x3d95cfa3	0.07314994
126	0x3d3cf9b3	0.04613657
127	0xbf160455	-0.5860036
128	0x3d32d084	0.043655887
129	0xbd93d5e2	-0.07218529
130	0x3caa8802	0.020816807
131	0xbe0f66eb	-0.14004104
132	0x3dd3f005	0.103485145
133	0x3e84bc20	0.25924778
134	0xbdc5e31d	-0.09662459
135	0xbed20cd9	-0.41025427
136	0x3e410518	0.188496
137	0xbecd8294	-0.40138686
138	0x3db944c5	0.0904632
139	0x3de3cea0	0.11123395
140	0x3d4eec26	0.050518177
141	0xbcd2de4e	-0.025740769
142	0x3cb8c3c3	0.022554284
143	0x3e2b03a5	0.16700609
144	0x3e0149ac	0.1262576
145	0xbdf626df	-0.12019133
146	0x3d1f1544	0.03883864
147	0xbece33ef	-0.40273997
148	0xbe179687	-0.14803515
149	0x3e52badb	0.20579092
150	0x3e018733	0.1264923
151	0xbe90b50d	-0.2826313
152	0x3d35be81	0.04437113
153	0xbe2da500	-0.16957474
154	0x3d556222	0.05209554
155	0xbf13534b	-0.5754897
156	0xbcc57015	-0.024101296
157	0x3eac1f9a	0.3361786
158	0xbea3c85c	-0.319888
159	0xbe09bce2	-0.1345096
160	0x3e17e496	0.14833292
161	0x3f0a45fe	0.5401305
162	0xbedf43b0	-0.4360633
163	0xbd5b5eb9	-0.05355713
164	0xbe2fbafe	-0.17161176
165	0xbead3894	-0.33832228
166	0x3e64609a	0.22302476
167	0x3f5157ab	0.81774396
168	0x3f0662c2	0.5249444
169	0xbf3b6b96	-0.7321104
170	0xbeb58b00	-0.3545761
171	0x3ebd90e3	0.37024602
172	0xbe12e421	-0.14344837
173	0xbdf810a9	-0.12112553
174	0xbef0cc99	-0.47031096
175	0xbe346433	-0.17616348
176	0x3eca99eb	0.39570555
177	0x3ed64e19	0.4185646
178	0xbda3de6d	-0.08001409
179	0xbe28ae7b	-0.16472809
180	0xbe761657	-0.2403196
181	0xbe14a4fe	-0.14516065
182	0xbdeccc6f	-0.1156243
183	0xbe58b628	-0.21163237
184	0xbae359cd	-0.0017345488
185	0x3e61c3da	0.22047368
186	0xbdc469cd	-0.095904924
187	0x3e001ea6	0.12511691
188	0xbe396de4	-0.18108326
189	0x3eb6fe18	0.35740733
190	0xbf14f442	-0.5818521
191	0xbe335907	-0.1751443
192	0x3d536f71	0.05161995
193	0x3e59dd5c	0.21275848
194	0x3ea45d78	0.3210256
195	0x3d364cbe	0.04450678
196	0x3e43ae59	0.19109477
197	0xbe121ffb	-0.14270012
198	0xbe3a1e85	-0.18175705
199	0xbcb6fa8e	-0.02233627
200	0xbe3b6119	-0.18298759
201	0x3e93ad77	0.2884328
202	0x3e482ab0	0.19547534
203	0xbea89ac4	-0.32930577
204	0xbd6793aa	-0.056537308
205	0x3d3985ab	0.04529349
206	0xbde3d84c	-0.1112524
207	0xbeb92d11	-0.36167195
208	0xbe23aeae	-0.15984604
209	0xbd8338e6	-0.06407337
210	0xbea028fd	-0.31281272
211	0xbe89bccc	-0.26901853
212	0x3dedb7b7	0.116073065
213	0xbe076853	-0.1322339
214	0xbe41296d	-0.18863459
215	0x3e46922b	0.19391696
216	0x3e63ce6a	0.2224671
217	0xbe97653e	-0.2956943
218	0xbe2328ea	-0.15933576
219	0xbc1fab9d	-0.009745506
220	0x3e6f8255	0.23389561
221	0xbead7b9c	-0.3388337
222	0xbe978d77	-0.29600117
223	0x3ddfb6f6	0.10923569
224	0x3d78138a	0.06056551
225	0x3eb0b4cc	0.34512937
226	0xbe5bc374	-0.21461278
227	0xbc4d2a01	-0.012522222
228	0xbe4cc6f1	-0.19997765
229	0x3e538470	0.2065599
230	0x3de7fe28	0.11327773
231	0xbe571584	-0.21004301
232	0x3e9eb8df	0.3100042
233	0xbe6c3fae	-0.23071167
234	0x3e76b439	0.24092187
235	0xbebceb5f	-0.36898324
236	0x3e3964c9	0.18104853
237	0xbe49f920	-0.1972394
238	0xbed2a404	-0.4114076
239	0xbe06db5c	-0.13169616
240	0x3d6ebfc2	0.058288343
241	0x3ecf56c1	0.40495875
242	0xbec31a49	-0.3810599
243	0xbebeef0d	-0.37291756
244	0xbdef3dc3	-0.11681702
245	0x3e15db0e	0.14634344
246	0xbd64106b	-0.05567972
247	0xbdcd21f1	-0.100162394
248	0xbe26415a	-0.16235867
249	0xbe866774	-0.26250803
250	0x3e131baa	0.14366022
251	0xbe758511	-0.23976542
252	0xbde99929	-0.11406166
253	0xbccf851d	-0.025332028
254	0xbf1635f8	-0.586761
255	0x3e9d1be9	0.30685356

gru_unit.bias_ih_l0 f4 [30]
0	0xbde85e48	-0.11346108
1	0x3ea1cedb	0.3160313
2	0xbe84c3e9	-0.25930718
3	0xbd3e01b4	-0.046388343
4	0xbe5f75ff	-0.21822356
5	0x3dcd45c3	0.100230716
6	0x3dd917cf	0.10600244
7	0xbe72acc0	-0.23698711
8	0xbdd2419d	-0.10266421
9	0xbe0ffd62	-0.14061502
10	0xbebf94dc	-0.37418258
11	0x3b3d4107	0.002887787
12	0xbec065ac	-0.3757757
13	0xbe36c3f4	-0.17848188
14	0xbf0fc1f8	-0.5615535
15	0xbe7ae167	-0.24500047
16	0xbee78c87	-0.452244
17	0xbe64809b	-0.22314684
18	0xbe61ece4	-0.22063023
19	0xbe1bbba0	-0.15208292
20	0x3e831062	0.25598437
21	0xbdbe33b7	-0.092872076
22	0x3d00be67	0.03143158
23	0xbdf3ddb7	-0.11907523
24	0xbd9cdaea	-0.07658942
25	0xbcac1688	-0.021006837
26	0x3e48e4d8	0.19618547
27	0xbd0ed3f7	-0.034870114
28	0xbd4a0d7d	-0.04932927
29	0x3e8d1ac9	0.27559498

gru_unit.bias_hh_l0 f4 [30]
0	0x3ccf70bf	0.025322316
1	0xbdef4564	-0.11683157
2	0xbe9b03da	-0.30276376
3	0x3eac44f7	0.33646366
4	0xbde9b74e	-0.11411916
5	0xbdff9675	-0.12479869
6	0x3df1c2fa	0.11804767
7	0x3e1df7f5	0.1542662
8	0x3c9b9de3	0.018996185
9	0xbdce05a8	-0.100596726
10	0xbec44471	-0.38333467
11	0xbb29d4df	-0.0025914235
12	0xbeb0daa0	-0.34541798
13	0xbd08c716	-0.03339299
14	0xbf0acaf0	-0.5421591
15	0xbd5003ab	-0.050784748
16	0xbe288298	-0.16456068
17	0xbd885cff	-0.066583626
18	0xbe3f602c	-0.1868903
19	0xbe8bc244	-0.2729665
20	0xbd80869b	-0.06275674
21	0x3eaf5cda	0.34250528
22	0xbe95bd50	-0.29245996
23	0xbdfb027a	-0.12256332
24	0xbec9fe91	-0.3945203
25	0x3e1ba43c	0.15199369
26	0x3eadfeee	0.33983558
27	0xbe7c1f11	-0.24621226
28	0xbebe57f7	-0.37176487
29	0x3e5fb24e	0.21845362

linear_layer.weight f4 [9, 10]
0	0xbf4e68c1	-0.8062859
1	0x3fd9cc84	1.7015538
2	0x3e3b4daa	0.18291345
3	0xbf556e65	-0.83371574
4	0xbfc1b022	-1.5131876
5	0x3f89def2	1.0771163
6	0xbf8b3459	-1.087535
7	0x3f4adbf7	0.7924189
8	0xbf239a4e	-0.63907325
9	0x3faa9503	1.3326725
10	0x3f25ef8e	0.64818656
11	0xbf8d8496	-1.1056087
12	0xbecf94dc	-0.40543258
13	0xbf430599	-0.76180416
14	0x3f41c410	0.7568979
15	0x3fbbb431	1.4664365
16	0xbfb0febd	-1.382774
17	0xbfab1b8e	-1.3367784
18	0x3fbd7cfe	1.480377
19	0x3f0aeb71	0.54265505
20	0xbfa6f53b	-1.3043588
21	0x3f48b9f9	0.7840877
22	0x3f87ec04	1.0618901
23	0xbf94011e	-1.1562841
24	0x3fa82ff3	1.3139633
25	0x3f1ade8d	0.60495836
26	0x3faae36e	1.3350656
27	0x3f1ff657	0.6248526
28	0x3f0394b8	0.513988
29	0xbfc50dfb	-1.5394892
30	0x3fb962c0	1.4483261
31	0xbf252fc2	-0.64526
32	0x3f88823e	1.0664747
33	0x3f74696b	0.95473355
34	0xbf1da4a4	-0.61579347
35	0x3fa7e453	1.3116554
36	0x3f937965	1.1521422
37	0xbf58deab	-0.84714764
38	0xbfa147c9	-1.2600032
39	0xbef8d390	-0.4859891
40	0xbf9a08aa	-1.2033894
41	0xbf95c8a5	-1.1701857
42	0x3f1e5572	0.6184913
43	0x3f8fc554	1.1232095
44	0xbf994118	-1.197299
45	0xbf6307ff	-0.88684076
46	0xbfb535f3	-1.4157089
47	0x3f47336c	0.7781284
48	0xbf6108aa	-0.87903845
49	0xbfa3e0a1	-1.2802926
50	0x3fc1573c	1.5104747
51	0xbf34724d	-0.7048691
52	0xbfcd2cd9	-1.6029311
53	0xbe433c55	-0.19065984
54	0x3fba178f	1.453844
55	0xbe5a587a	-0.21322814
56	0xbe9ab007	-0.30212423
57	0x3fe82809	1.8137218
58	0xbf84b768	-1.0368471
59	0xbb486b0a	-0.0030581378
60	0xbd85da0d	-0.065357305
61	0xbe8f126e	-0.27943748
62	0xbf51337c	-0.81719184
63	0x3f57fd38	0.84370756
64	0xbf6bddd1	-0.9213534
65	0xbfac246a	-1.3448613
66	0x3fa621bd	1.2979046
67	0xbf078593	-0.52938193
68	0x3fc816cf	1.5631961
69	0x3f9a0dbd	1.2035443
70	0xbc5c5ca7	-0.013449824
71	0xbf82e03f	-1.0224684
72	0x3fc35441	1.5260087
73	0xbf96a829	-1.1770068
74	0x3f72832f	0.9473142
75	0xbf9a3357	-1.2046918
76	0xbf72ba06	-0.948151
77	0x3f977697	1.1833066
78	0x3e909bdc	0.2824391
79	0x3f797645	0.9744609
80	0x3f04cb0b	0.5187232
81	0x3faae594	1.3351312
82	0xbf854647	-1.0412072
83	0xbf20599e	-0.62636745
84	0x3f35a62c	0.70956683
85	0xbf7bef22	-0.9841176
86	0xbf4eab39	-0.80730015
87	0xbfd80ab9	-1.6878272
88	0xbf9936ae	-1.1969812
89	0xbf98a09f	-1.1924018

linear_layer.bias f4 [9]
0	0xbc8dad6d	-0.01729461
1	0xbe9c669d	-0.30547038
2	0x3ebc8b14	0.36824858
3	0xbee17027	-0.44030878
4	0xbf031078	-0.51197004
5	0xbe2104c0	-0.15724468
6	0x3e626808	0.22109997
7	0x3dd2f30e	0.10300265
8	0x3e366b24	0.17814308
